program(1.0)
[buildInfo = dict<tensor<string, []>, tensor<string, []>>({{"coremlc-component-MIL", "3400.43.1"}, {"coremlc-version", "3400.58.2"}, {"coremltools-component-torch", "2.2.2"}, {"coremltools-source-dialect", "TorchScript"}, {"coremltools-version", "7.2"}})]
{
    func main<ios17>(tensor<fp16, [1, 4, 64, 64]> noisy_next_obs, tensor<fp32, [1, 4]> prev_act, tensor<fp16, [1, 16, 64, 64]> prev_obs, tensor<fp16, [1]> sigma) {
            tensor<fp16, [1]> sigma_adj_cast_fp16 = identity(x = sigma)[name = tensor<string, []>("sigma_adj_cast_fp16")];
            tensor<fp16, []> var_12_promoted_to_fp16 = const()[name = tensor<string, []>("op_12_promoted_to_fp16"), val = tensor<fp16, []>(0x1p+1)];
            tensor<fp16, [1]> var_13_cast_fp16 = pow(x = sigma_adj_cast_fp16, y = var_12_promoted_to_fp16)[name = tensor<string, []>("op_13_cast_fp16")];
            tensor<fp16, []> var_15_to_fp16 = const()[name = tensor<string, []>("op_15_to_fp16"), val = tensor<fp16, []>(0x1p-2)];
            tensor<fp16, [1]> var_16_cast_fp16 = add(x = var_13_cast_fp16, y = var_15_to_fp16)[name = tensor<string, []>("op_16_cast_fp16")];
            tensor<fp16, [1]> var_17_cast_fp16 = sqrt(x = var_16_cast_fp16)[name = tensor<string, []>("op_17_cast_fp16")];
            tensor<fp32, []> var_18_epsilon_0 = const()[name = tensor<string, []>("op_18_epsilon_0"), val = tensor<fp32, []>(0x1.a36e2ep-14)];
            tensor<fp16, [1]> var_18_cast_fp16 = inverse(epsilon = var_18_epsilon_0, x = var_17_cast_fp16)[name = tensor<string, []>("op_18_cast_fp16")];
            tensor<fp32, []> var_26_epsilon_0 = const()[name = tensor<string, []>("op_26_epsilon_0"), val = tensor<fp32, []>(0x1.a36e2ep-14)];
            tensor<fp16, [1]> var_26_cast_fp16 = inverse(epsilon = var_26_epsilon_0, x = var_16_cast_fp16)[name = tensor<string, []>("op_26_cast_fp16")];
            tensor<fp16, []> var_27_to_fp16 = const()[name = tensor<string, []>("op_27_to_fp16"), val = tensor<fp16, []>(0x1p-2)];
            tensor<fp16, [1]> c_skip_1_cast_fp16 = mul(x = var_26_cast_fp16, y = var_27_to_fp16)[name = tensor<string, []>("c_skip_1_cast_fp16")];
            tensor<fp16, [1]> var_29_cast_fp16 = sqrt(x = c_skip_1_cast_fp16)[name = tensor<string, []>("op_29_cast_fp16")];
            tensor<fp16, [1]> c_out_1_cast_fp16 = mul(x = sigma_adj_cast_fp16, y = var_29_cast_fp16)[name = tensor<string, []>("c_out_1_cast_fp16")];
            tensor<fp32, []> var_31_epsilon_0 = const()[name = tensor<string, []>("op_31_epsilon_0"), val = tensor<fp32, []>(0x1p-149)];
            tensor<fp16, [1]> var_31_cast_fp16 = log(epsilon = var_31_epsilon_0, x = sigma_adj_cast_fp16)[name = tensor<string, []>("op_31_cast_fp16")];
            tensor<fp16, []> _inversed_c_noise_y_0_to_fp16 = const()[name = tensor<string, []>("_inversed_c_noise_y_0_to_fp16"), val = tensor<fp16, []>(0x1p-2)];
            tensor<fp16, [1]> _inversed_c_noise_cast_fp16 = mul(x = var_31_cast_fp16, y = _inversed_c_noise_y_0_to_fp16)[name = tensor<string, []>("_inversed_c_noise_cast_fp16")];
            tensor<int32, [4]> var_44 = const()[name = tensor<string, []>("op_44"), val = tensor<int32, [4]>([-1, 1, 1, 1])];
            tensor<fp16, [1, 1, 1, 1]> c_in_cast_fp16 = reshape(shape = var_44, x = var_18_cast_fp16)[name = tensor<string, []>("c_in_cast_fp16")];
            tensor<int32, [4]> var_50 = const()[name = tensor<string, []>("op_50"), val = tensor<int32, [4]>([-1, 1, 1, 1])];
            tensor<fp16, [1, 1, 1, 1]> c_skip_cast_fp16 = reshape(shape = var_50, x = c_skip_1_cast_fp16)[name = tensor<string, []>("c_skip_cast_fp16")];
            tensor<int32, [4]> var_56 = const()[name = tensor<string, []>("op_56"), val = tensor<int32, [4]>([-1, 1, 1, 1])];
            tensor<fp16, [1, 1, 1, 1]> c_out_cast_fp16 = reshape(shape = var_56, x = c_out_1_cast_fp16)[name = tensor<string, []>("c_out_cast_fp16")];
            tensor<fp16, []> _inversed_obs_y_0_to_fp16 = const()[name = tensor<string, []>("_inversed_obs_y_0_to_fp16"), val = tensor<fp16, []>(0x1p+1)];
            tensor<fp16, [1, 16, 64, 64]> _inversed_obs_cast_fp16 = mul(x = prev_obs, y = _inversed_obs_y_0_to_fp16)[name = tensor<string, []>("_inversed_obs_cast_fp16")];
            tensor<fp16, [1, 4, 64, 64]> noisy_next_obs_cast_fp16 = mul(x = noisy_next_obs, y = c_in_cast_fp16)[name = tensor<string, []>("noisy_next_obs_cast_fp16")];
            tensor<int32, []> var_84 = const()[name = tensor<string, []>("op_84"), val = tensor<int32, []>(-1)];
            tensor<int32, []> var_85 = const()[name = tensor<string, []>("op_85"), val = tensor<int32, []>(1)];
            tensor<int32, []> input_1_axis_0 = const()[name = tensor<string, []>("input_1_axis_0"), val = tensor<int32, []>(0)];
            tensor<int32, []> input_1_batch_dims_0 = const()[name = tensor<string, []>("input_1_batch_dims_0"), val = tensor<int32, []>(0)];
            tensor<bool, []> input_1_validate_indices_0 = const()[name = tensor<string, []>("input_1_validate_indices_0"), val = tensor<bool, []>(false)];
            tensor<fp16, [2, 128]> inner_model_act_emb_0_weight_to_fp16 = const()[name = tensor<string, []>("inner_model_act_emb_0_weight_to_fp16"), val = tensor<fp16, [2, 128]>(BLOBFILE(path = tensor<string, []>("@model_path/weights/weight.bin"), offset = tensor<uint64, []>(64)))];
            tensor<string, []> cast_10_to_int16_dtype_0 = const()[name = tensor<string, []>("cast_10_to_int16_dtype_0"), val = tensor<string, []>("int16")];
            tensor<int16, [1, 4]> cast_61 = cast(dtype = cast_10_to_int16_dtype_0, x = prev_act)[name = tensor<string, []>("cast_61")];
            tensor<fp16, [1, 4, 128]> input_1_cast_fp16_cast_uint16 = gather(axis = input_1_axis_0, batch_dims = input_1_batch_dims_0, indices = cast_61, validate_indices = input_1_validate_indices_0, x = inner_model_act_emb_0_weight_to_fp16)[name = tensor<string, []>("input_1_cast_fp16_cast_uint16")];
            tensor<int32, [2]> concat_0 = const()[name = tensor<string, []>("concat_0"), val = tensor<int32, [2]>([1, 512])];
            tensor<fp16, [1, 512]> act_emb_1_cast_fp16 = reshape(shape = concat_0, x = input_1_cast_fp16_cast_uint16)[name = tensor<string, []>("act_emb_1_cast_fp16")];
            tensor<int32, [1]> var_99_axes_0 = const()[name = tensor<string, []>("op_99_axes_0"), val = tensor<int32, [1]>([1])];
            tensor<fp16, [1, 1]> var_99_cast_fp16 = expand_dims(axes = var_99_axes_0, x = _inversed_c_noise_cast_fp16)[name = tensor<string, []>("op_99_cast_fp16")];
            tensor<fp16, []> var_100_to_fp16 = const()[name = tensor<string, []>("op_100_to_fp16"), val = tensor<fp16, []>(0x1.92p+2)];
            tensor<fp16, [1, 1]> var_101_cast_fp16 = mul(x = var_99_cast_fp16, y = var_100_to_fp16)[name = tensor<string, []>("op_101_cast_fp16")];
            tensor<fp16, [256, 1]> transpose_0_to_fp16 = const()[name = tensor<string, []>("transpose_0_to_fp16"), val = tensor<fp16, [256, 1]>(BLOBFILE(path = tensor<string, []>("@model_path/weights/weight.bin"), offset = tensor<uint64, []>(640)))];
            tensor<fp16, [256]> f_1_bias_0_to_fp16 = const()[name = tensor<string, []>("f_1_bias_0_to_fp16"), val = tensor<fp16, [256]>(BLOBFILE(path = tensor<string, []>("@model_path/weights/weight.bin"), offset = tensor<uint64, []>(1216)))];
            tensor<fp16, [1, 256]> f_1_cast_fp16 = linear(bias = f_1_bias_0_to_fp16, weight = transpose_0_to_fp16, x = var_101_cast_fp16)[name = tensor<string, []>("f_1_cast_fp16")];
            tensor<fp16, [1, 256]> var_103_cast_fp16 = cos(x = f_1_cast_fp16)[name = tensor<string, []>("op_103_cast_fp16")];
            tensor<fp16, [1, 256]> var_104_cast_fp16 = sin(x = f_1_cast_fp16)[name = tensor<string, []>("op_104_cast_fp16")];
            tensor<bool, []> var_106_interleave_0 = const()[name = tensor<string, []>("op_106_interleave_0"), val = tensor<bool, []>(false)];
            tensor<fp16, [1, 512]> var_106_cast_fp16 = concat(axis = var_84, interleave = var_106_interleave_0, values = (var_103_cast_fp16, var_104_cast_fp16))[name = tensor<string, []>("op_106_cast_fp16")];
            tensor<fp16, [1, 512]> var_115_to_fp16 = const()[name = tensor<string, []>("op_115_to_fp16"), val = tensor<fp16, [1, 512]>(BLOBFILE(path = tensor<string, []>("@model_path/weights/weight.bin"), offset = tensor<uint64, []>(1792)))];
            tensor<fp16, [1, 512]> var_116_cast_fp16 = add(x = var_106_cast_fp16, y = var_115_to_fp16)[name = tensor<string, []>("op_116_cast_fp16")];
            tensor<fp16, [1, 512]> input_5_cast_fp16 = add(x = var_116_cast_fp16, y = act_emb_1_cast_fp16)[name = tensor<string, []>("input_5_cast_fp16")];
            tensor<fp16, [512, 512]> inner_model_cond_proj_0_weight_to_fp16 = const()[name = tensor<string, []>("inner_model_cond_proj_0_weight_to_fp16"), val = tensor<fp16, [512, 512]>(BLOBFILE(path = tensor<string, []>("@model_path/weights/weight.bin"), offset = tensor<uint64, []>(2880)))];
            tensor<fp16, [512]> inner_model_cond_proj_0_bias_to_fp16 = const()[name = tensor<string, []>("inner_model_cond_proj_0_bias_to_fp16"), val = tensor<fp16, [512]>(BLOBFILE(path = tensor<string, []>("@model_path/weights/weight.bin"), offset = tensor<uint64, []>(527232)))];
            tensor<fp16, [1, 512]> linear_0_cast_fp16 = linear(bias = inner_model_cond_proj_0_bias_to_fp16, weight = inner_model_cond_proj_0_weight_to_fp16, x = input_5_cast_fp16)[name = tensor<string, []>("linear_0_cast_fp16")];
            tensor<fp16, [1, 512]> input_9_cast_fp16 = silu(x = linear_0_cast_fp16)[name = tensor<string, []>("input_9_cast_fp16")];
            tensor<fp16, [512, 512]> inner_model_cond_proj_2_weight_to_fp16 = const()[name = tensor<string, []>("inner_model_cond_proj_2_weight_to_fp16"), val = tensor<fp16, [512, 512]>(BLOBFILE(path = tensor<string, []>("@model_path/weights/weight.bin"), offset = tensor<uint64, []>(528320)))];
            tensor<fp16, [512]> inner_model_cond_proj_2_bias_to_fp16 = const()[name = tensor<string, []>("inner_model_cond_proj_2_bias_to_fp16"), val = tensor<fp16, [512]>(BLOBFILE(path = tensor<string, []>("@model_path/weights/weight.bin"), offset = tensor<uint64, []>(1052672)))];
            tensor<fp16, [1, 512]> linear_1_cast_fp16 = linear(bias = inner_model_cond_proj_2_bias_to_fp16, weight = inner_model_cond_proj_2_weight_to_fp16, x = input_9_cast_fp16)[name = tensor<string, []>("linear_1_cast_fp16")];
            tensor<bool, []> input_11_interleave_0 = const()[name = tensor<string, []>("input_11_interleave_0"), val = tensor<bool, []>(false)];
            tensor<fp16, [1, 20, 64, 64]> input_11_cast_fp16 = concat(axis = var_85, interleave = input_11_interleave_0, values = (_inversed_obs_cast_fp16, noisy_next_obs_cast_fp16))[name = tensor<string, []>("input_11_cast_fp16")];
            tensor<int32, [2]> var_131 = const()[name = tensor<string, []>("op_131"), val = tensor<int32, [2]>([1, 1])];
            tensor<int32, [2]> var_133 = const()[name = tensor<string, []>("op_133"), val = tensor<int32, [2]>([1, 1])];
            tensor<string, []> x_1_pad_type_0 = const()[name = tensor<string, []>("x_1_pad_type_0"), val = tensor<string, []>("custom")];
            tensor<int32, [4]> x_1_pad_0 = const()[name = tensor<string, []>("x_1_pad_0"), val = tensor<int32, [4]>([1, 1, 1, 1])];
            tensor<fp16, [32, 20, 3, 3]> inner_model_conv_in_weight_to_fp16 = const()[name = tensor<string, []>("inner_model_conv_in_weight_to_fp16"), val = tensor<fp16, [32, 20, 3, 3]>(BLOBFILE(path = tensor<string, []>("@model_path/weights/weight.bin"), offset = tensor<uint64, []>(1053760)))];
            tensor<fp16, [32]> inner_model_conv_in_bias_to_fp16 = const()[name = tensor<string, []>("inner_model_conv_in_bias_to_fp16"), val = tensor<fp16, [32]>(BLOBFILE(path = tensor<string, []>("@model_path/weights/weight.bin"), offset = tensor<uint64, []>(1065344)))];
            tensor<fp16, [1, 32, 64, 64]> x_1_cast_fp16 = conv(bias = inner_model_conv_in_bias_to_fp16, dilations = var_133, groups = var_85, pad = x_1_pad_0, pad_type = x_1_pad_type_0, strides = var_131, weight = inner_model_conv_in_weight_to_fp16, x = input_11_cast_fp16)[name = tensor<string, []>("x_1_cast_fp16")];
            tensor<int32, [5]> reshape_0_shape_0 = const()[name = tensor<string, []>("reshape_0_shape_0"), val = tensor<int32, [5]>([1, 1, 32, 64, 64])];
            tensor<fp16, [1, 1, 32, 64, 64]> reshape_0_cast_fp16 = reshape(shape = reshape_0_shape_0, x = x_1_cast_fp16)[name = tensor<string, []>("reshape_0_cast_fp16")];
            tensor<int32, [3]> reduce_mean_0_axes_0 = const()[name = tensor<string, []>("reduce_mean_0_axes_0"), val = tensor<int32, [3]>([2, 3, 4])];
            tensor<bool, []> reduce_mean_0_keep_dims_0 = const()[name = tensor<string, []>("reduce_mean_0_keep_dims_0"), val = tensor<bool, []>(true)];
            tensor<fp16, [1, 1, 1, 1, 1]> reduce_mean_0_cast_fp16 = reduce_mean(axes = reduce_mean_0_axes_0, keep_dims = reduce_mean_0_keep_dims_0, x = reshape_0_cast_fp16)[name = tensor<string, []>("reduce_mean_0_cast_fp16")];
            tensor<fp16, [1, 1, 32, 64, 64]> sub_0_cast_fp16 = sub(x = reshape_0_cast_fp16, y = reduce_mean_0_cast_fp16)[name = tensor<string, []>("sub_0_cast_fp16")];
            tensor<fp16, [1, 1, 32, 64, 64]> square_0_cast_fp16 = square(x = sub_0_cast_fp16)[name = tensor<string, []>("square_0_cast_fp16")];
            tensor<int32, [3]> reduce_mean_2_axes_0 = const()[name = tensor<string, []>("reduce_mean_2_axes_0"), val = tensor<int32, [3]>([2, 3, 4])];
            tensor<bool, []> reduce_mean_2_keep_dims_0 = const()[name = tensor<string, []>("reduce_mean_2_keep_dims_0"), val = tensor<bool, []>(true)];
            tensor<fp16, [1, 1, 1, 1, 1]> reduce_mean_2_cast_fp16 = reduce_mean(axes = reduce_mean_2_axes_0, keep_dims = reduce_mean_2_keep_dims_0, x = square_0_cast_fp16)[name = tensor<string, []>("reduce_mean_2_cast_fp16")];
            tensor<fp16, []> add_0_y_0_to_fp16 = const()[name = tensor<string, []>("add_0_y_0_to_fp16"), val = tensor<fp16, []>(0x1.5p-17)];
            tensor<fp16, [1, 1, 1, 1, 1]> add_0_cast_fp16 = add(x = reduce_mean_2_cast_fp16, y = add_0_y_0_to_fp16)[name = tensor<string, []>("add_0_cast_fp16")];
            tensor<fp16, [1, 1, 1, 1, 1]> sqrt_0_cast_fp16 = sqrt(x = add_0_cast_fp16)[name = tensor<string, []>("sqrt_0_cast_fp16")];
            tensor<fp16, [1, 1, 32, 64, 64]> real_div_0_cast_fp16 = real_div(x = sub_0_cast_fp16, y = sqrt_0_cast_fp16)[name = tensor<string, []>("real_div_0_cast_fp16")];
            tensor<int32, [4]> reshape_1_shape_0 = const()[name = tensor<string, []>("reshape_1_shape_0"), val = tensor<int32, [4]>([1, 32, 64, 64])];
            tensor<fp16, [1, 32, 64, 64]> reshape_1_cast_fp16 = reshape(shape = reshape_1_shape_0, x = real_div_0_cast_fp16)[name = tensor<string, []>("reshape_1_cast_fp16")];
            tensor<fp16, [64, 512]> inner_model_unet_d_blocks_0_resblocks_0_norm1_linear_weight_to_fp16 = const()[name = tensor<string, []>("inner_model_unet_d_blocks_0_resblocks_0_norm1_linear_weight_to_fp16"), val = tensor<fp16, [64, 512]>(BLOBFILE(path = tensor<string, []>("@model_path/weights/weight.bin"), offset = tensor<uint64, []>(1065472)))];
            tensor<fp16, [64]> inner_model_unet_d_blocks_0_resblocks_0_norm1_linear_bias_to_fp16 = const()[name = tensor<string, []>("inner_model_unet_d_blocks_0_resblocks_0_norm1_linear_bias_to_fp16"), val = tensor<fp16, [64]>(BLOBFILE(path = tensor<string, []>("@model_path/weights/weight.bin"), offset = tensor<uint64, []>(1131072)))];
            tensor<fp16, [1, 64]> linear_2_cast_fp16 = linear(bias = inner_model_unet_d_blocks_0_resblocks_0_norm1_linear_bias_to_fp16, weight = inner_model_unet_d_blocks_0_resblocks_0_norm1_linear_weight_to_fp16, x = linear_1_cast_fp16)[name = tensor<string, []>("linear_2_cast_fp16")];
            tensor<int32, [1]> var_190_axes_0 = const()[name = tensor<string, []>("op_190_axes_0"), val = tensor<int32, [1]>([2])];
            tensor<fp16, [1, 64, 1]> var_190_cast_fp16 = expand_dims(axes = var_190_axes_0, x = linear_2_cast_fp16)[name = tensor<string, []>("op_190_cast_fp16")];
            tensor<int32, [1]> var_191_axes_0 = const()[name = tensor<string, []>("op_191_axes_0"), val = tensor<int32, [1]>([3])];
            tensor<fp16, [1, 64, 1, 1]> var_191_cast_fp16 = expand_dims(axes = var_191_axes_0, x = var_190_cast_fp16)[name = tensor<string, []>("op_191_cast_fp16")];
            tensor<int32, [2]> var_192_split_sizes_0 = const()[name = tensor<string, []>("op_192_split_sizes_0"), val = tensor<int32, [2]>([32, 32])];
            tensor<int32, []> var_192_axis_0 = const()[name = tensor<string, []>("op_192_axis_0"), val = tensor<int32, []>(1)];
            tensor<fp16, [1, 32, 1, 1]> var_192_cast_fp16_0, tensor<fp16, [1, 32, 1, 1]> var_192_cast_fp16_1 = split(axis = var_192_axis_0, split_sizes = var_192_split_sizes_0, x = var_191_cast_fp16)[name = tensor<string, []>("op_192_cast_fp16")];
            tensor<fp16, []> var_194_promoted_to_fp16 = const()[name = tensor<string, []>("op_194_promoted_to_fp16"), val = tensor<fp16, []>(0x1p+0)];
            tensor<fp16, [1, 32, 1, 1]> var_195_cast_fp16 = add(x = var_192_cast_fp16_0, y = var_194_promoted_to_fp16)[name = tensor<string, []>("op_195_cast_fp16")];
            tensor<fp16, [1, 32, 64, 64]> var_196_cast_fp16 = mul(x = reshape_1_cast_fp16, y = var_195_cast_fp16)[name = tensor<string, []>("op_196_cast_fp16")];
            tensor<fp16, [1, 32, 64, 64]> input_15_cast_fp16 = add(x = var_196_cast_fp16, y = var_192_cast_fp16_1)[name = tensor<string, []>("input_15_cast_fp16")];
            tensor<fp16, [1, 32, 64, 64]> input_17_cast_fp16 = silu(x = input_15_cast_fp16)[name = tensor<string, []>("input_17_cast_fp16")];
            tensor<int32, [2]> var_201 = const()[name = tensor<string, []>("op_201"), val = tensor<int32, [2]>([1, 1])];
            tensor<int32, [2]> var_203 = const()[name = tensor<string, []>("op_203"), val = tensor<int32, [2]>([1, 1])];
            tensor<string, []> x_7_pad_type_0 = const()[name = tensor<string, []>("x_7_pad_type_0"), val = tensor<string, []>("custom")];
            tensor<int32, [4]> x_7_pad_0 = const()[name = tensor<string, []>("x_7_pad_0"), val = tensor<int32, [4]>([1, 1, 1, 1])];
            tensor<fp16, [32, 32, 3, 3]> inner_model_unet_d_blocks_0_resblocks_0_conv1_weight_to_fp16 = const()[name = tensor<string, []>("inner_model_unet_d_blocks_0_resblocks_0_conv1_weight_to_fp16"), val = tensor<fp16, [32, 32, 3, 3]>(BLOBFILE(path = tensor<string, []>("@model_path/weights/weight.bin"), offset = tensor<uint64, []>(1131264)))];
            tensor<fp16, [32]> inner_model_unet_d_blocks_0_resblocks_0_conv1_bias_to_fp16 = const()[name = tensor<string, []>("inner_model_unet_d_blocks_0_resblocks_0_conv1_bias_to_fp16"), val = tensor<fp16, [32]>(BLOBFILE(path = tensor<string, []>("@model_path/weights/weight.bin"), offset = tensor<uint64, []>(1149760)))];
            tensor<fp16, [1, 32, 64, 64]> x_7_cast_fp16 = conv(bias = inner_model_unet_d_blocks_0_resblocks_0_conv1_bias_to_fp16, dilations = var_203, groups = var_85, pad = x_7_pad_0, pad_type = x_7_pad_type_0, strides = var_201, weight = inner_model_unet_d_blocks_0_resblocks_0_conv1_weight_to_fp16, x = input_17_cast_fp16)[name = tensor<string, []>("x_7_cast_fp16")];
            tensor<int32, [5]> reshape_2_shape_0 = const()[name = tensor<string, []>("reshape_2_shape_0"), val = tensor<int32, [5]>([1, 1, 32, 64, 64])];
            tensor<fp16, [1, 1, 32, 64, 64]> reshape_2_cast_fp16 = reshape(shape = reshape_2_shape_0, x = x_7_cast_fp16)[name = tensor<string, []>("reshape_2_cast_fp16")];
            tensor<int32, [3]> reduce_mean_3_axes_0 = const()[name = tensor<string, []>("reduce_mean_3_axes_0"), val = tensor<int32, [3]>([2, 3, 4])];
            tensor<bool, []> reduce_mean_3_keep_dims_0 = const()[name = tensor<string, []>("reduce_mean_3_keep_dims_0"), val = tensor<bool, []>(true)];
            tensor<fp16, [1, 1, 1, 1, 1]> reduce_mean_3_cast_fp16 = reduce_mean(axes = reduce_mean_3_axes_0, keep_dims = reduce_mean_3_keep_dims_0, x = reshape_2_cast_fp16)[name = tensor<string, []>("reduce_mean_3_cast_fp16")];
            tensor<fp16, [1, 1, 32, 64, 64]> sub_2_cast_fp16 = sub(x = reshape_2_cast_fp16, y = reduce_mean_3_cast_fp16)[name = tensor<string, []>("sub_2_cast_fp16")];
            tensor<fp16, [1, 1, 32, 64, 64]> square_1_cast_fp16 = square(x = sub_2_cast_fp16)[name = tensor<string, []>("square_1_cast_fp16")];
            tensor<int32, [3]> reduce_mean_5_axes_0 = const()[name = tensor<string, []>("reduce_mean_5_axes_0"), val = tensor<int32, [3]>([2, 3, 4])];
            tensor<bool, []> reduce_mean_5_keep_dims_0 = const()[name = tensor<string, []>("reduce_mean_5_keep_dims_0"), val = tensor<bool, []>(true)];
            tensor<fp16, [1, 1, 1, 1, 1]> reduce_mean_5_cast_fp16 = reduce_mean(axes = reduce_mean_5_axes_0, keep_dims = reduce_mean_5_keep_dims_0, x = square_1_cast_fp16)[name = tensor<string, []>("reduce_mean_5_cast_fp16")];
            tensor<fp16, []> add_1_y_0_to_fp16 = const()[name = tensor<string, []>("add_1_y_0_to_fp16"), val = tensor<fp16, []>(0x1.5p-17)];
            tensor<fp16, [1, 1, 1, 1, 1]> add_1_cast_fp16 = add(x = reduce_mean_5_cast_fp16, y = add_1_y_0_to_fp16)[name = tensor<string, []>("add_1_cast_fp16")];
            tensor<fp16, [1, 1, 1, 1, 1]> sqrt_1_cast_fp16 = sqrt(x = add_1_cast_fp16)[name = tensor<string, []>("sqrt_1_cast_fp16")];
            tensor<fp16, [1, 1, 32, 64, 64]> real_div_1_cast_fp16 = real_div(x = sub_2_cast_fp16, y = sqrt_1_cast_fp16)[name = tensor<string, []>("real_div_1_cast_fp16")];
            tensor<int32, [4]> reshape_3_shape_0 = const()[name = tensor<string, []>("reshape_3_shape_0"), val = tensor<int32, [4]>([1, 32, 64, 64])];
            tensor<fp16, [1, 32, 64, 64]> reshape_3_cast_fp16 = reshape(shape = reshape_3_shape_0, x = real_div_1_cast_fp16)[name = tensor<string, []>("reshape_3_cast_fp16")];
            tensor<fp16, [64, 512]> inner_model_unet_d_blocks_0_resblocks_0_norm2_linear_weight_to_fp16 = const()[name = tensor<string, []>("inner_model_unet_d_blocks_0_resblocks_0_norm2_linear_weight_to_fp16"), val = tensor<fp16, [64, 512]>(BLOBFILE(path = tensor<string, []>("@model_path/weights/weight.bin"), offset = tensor<uint64, []>(1149888)))];
            tensor<fp16, [64]> inner_model_unet_d_blocks_0_resblocks_0_norm2_linear_bias_to_fp16 = const()[name = tensor<string, []>("inner_model_unet_d_blocks_0_resblocks_0_norm2_linear_bias_to_fp16"), val = tensor<fp16, [64]>(BLOBFILE(path = tensor<string, []>("@model_path/weights/weight.bin"), offset = tensor<uint64, []>(1215488)))];
            tensor<fp16, [1, 64]> linear_3_cast_fp16 = linear(bias = inner_model_unet_d_blocks_0_resblocks_0_norm2_linear_bias_to_fp16, weight = inner_model_unet_d_blocks_0_resblocks_0_norm2_linear_weight_to_fp16, x = linear_1_cast_fp16)[name = tensor<string, []>("linear_3_cast_fp16")];
            tensor<int32, [1]> var_213_axes_0 = const()[name = tensor<string, []>("op_213_axes_0"), val = tensor<int32, [1]>([2])];
            tensor<fp16, [1, 64, 1]> var_213_cast_fp16 = expand_dims(axes = var_213_axes_0, x = linear_3_cast_fp16)[name = tensor<string, []>("op_213_cast_fp16")];
            tensor<int32, [1]> var_214_axes_0 = const()[name = tensor<string, []>("op_214_axes_0"), val = tensor<int32, [1]>([3])];
            tensor<fp16, [1, 64, 1, 1]> var_214_cast_fp16 = expand_dims(axes = var_214_axes_0, x = var_213_cast_fp16)[name = tensor<string, []>("op_214_cast_fp16")];
            tensor<int32, [2]> var_215_split_sizes_0 = const()[name = tensor<string, []>("op_215_split_sizes_0"), val = tensor<int32, [2]>([32, 32])];
            tensor<int32, []> var_215_axis_0 = const()[name = tensor<string, []>("op_215_axis_0"), val = tensor<int32, []>(1)];
            tensor<fp16, [1, 32, 1, 1]> var_215_cast_fp16_0, tensor<fp16, [1, 32, 1, 1]> var_215_cast_fp16_1 = split(axis = var_215_axis_0, split_sizes = var_215_split_sizes_0, x = var_214_cast_fp16)[name = tensor<string, []>("op_215_cast_fp16")];
            tensor<fp16, []> var_217_promoted_to_fp16 = const()[name = tensor<string, []>("op_217_promoted_to_fp16"), val = tensor<fp16, []>(0x1p+0)];
            tensor<fp16, [1, 32, 1, 1]> var_218_cast_fp16 = add(x = var_215_cast_fp16_0, y = var_217_promoted_to_fp16)[name = tensor<string, []>("op_218_cast_fp16")];
            tensor<fp16, [1, 32, 64, 64]> var_219_cast_fp16 = mul(x = reshape_3_cast_fp16, y = var_218_cast_fp16)[name = tensor<string, []>("op_219_cast_fp16")];
            tensor<fp16, [1, 32, 64, 64]> input_19_cast_fp16 = add(x = var_219_cast_fp16, y = var_215_cast_fp16_1)[name = tensor<string, []>("input_19_cast_fp16")];
            tensor<fp16, [1, 32, 64, 64]> input_21_cast_fp16 = silu(x = input_19_cast_fp16)[name = tensor<string, []>("input_21_cast_fp16")];
            tensor<int32, [2]> var_224 = const()[name = tensor<string, []>("op_224"), val = tensor<int32, [2]>([1, 1])];
            tensor<int32, [2]> var_226 = const()[name = tensor<string, []>("op_226"), val = tensor<int32, [2]>([1, 1])];
            tensor<string, []> x_11_pad_type_0 = const()[name = tensor<string, []>("x_11_pad_type_0"), val = tensor<string, []>("custom")];
            tensor<int32, [4]> x_11_pad_0 = const()[name = tensor<string, []>("x_11_pad_0"), val = tensor<int32, [4]>([1, 1, 1, 1])];
            tensor<fp16, [32, 32, 3, 3]> inner_model_unet_d_blocks_0_resblocks_0_conv2_weight_to_fp16 = const()[name = tensor<string, []>("inner_model_unet_d_blocks_0_resblocks_0_conv2_weight_to_fp16"), val = tensor<fp16, [32, 32, 3, 3]>(BLOBFILE(path = tensor<string, []>("@model_path/weights/weight.bin"), offset = tensor<uint64, []>(1215680)))];
            tensor<fp16, [32]> inner_model_unet_d_blocks_0_resblocks_0_conv2_bias_to_fp16 = const()[name = tensor<string, []>("inner_model_unet_d_blocks_0_resblocks_0_conv2_bias_to_fp16"), val = tensor<fp16, [32]>(BLOBFILE(path = tensor<string, []>("@model_path/weights/weight.bin"), offset = tensor<uint64, []>(1234176)))];
            tensor<fp16, [1, 32, 64, 64]> x_11_cast_fp16 = conv(bias = inner_model_unet_d_blocks_0_resblocks_0_conv2_bias_to_fp16, dilations = var_226, groups = var_85, pad = x_11_pad_0, pad_type = x_11_pad_type_0, strides = var_224, weight = inner_model_unet_d_blocks_0_resblocks_0_conv2_weight_to_fp16, x = input_21_cast_fp16)[name = tensor<string, []>("x_11_cast_fp16")];
            tensor<fp16, [1, 32, 64, 64]> x_13_cast_fp16 = add(x = x_11_cast_fp16, y = x_1_cast_fp16)[name = tensor<string, []>("x_13_cast_fp16")];
            tensor<int32, [5]> reshape_4_shape_0 = const()[name = tensor<string, []>("reshape_4_shape_0"), val = tensor<int32, [5]>([1, 1, 32, 64, 64])];
            tensor<fp16, [1, 1, 32, 64, 64]> reshape_4_cast_fp16 = reshape(shape = reshape_4_shape_0, x = x_13_cast_fp16)[name = tensor<string, []>("reshape_4_cast_fp16")];
            tensor<int32, [3]> reduce_mean_6_axes_0 = const()[name = tensor<string, []>("reduce_mean_6_axes_0"), val = tensor<int32, [3]>([2, 3, 4])];
            tensor<bool, []> reduce_mean_6_keep_dims_0 = const()[name = tensor<string, []>("reduce_mean_6_keep_dims_0"), val = tensor<bool, []>(true)];
            tensor<fp16, [1, 1, 1, 1, 1]> reduce_mean_6_cast_fp16 = reduce_mean(axes = reduce_mean_6_axes_0, keep_dims = reduce_mean_6_keep_dims_0, x = reshape_4_cast_fp16)[name = tensor<string, []>("reduce_mean_6_cast_fp16")];
            tensor<fp16, [1, 1, 32, 64, 64]> sub_4_cast_fp16 = sub(x = reshape_4_cast_fp16, y = reduce_mean_6_cast_fp16)[name = tensor<string, []>("sub_4_cast_fp16")];
            tensor<fp16, [1, 1, 32, 64, 64]> square_2_cast_fp16 = square(x = sub_4_cast_fp16)[name = tensor<string, []>("square_2_cast_fp16")];
            tensor<int32, [3]> reduce_mean_8_axes_0 = const()[name = tensor<string, []>("reduce_mean_8_axes_0"), val = tensor<int32, [3]>([2, 3, 4])];
            tensor<bool, []> reduce_mean_8_keep_dims_0 = const()[name = tensor<string, []>("reduce_mean_8_keep_dims_0"), val = tensor<bool, []>(true)];
            tensor<fp16, [1, 1, 1, 1, 1]> reduce_mean_8_cast_fp16 = reduce_mean(axes = reduce_mean_8_axes_0, keep_dims = reduce_mean_8_keep_dims_0, x = square_2_cast_fp16)[name = tensor<string, []>("reduce_mean_8_cast_fp16")];
            tensor<fp16, []> add_2_y_0_to_fp16 = const()[name = tensor<string, []>("add_2_y_0_to_fp16"), val = tensor<fp16, []>(0x1.5p-17)];
            tensor<fp16, [1, 1, 1, 1, 1]> add_2_cast_fp16 = add(x = reduce_mean_8_cast_fp16, y = add_2_y_0_to_fp16)[name = tensor<string, []>("add_2_cast_fp16")];
            tensor<fp16, [1, 1, 1, 1, 1]> sqrt_2_cast_fp16 = sqrt(x = add_2_cast_fp16)[name = tensor<string, []>("sqrt_2_cast_fp16")];
            tensor<fp16, [1, 1, 32, 64, 64]> real_div_2_cast_fp16 = real_div(x = sub_4_cast_fp16, y = sqrt_2_cast_fp16)[name = tensor<string, []>("real_div_2_cast_fp16")];
            tensor<int32, [4]> reshape_5_shape_0 = const()[name = tensor<string, []>("reshape_5_shape_0"), val = tensor<int32, [4]>([1, 32, 64, 64])];
            tensor<fp16, [1, 32, 64, 64]> reshape_5_cast_fp16 = reshape(shape = reshape_5_shape_0, x = real_div_2_cast_fp16)[name = tensor<string, []>("reshape_5_cast_fp16")];
            tensor<fp16, [64, 512]> inner_model_unet_d_blocks_0_resblocks_1_norm1_linear_weight_to_fp16 = const()[name = tensor<string, []>("inner_model_unet_d_blocks_0_resblocks_1_norm1_linear_weight_to_fp16"), val = tensor<fp16, [64, 512]>(BLOBFILE(path = tensor<string, []>("@model_path/weights/weight.bin"), offset = tensor<uint64, []>(1234304)))];
            tensor<fp16, [64]> inner_model_unet_d_blocks_0_resblocks_1_norm1_linear_bias_to_fp16 = const()[name = tensor<string, []>("inner_model_unet_d_blocks_0_resblocks_1_norm1_linear_bias_to_fp16"), val = tensor<fp16, [64]>(BLOBFILE(path = tensor<string, []>("@model_path/weights/weight.bin"), offset = tensor<uint64, []>(1299904)))];
            tensor<fp16, [1, 64]> linear_4_cast_fp16 = linear(bias = inner_model_unet_d_blocks_0_resblocks_1_norm1_linear_bias_to_fp16, weight = inner_model_unet_d_blocks_0_resblocks_1_norm1_linear_weight_to_fp16, x = linear_1_cast_fp16)[name = tensor<string, []>("linear_4_cast_fp16")];
            tensor<int32, [1]> var_241_axes_0 = const()[name = tensor<string, []>("op_241_axes_0"), val = tensor<int32, [1]>([2])];
            tensor<fp16, [1, 64, 1]> var_241_cast_fp16 = expand_dims(axes = var_241_axes_0, x = linear_4_cast_fp16)[name = tensor<string, []>("op_241_cast_fp16")];
            tensor<int32, [1]> var_242_axes_0 = const()[name = tensor<string, []>("op_242_axes_0"), val = tensor<int32, [1]>([3])];
            tensor<fp16, [1, 64, 1, 1]> var_242_cast_fp16 = expand_dims(axes = var_242_axes_0, x = var_241_cast_fp16)[name = tensor<string, []>("op_242_cast_fp16")];
            tensor<int32, [2]> var_243_split_sizes_0 = const()[name = tensor<string, []>("op_243_split_sizes_0"), val = tensor<int32, [2]>([32, 32])];
            tensor<int32, []> var_243_axis_0 = const()[name = tensor<string, []>("op_243_axis_0"), val = tensor<int32, []>(1)];
            tensor<fp16, [1, 32, 1, 1]> var_243_cast_fp16_0, tensor<fp16, [1, 32, 1, 1]> var_243_cast_fp16_1 = split(axis = var_243_axis_0, split_sizes = var_243_split_sizes_0, x = var_242_cast_fp16)[name = tensor<string, []>("op_243_cast_fp16")];
            tensor<fp16, []> var_245_promoted_to_fp16 = const()[name = tensor<string, []>("op_245_promoted_to_fp16"), val = tensor<fp16, []>(0x1p+0)];
            tensor<fp16, [1, 32, 1, 1]> var_246_cast_fp16 = add(x = var_243_cast_fp16_0, y = var_245_promoted_to_fp16)[name = tensor<string, []>("op_246_cast_fp16")];
            tensor<fp16, [1, 32, 64, 64]> var_247_cast_fp16 = mul(x = reshape_5_cast_fp16, y = var_246_cast_fp16)[name = tensor<string, []>("op_247_cast_fp16")];
            tensor<fp16, [1, 32, 64, 64]> input_23_cast_fp16 = add(x = var_247_cast_fp16, y = var_243_cast_fp16_1)[name = tensor<string, []>("input_23_cast_fp16")];
            tensor<fp16, [1, 32, 64, 64]> input_25_cast_fp16 = silu(x = input_23_cast_fp16)[name = tensor<string, []>("input_25_cast_fp16")];
            tensor<int32, [2]> var_252 = const()[name = tensor<string, []>("op_252"), val = tensor<int32, [2]>([1, 1])];
            tensor<int32, [2]> var_254 = const()[name = tensor<string, []>("op_254"), val = tensor<int32, [2]>([1, 1])];
            tensor<string, []> x_17_pad_type_0 = const()[name = tensor<string, []>("x_17_pad_type_0"), val = tensor<string, []>("custom")];
            tensor<int32, [4]> x_17_pad_0 = const()[name = tensor<string, []>("x_17_pad_0"), val = tensor<int32, [4]>([1, 1, 1, 1])];
            tensor<fp16, [32, 32, 3, 3]> inner_model_unet_d_blocks_0_resblocks_1_conv1_weight_to_fp16 = const()[name = tensor<string, []>("inner_model_unet_d_blocks_0_resblocks_1_conv1_weight_to_fp16"), val = tensor<fp16, [32, 32, 3, 3]>(BLOBFILE(path = tensor<string, []>("@model_path/weights/weight.bin"), offset = tensor<uint64, []>(1300096)))];
            tensor<fp16, [32]> inner_model_unet_d_blocks_0_resblocks_1_conv1_bias_to_fp16 = const()[name = tensor<string, []>("inner_model_unet_d_blocks_0_resblocks_1_conv1_bias_to_fp16"), val = tensor<fp16, [32]>(BLOBFILE(path = tensor<string, []>("@model_path/weights/weight.bin"), offset = tensor<uint64, []>(1318592)))];
            tensor<fp16, [1, 32, 64, 64]> x_17_cast_fp16 = conv(bias = inner_model_unet_d_blocks_0_resblocks_1_conv1_bias_to_fp16, dilations = var_254, groups = var_85, pad = x_17_pad_0, pad_type = x_17_pad_type_0, strides = var_252, weight = inner_model_unet_d_blocks_0_resblocks_1_conv1_weight_to_fp16, x = input_25_cast_fp16)[name = tensor<string, []>("x_17_cast_fp16")];
            tensor<int32, [5]> reshape_6_shape_0 = const()[name = tensor<string, []>("reshape_6_shape_0"), val = tensor<int32, [5]>([1, 1, 32, 64, 64])];
            tensor<fp16, [1, 1, 32, 64, 64]> reshape_6_cast_fp16 = reshape(shape = reshape_6_shape_0, x = x_17_cast_fp16)[name = tensor<string, []>("reshape_6_cast_fp16")];
            tensor<int32, [3]> reduce_mean_9_axes_0 = const()[name = tensor<string, []>("reduce_mean_9_axes_0"), val = tensor<int32, [3]>([2, 3, 4])];
            tensor<bool, []> reduce_mean_9_keep_dims_0 = const()[name = tensor<string, []>("reduce_mean_9_keep_dims_0"), val = tensor<bool, []>(true)];
            tensor<fp16, [1, 1, 1, 1, 1]> reduce_mean_9_cast_fp16 = reduce_mean(axes = reduce_mean_9_axes_0, keep_dims = reduce_mean_9_keep_dims_0, x = reshape_6_cast_fp16)[name = tensor<string, []>("reduce_mean_9_cast_fp16")];
            tensor<fp16, [1, 1, 32, 64, 64]> sub_6_cast_fp16 = sub(x = reshape_6_cast_fp16, y = reduce_mean_9_cast_fp16)[name = tensor<string, []>("sub_6_cast_fp16")];
            tensor<fp16, [1, 1, 32, 64, 64]> square_3_cast_fp16 = square(x = sub_6_cast_fp16)[name = tensor<string, []>("square_3_cast_fp16")];
            tensor<int32, [3]> reduce_mean_11_axes_0 = const()[name = tensor<string, []>("reduce_mean_11_axes_0"), val = tensor<int32, [3]>([2, 3, 4])];
            tensor<bool, []> reduce_mean_11_keep_dims_0 = const()[name = tensor<string, []>("reduce_mean_11_keep_dims_0"), val = tensor<bool, []>(true)];
            tensor<fp16, [1, 1, 1, 1, 1]> reduce_mean_11_cast_fp16 = reduce_mean(axes = reduce_mean_11_axes_0, keep_dims = reduce_mean_11_keep_dims_0, x = square_3_cast_fp16)[name = tensor<string, []>("reduce_mean_11_cast_fp16")];
            tensor<fp16, []> add_3_y_0_to_fp16 = const()[name = tensor<string, []>("add_3_y_0_to_fp16"), val = tensor<fp16, []>(0x1.5p-17)];
            tensor<fp16, [1, 1, 1, 1, 1]> add_3_cast_fp16 = add(x = reduce_mean_11_cast_fp16, y = add_3_y_0_to_fp16)[name = tensor<string, []>("add_3_cast_fp16")];
            tensor<fp16, [1, 1, 1, 1, 1]> sqrt_3_cast_fp16 = sqrt(x = add_3_cast_fp16)[name = tensor<string, []>("sqrt_3_cast_fp16")];
            tensor<fp16, [1, 1, 32, 64, 64]> real_div_3_cast_fp16 = real_div(x = sub_6_cast_fp16, y = sqrt_3_cast_fp16)[name = tensor<string, []>("real_div_3_cast_fp16")];
            tensor<int32, [4]> reshape_7_shape_0 = const()[name = tensor<string, []>("reshape_7_shape_0"), val = tensor<int32, [4]>([1, 32, 64, 64])];
            tensor<fp16, [1, 32, 64, 64]> reshape_7_cast_fp16 = reshape(shape = reshape_7_shape_0, x = real_div_3_cast_fp16)[name = tensor<string, []>("reshape_7_cast_fp16")];
            tensor<fp16, [64, 512]> inner_model_unet_d_blocks_0_resblocks_1_norm2_linear_weight_to_fp16 = const()[name = tensor<string, []>("inner_model_unet_d_blocks_0_resblocks_1_norm2_linear_weight_to_fp16"), val = tensor<fp16, [64, 512]>(BLOBFILE(path = tensor<string, []>("@model_path/weights/weight.bin"), offset = tensor<uint64, []>(1318720)))];
            tensor<fp16, [64]> inner_model_unet_d_blocks_0_resblocks_1_norm2_linear_bias_to_fp16 = const()[name = tensor<string, []>("inner_model_unet_d_blocks_0_resblocks_1_norm2_linear_bias_to_fp16"), val = tensor<fp16, [64]>(BLOBFILE(path = tensor<string, []>("@model_path/weights/weight.bin"), offset = tensor<uint64, []>(1384320)))];
            tensor<fp16, [1, 64]> linear_5_cast_fp16 = linear(bias = inner_model_unet_d_blocks_0_resblocks_1_norm2_linear_bias_to_fp16, weight = inner_model_unet_d_blocks_0_resblocks_1_norm2_linear_weight_to_fp16, x = linear_1_cast_fp16)[name = tensor<string, []>("linear_5_cast_fp16")];
            tensor<int32, [1]> var_264_axes_0 = const()[name = tensor<string, []>("op_264_axes_0"), val = tensor<int32, [1]>([2])];
            tensor<fp16, [1, 64, 1]> var_264_cast_fp16 = expand_dims(axes = var_264_axes_0, x = linear_5_cast_fp16)[name = tensor<string, []>("op_264_cast_fp16")];
            tensor<int32, [1]> var_265_axes_0 = const()[name = tensor<string, []>("op_265_axes_0"), val = tensor<int32, [1]>([3])];
            tensor<fp16, [1, 64, 1, 1]> var_265_cast_fp16 = expand_dims(axes = var_265_axes_0, x = var_264_cast_fp16)[name = tensor<string, []>("op_265_cast_fp16")];
            tensor<int32, [2]> var_266_split_sizes_0 = const()[name = tensor<string, []>("op_266_split_sizes_0"), val = tensor<int32, [2]>([32, 32])];
            tensor<int32, []> var_266_axis_0 = const()[name = tensor<string, []>("op_266_axis_0"), val = tensor<int32, []>(1)];
            tensor<fp16, [1, 32, 1, 1]> var_266_cast_fp16_0, tensor<fp16, [1, 32, 1, 1]> var_266_cast_fp16_1 = split(axis = var_266_axis_0, split_sizes = var_266_split_sizes_0, x = var_265_cast_fp16)[name = tensor<string, []>("op_266_cast_fp16")];
            tensor<fp16, []> var_268_promoted_to_fp16 = const()[name = tensor<string, []>("op_268_promoted_to_fp16"), val = tensor<fp16, []>(0x1p+0)];
            tensor<fp16, [1, 32, 1, 1]> var_269_cast_fp16 = add(x = var_266_cast_fp16_0, y = var_268_promoted_to_fp16)[name = tensor<string, []>("op_269_cast_fp16")];
            tensor<fp16, [1, 32, 64, 64]> var_270_cast_fp16 = mul(x = reshape_7_cast_fp16, y = var_269_cast_fp16)[name = tensor<string, []>("op_270_cast_fp16")];
            tensor<fp16, [1, 32, 64, 64]> input_27_cast_fp16 = add(x = var_270_cast_fp16, y = var_266_cast_fp16_1)[name = tensor<string, []>("input_27_cast_fp16")];
            tensor<fp16, [1, 32, 64, 64]> input_29_cast_fp16 = silu(x = input_27_cast_fp16)[name = tensor<string, []>("input_29_cast_fp16")];
            tensor<int32, [2]> var_275 = const()[name = tensor<string, []>("op_275"), val = tensor<int32, [2]>([1, 1])];
            tensor<int32, [2]> var_277 = const()[name = tensor<string, []>("op_277"), val = tensor<int32, [2]>([1, 1])];
            tensor<string, []> x_21_pad_type_0 = const()[name = tensor<string, []>("x_21_pad_type_0"), val = tensor<string, []>("custom")];
            tensor<int32, [4]> x_21_pad_0 = const()[name = tensor<string, []>("x_21_pad_0"), val = tensor<int32, [4]>([1, 1, 1, 1])];
            tensor<fp16, [32, 32, 3, 3]> inner_model_unet_d_blocks_0_resblocks_1_conv2_weight_to_fp16 = const()[name = tensor<string, []>("inner_model_unet_d_blocks_0_resblocks_1_conv2_weight_to_fp16"), val = tensor<fp16, [32, 32, 3, 3]>(BLOBFILE(path = tensor<string, []>("@model_path/weights/weight.bin"), offset = tensor<uint64, []>(1384512)))];
            tensor<fp16, [32]> inner_model_unet_d_blocks_0_resblocks_1_conv2_bias_to_fp16 = const()[name = tensor<string, []>("inner_model_unet_d_blocks_0_resblocks_1_conv2_bias_to_fp16"), val = tensor<fp16, [32]>(BLOBFILE(path = tensor<string, []>("@model_path/weights/weight.bin"), offset = tensor<uint64, []>(1403008)))];
            tensor<fp16, [1, 32, 64, 64]> x_21_cast_fp16 = conv(bias = inner_model_unet_d_blocks_0_resblocks_1_conv2_bias_to_fp16, dilations = var_277, groups = var_85, pad = x_21_pad_0, pad_type = x_21_pad_type_0, strides = var_275, weight = inner_model_unet_d_blocks_0_resblocks_1_conv2_weight_to_fp16, x = input_29_cast_fp16)[name = tensor<string, []>("x_21_cast_fp16")];
            tensor<fp16, [1, 32, 64, 64]> input_31_cast_fp16 = add(x = x_21_cast_fp16, y = x_13_cast_fp16)[name = tensor<string, []>("input_31_cast_fp16")];
            tensor<int32, [2]> var_287 = const()[name = tensor<string, []>("op_287"), val = tensor<int32, [2]>([2, 2])];
            tensor<int32, [2]> var_289 = const()[name = tensor<string, []>("op_289"), val = tensor<int32, [2]>([1, 1])];
            tensor<string, []> input_33_pad_type_0 = const()[name = tensor<string, []>("input_33_pad_type_0"), val = tensor<string, []>("custom")];
            tensor<int32, [4]> input_33_pad_0 = const()[name = tensor<string, []>("input_33_pad_0"), val = tensor<int32, [4]>([1, 1, 1, 1])];
            tensor<fp16, [32, 32, 3, 3]> inner_model_unet_downsamples_1_conv_weight_to_fp16 = const()[name = tensor<string, []>("inner_model_unet_downsamples_1_conv_weight_to_fp16"), val = tensor<fp16, [32, 32, 3, 3]>(BLOBFILE(path = tensor<string, []>("@model_path/weights/weight.bin"), offset = tensor<uint64, []>(1403136)))];
            tensor<fp16, [32]> inner_model_unet_downsamples_1_conv_bias_to_fp16 = const()[name = tensor<string, []>("inner_model_unet_downsamples_1_conv_bias_to_fp16"), val = tensor<fp16, [32]>(BLOBFILE(path = tensor<string, []>("@model_path/weights/weight.bin"), offset = tensor<uint64, []>(1421632)))];
            tensor<fp16, [1, 32, 32, 32]> input_33_cast_fp16 = conv(bias = inner_model_unet_downsamples_1_conv_bias_to_fp16, dilations = var_289, groups = var_85, pad = input_33_pad_0, pad_type = input_33_pad_type_0, strides = var_287, weight = inner_model_unet_downsamples_1_conv_weight_to_fp16, x = input_31_cast_fp16)[name = tensor<string, []>("input_33_cast_fp16")];
            tensor<int32, [2]> var_303 = const()[name = tensor<string, []>("op_303"), val = tensor<int32, [2]>([1, 1])];
            tensor<int32, [2]> var_305 = const()[name = tensor<string, []>("op_305"), val = tensor<int32, [2]>([1, 1])];
            tensor<string, []> r_1_pad_type_0 = const()[name = tensor<string, []>("r_1_pad_type_0"), val = tensor<string, []>("custom")];
            tensor<int32, [4]> r_1_pad_0 = const()[name = tensor<string, []>("r_1_pad_0"), val = tensor<int32, [4]>([0, 0, 0, 0])];
            tensor<fp16, [64, 32, 1, 1]> inner_model_unet_d_blocks_1_resblocks_0_proj_weight_to_fp16 = const()[name = tensor<string, []>("inner_model_unet_d_blocks_1_resblocks_0_proj_weight_to_fp16"), val = tensor<fp16, [64, 32, 1, 1]>(BLOBFILE(path = tensor<string, []>("@model_path/weights/weight.bin"), offset = tensor<uint64, []>(1421760)))];
            tensor<fp16, [64]> inner_model_unet_d_blocks_1_resblocks_0_proj_bias_to_fp16 = const()[name = tensor<string, []>("inner_model_unet_d_blocks_1_resblocks_0_proj_bias_to_fp16"), val = tensor<fp16, [64]>(BLOBFILE(path = tensor<string, []>("@model_path/weights/weight.bin"), offset = tensor<uint64, []>(1425920)))];
            tensor<fp16, [1, 64, 32, 32]> r_1_cast_fp16 = conv(bias = inner_model_unet_d_blocks_1_resblocks_0_proj_bias_to_fp16, dilations = var_305, groups = var_85, pad = r_1_pad_0, pad_type = r_1_pad_type_0, strides = var_303, weight = inner_model_unet_d_blocks_1_resblocks_0_proj_weight_to_fp16, x = input_33_cast_fp16)[name = tensor<string, []>("r_1_cast_fp16")];
            tensor<int32, [5]> reshape_8_shape_0 = const()[name = tensor<string, []>("reshape_8_shape_0"), val = tensor<int32, [5]>([1, 1, 32, 32, 32])];
            tensor<fp16, [1, 1, 32, 32, 32]> reshape_8_cast_fp16 = reshape(shape = reshape_8_shape_0, x = input_33_cast_fp16)[name = tensor<string, []>("reshape_8_cast_fp16")];
            tensor<int32, [3]> reduce_mean_12_axes_0 = const()[name = tensor<string, []>("reduce_mean_12_axes_0"), val = tensor<int32, [3]>([2, 3, 4])];
            tensor<bool, []> reduce_mean_12_keep_dims_0 = const()[name = tensor<string, []>("reduce_mean_12_keep_dims_0"), val = tensor<bool, []>(true)];
            tensor<fp16, [1, 1, 1, 1, 1]> reduce_mean_12_cast_fp16 = reduce_mean(axes = reduce_mean_12_axes_0, keep_dims = reduce_mean_12_keep_dims_0, x = reshape_8_cast_fp16)[name = tensor<string, []>("reduce_mean_12_cast_fp16")];
            tensor<fp16, [1, 1, 32, 32, 32]> sub_8_cast_fp16 = sub(x = reshape_8_cast_fp16, y = reduce_mean_12_cast_fp16)[name = tensor<string, []>("sub_8_cast_fp16")];
            tensor<fp16, [1, 1, 32, 32, 32]> square_4_cast_fp16 = square(x = sub_8_cast_fp16)[name = tensor<string, []>("square_4_cast_fp16")];
            tensor<int32, [3]> reduce_mean_14_axes_0 = const()[name = tensor<string, []>("reduce_mean_14_axes_0"), val = tensor<int32, [3]>([2, 3, 4])];
            tensor<bool, []> reduce_mean_14_keep_dims_0 = const()[name = tensor<string, []>("reduce_mean_14_keep_dims_0"), val = tensor<bool, []>(true)];
            tensor<fp16, [1, 1, 1, 1, 1]> reduce_mean_14_cast_fp16 = reduce_mean(axes = reduce_mean_14_axes_0, keep_dims = reduce_mean_14_keep_dims_0, x = square_4_cast_fp16)[name = tensor<string, []>("reduce_mean_14_cast_fp16")];
            tensor<fp16, []> add_4_y_0_to_fp16 = const()[name = tensor<string, []>("add_4_y_0_to_fp16"), val = tensor<fp16, []>(0x1.5p-17)];
            tensor<fp16, [1, 1, 1, 1, 1]> add_4_cast_fp16 = add(x = reduce_mean_14_cast_fp16, y = add_4_y_0_to_fp16)[name = tensor<string, []>("add_4_cast_fp16")];
            tensor<fp16, [1, 1, 1, 1, 1]> sqrt_4_cast_fp16 = sqrt(x = add_4_cast_fp16)[name = tensor<string, []>("sqrt_4_cast_fp16")];
            tensor<fp16, [1, 1, 32, 32, 32]> real_div_4_cast_fp16 = real_div(x = sub_8_cast_fp16, y = sqrt_4_cast_fp16)[name = tensor<string, []>("real_div_4_cast_fp16")];
            tensor<int32, [4]> reshape_9_shape_0 = const()[name = tensor<string, []>("reshape_9_shape_0"), val = tensor<int32, [4]>([1, 32, 32, 32])];
            tensor<fp16, [1, 32, 32, 32]> reshape_9_cast_fp16 = reshape(shape = reshape_9_shape_0, x = real_div_4_cast_fp16)[name = tensor<string, []>("reshape_9_cast_fp16")];
            tensor<fp16, [64, 512]> inner_model_unet_d_blocks_1_resblocks_0_norm1_linear_weight_to_fp16 = const()[name = tensor<string, []>("inner_model_unet_d_blocks_1_resblocks_0_norm1_linear_weight_to_fp16"), val = tensor<fp16, [64, 512]>(BLOBFILE(path = tensor<string, []>("@model_path/weights/weight.bin"), offset = tensor<uint64, []>(1426112)))];
            tensor<fp16, [64]> inner_model_unet_d_blocks_1_resblocks_0_norm1_linear_bias_to_fp16 = const()[name = tensor<string, []>("inner_model_unet_d_blocks_1_resblocks_0_norm1_linear_bias_to_fp16"), val = tensor<fp16, [64]>(BLOBFILE(path = tensor<string, []>("@model_path/weights/weight.bin"), offset = tensor<uint64, []>(1491712)))];
            tensor<fp16, [1, 64]> linear_6_cast_fp16 = linear(bias = inner_model_unet_d_blocks_1_resblocks_0_norm1_linear_bias_to_fp16, weight = inner_model_unet_d_blocks_1_resblocks_0_norm1_linear_weight_to_fp16, x = linear_1_cast_fp16)[name = tensor<string, []>("linear_6_cast_fp16")];
            tensor<int32, [1]> var_315_axes_0 = const()[name = tensor<string, []>("op_315_axes_0"), val = tensor<int32, [1]>([2])];
            tensor<fp16, [1, 64, 1]> var_315_cast_fp16 = expand_dims(axes = var_315_axes_0, x = linear_6_cast_fp16)[name = tensor<string, []>("op_315_cast_fp16")];
            tensor<int32, [1]> var_316_axes_0 = const()[name = tensor<string, []>("op_316_axes_0"), val = tensor<int32, [1]>([3])];
            tensor<fp16, [1, 64, 1, 1]> var_316_cast_fp16 = expand_dims(axes = var_316_axes_0, x = var_315_cast_fp16)[name = tensor<string, []>("op_316_cast_fp16")];
            tensor<int32, [2]> var_317_split_sizes_0 = const()[name = tensor<string, []>("op_317_split_sizes_0"), val = tensor<int32, [2]>([32, 32])];
            tensor<int32, []> var_317_axis_0 = const()[name = tensor<string, []>("op_317_axis_0"), val = tensor<int32, []>(1)];
            tensor<fp16, [1, 32, 1, 1]> var_317_cast_fp16_0, tensor<fp16, [1, 32, 1, 1]> var_317_cast_fp16_1 = split(axis = var_317_axis_0, split_sizes = var_317_split_sizes_0, x = var_316_cast_fp16)[name = tensor<string, []>("op_317_cast_fp16")];
            tensor<fp16, []> var_319_promoted_to_fp16 = const()[name = tensor<string, []>("op_319_promoted_to_fp16"), val = tensor<fp16, []>(0x1p+0)];
            tensor<fp16, [1, 32, 1, 1]> var_320_cast_fp16 = add(x = var_317_cast_fp16_0, y = var_319_promoted_to_fp16)[name = tensor<string, []>("op_320_cast_fp16")];
            tensor<fp16, [1, 32, 32, 32]> var_321_cast_fp16 = mul(x = reshape_9_cast_fp16, y = var_320_cast_fp16)[name = tensor<string, []>("op_321_cast_fp16")];
            tensor<fp16, [1, 32, 32, 32]> input_35_cast_fp16 = add(x = var_321_cast_fp16, y = var_317_cast_fp16_1)[name = tensor<string, []>("input_35_cast_fp16")];
            tensor<fp16, [1, 32, 32, 32]> input_37_cast_fp16 = silu(x = input_35_cast_fp16)[name = tensor<string, []>("input_37_cast_fp16")];
            tensor<int32, [2]> var_326 = const()[name = tensor<string, []>("op_326"), val = tensor<int32, [2]>([1, 1])];
            tensor<int32, [2]> var_328 = const()[name = tensor<string, []>("op_328"), val = tensor<int32, [2]>([1, 1])];
            tensor<string, []> x_25_pad_type_0 = const()[name = tensor<string, []>("x_25_pad_type_0"), val = tensor<string, []>("custom")];
            tensor<int32, [4]> x_25_pad_0 = const()[name = tensor<string, []>("x_25_pad_0"), val = tensor<int32, [4]>([1, 1, 1, 1])];
            tensor<fp16, [64, 32, 3, 3]> inner_model_unet_d_blocks_1_resblocks_0_conv1_weight_to_fp16 = const()[name = tensor<string, []>("inner_model_unet_d_blocks_1_resblocks_0_conv1_weight_to_fp16"), val = tensor<fp16, [64, 32, 3, 3]>(BLOBFILE(path = tensor<string, []>("@model_path/weights/weight.bin"), offset = tensor<uint64, []>(1491904)))];
            tensor<fp16, [64]> inner_model_unet_d_blocks_1_resblocks_0_conv1_bias_to_fp16 = const()[name = tensor<string, []>("inner_model_unet_d_blocks_1_resblocks_0_conv1_bias_to_fp16"), val = tensor<fp16, [64]>(BLOBFILE(path = tensor<string, []>("@model_path/weights/weight.bin"), offset = tensor<uint64, []>(1528832)))];
            tensor<fp16, [1, 64, 32, 32]> x_25_cast_fp16 = conv(bias = inner_model_unet_d_blocks_1_resblocks_0_conv1_bias_to_fp16, dilations = var_328, groups = var_85, pad = x_25_pad_0, pad_type = x_25_pad_type_0, strides = var_326, weight = inner_model_unet_d_blocks_1_resblocks_0_conv1_weight_to_fp16, x = input_37_cast_fp16)[name = tensor<string, []>("x_25_cast_fp16")];
            tensor<int32, [5]> reshape_10_shape_0 = const()[name = tensor<string, []>("reshape_10_shape_0"), val = tensor<int32, [5]>([1, 2, 32, 32, 32])];
            tensor<fp16, [1, 2, 32, 32, 32]> reshape_10_cast_fp16 = reshape(shape = reshape_10_shape_0, x = x_25_cast_fp16)[name = tensor<string, []>("reshape_10_cast_fp16")];
            tensor<int32, [3]> reduce_mean_15_axes_0 = const()[name = tensor<string, []>("reduce_mean_15_axes_0"), val = tensor<int32, [3]>([2, 3, 4])];
            tensor<bool, []> reduce_mean_15_keep_dims_0 = const()[name = tensor<string, []>("reduce_mean_15_keep_dims_0"), val = tensor<bool, []>(true)];
            tensor<fp16, [1, 2, 1, 1, 1]> reduce_mean_15_cast_fp16 = reduce_mean(axes = reduce_mean_15_axes_0, keep_dims = reduce_mean_15_keep_dims_0, x = reshape_10_cast_fp16)[name = tensor<string, []>("reduce_mean_15_cast_fp16")];
            tensor<fp16, [1, 2, 32, 32, 32]> sub_10_cast_fp16 = sub(x = reshape_10_cast_fp16, y = reduce_mean_15_cast_fp16)[name = tensor<string, []>("sub_10_cast_fp16")];
            tensor<fp16, [1, 2, 32, 32, 32]> square_5_cast_fp16 = square(x = sub_10_cast_fp16)[name = tensor<string, []>("square_5_cast_fp16")];
            tensor<int32, [3]> reduce_mean_17_axes_0 = const()[name = tensor<string, []>("reduce_mean_17_axes_0"), val = tensor<int32, [3]>([2, 3, 4])];
            tensor<bool, []> reduce_mean_17_keep_dims_0 = const()[name = tensor<string, []>("reduce_mean_17_keep_dims_0"), val = tensor<bool, []>(true)];
            tensor<fp16, [1, 2, 1, 1, 1]> reduce_mean_17_cast_fp16 = reduce_mean(axes = reduce_mean_17_axes_0, keep_dims = reduce_mean_17_keep_dims_0, x = square_5_cast_fp16)[name = tensor<string, []>("reduce_mean_17_cast_fp16")];
            tensor<fp16, []> add_5_y_0_to_fp16 = const()[name = tensor<string, []>("add_5_y_0_to_fp16"), val = tensor<fp16, []>(0x1.5p-17)];
            tensor<fp16, [1, 2, 1, 1, 1]> add_5_cast_fp16 = add(x = reduce_mean_17_cast_fp16, y = add_5_y_0_to_fp16)[name = tensor<string, []>("add_5_cast_fp16")];
            tensor<fp16, [1, 2, 1, 1, 1]> sqrt_5_cast_fp16 = sqrt(x = add_5_cast_fp16)[name = tensor<string, []>("sqrt_5_cast_fp16")];
            tensor<fp16, [1, 2, 32, 32, 32]> real_div_5_cast_fp16 = real_div(x = sub_10_cast_fp16, y = sqrt_5_cast_fp16)[name = tensor<string, []>("real_div_5_cast_fp16")];
            tensor<int32, [4]> reshape_11_shape_0 = const()[name = tensor<string, []>("reshape_11_shape_0"), val = tensor<int32, [4]>([1, 64, 32, 32])];
            tensor<fp16, [1, 64, 32, 32]> reshape_11_cast_fp16 = reshape(shape = reshape_11_shape_0, x = real_div_5_cast_fp16)[name = tensor<string, []>("reshape_11_cast_fp16")];
            tensor<fp16, [128, 512]> inner_model_unet_d_blocks_1_resblocks_0_norm2_linear_weight_to_fp16 = const()[name = tensor<string, []>("inner_model_unet_d_blocks_1_resblocks_0_norm2_linear_weight_to_fp16"), val = tensor<fp16, [128, 512]>(BLOBFILE(path = tensor<string, []>("@model_path/weights/weight.bin"), offset = tensor<uint64, []>(1529024)))];
            tensor<fp16, [128]> inner_model_unet_d_blocks_1_resblocks_0_norm2_linear_bias_to_fp16 = const()[name = tensor<string, []>("inner_model_unet_d_blocks_1_resblocks_0_norm2_linear_bias_to_fp16"), val = tensor<fp16, [128]>(BLOBFILE(path = tensor<string, []>("@model_path/weights/weight.bin"), offset = tensor<uint64, []>(1660160)))];
            tensor<fp16, [1, 128]> linear_7_cast_fp16 = linear(bias = inner_model_unet_d_blocks_1_resblocks_0_norm2_linear_bias_to_fp16, weight = inner_model_unet_d_blocks_1_resblocks_0_norm2_linear_weight_to_fp16, x = linear_1_cast_fp16)[name = tensor<string, []>("linear_7_cast_fp16")];
            tensor<int32, [1]> var_338_axes_0 = const()[name = tensor<string, []>("op_338_axes_0"), val = tensor<int32, [1]>([2])];
            tensor<fp16, [1, 128, 1]> var_338_cast_fp16 = expand_dims(axes = var_338_axes_0, x = linear_7_cast_fp16)[name = tensor<string, []>("op_338_cast_fp16")];
            tensor<int32, [1]> var_339_axes_0 = const()[name = tensor<string, []>("op_339_axes_0"), val = tensor<int32, [1]>([3])];
            tensor<fp16, [1, 128, 1, 1]> var_339_cast_fp16 = expand_dims(axes = var_339_axes_0, x = var_338_cast_fp16)[name = tensor<string, []>("op_339_cast_fp16")];
            tensor<int32, [2]> var_340_split_sizes_0 = const()[name = tensor<string, []>("op_340_split_sizes_0"), val = tensor<int32, [2]>([64, 64])];
            tensor<int32, []> var_340_axis_0 = const()[name = tensor<string, []>("op_340_axis_0"), val = tensor<int32, []>(1)];
            tensor<fp16, [1, 64, 1, 1]> var_340_cast_fp16_0, tensor<fp16, [1, 64, 1, 1]> var_340_cast_fp16_1 = split(axis = var_340_axis_0, split_sizes = var_340_split_sizes_0, x = var_339_cast_fp16)[name = tensor<string, []>("op_340_cast_fp16")];
            tensor<fp16, []> var_342_promoted_to_fp16 = const()[name = tensor<string, []>("op_342_promoted_to_fp16"), val = tensor<fp16, []>(0x1p+0)];
            tensor<fp16, [1, 64, 1, 1]> var_343_cast_fp16 = add(x = var_340_cast_fp16_0, y = var_342_promoted_to_fp16)[name = tensor<string, []>("op_343_cast_fp16")];
            tensor<fp16, [1, 64, 32, 32]> var_344_cast_fp16 = mul(x = reshape_11_cast_fp16, y = var_343_cast_fp16)[name = tensor<string, []>("op_344_cast_fp16")];
            tensor<fp16, [1, 64, 32, 32]> input_39_cast_fp16 = add(x = var_344_cast_fp16, y = var_340_cast_fp16_1)[name = tensor<string, []>("input_39_cast_fp16")];
            tensor<fp16, [1, 64, 32, 32]> input_41_cast_fp16 = silu(x = input_39_cast_fp16)[name = tensor<string, []>("input_41_cast_fp16")];
            tensor<int32, [2]> var_349 = const()[name = tensor<string, []>("op_349"), val = tensor<int32, [2]>([1, 1])];
            tensor<int32, [2]> var_351 = const()[name = tensor<string, []>("op_351"), val = tensor<int32, [2]>([1, 1])];
            tensor<string, []> x_29_pad_type_0 = const()[name = tensor<string, []>("x_29_pad_type_0"), val = tensor<string, []>("custom")];
            tensor<int32, [4]> x_29_pad_0 = const()[name = tensor<string, []>("x_29_pad_0"), val = tensor<int32, [4]>([1, 1, 1, 1])];
            tensor<fp16, [64, 64, 3, 3]> inner_model_unet_d_blocks_1_resblocks_0_conv2_weight_to_fp16 = const()[name = tensor<string, []>("inner_model_unet_d_blocks_1_resblocks_0_conv2_weight_to_fp16"), val = tensor<fp16, [64, 64, 3, 3]>(BLOBFILE(path = tensor<string, []>("@model_path/weights/weight.bin"), offset = tensor<uint64, []>(1660480)))];
            tensor<fp16, [64]> inner_model_unet_d_blocks_1_resblocks_0_conv2_bias_to_fp16 = const()[name = tensor<string, []>("inner_model_unet_d_blocks_1_resblocks_0_conv2_bias_to_fp16"), val = tensor<fp16, [64]>(BLOBFILE(path = tensor<string, []>("@model_path/weights/weight.bin"), offset = tensor<uint64, []>(1734272)))];
            tensor<fp16, [1, 64, 32, 32]> x_29_cast_fp16 = conv(bias = inner_model_unet_d_blocks_1_resblocks_0_conv2_bias_to_fp16, dilations = var_351, groups = var_85, pad = x_29_pad_0, pad_type = x_29_pad_type_0, strides = var_349, weight = inner_model_unet_d_blocks_1_resblocks_0_conv2_weight_to_fp16, x = input_41_cast_fp16)[name = tensor<string, []>("x_29_cast_fp16")];
            tensor<fp16, [1, 64, 32, 32]> x_31_cast_fp16 = add(x = x_29_cast_fp16, y = r_1_cast_fp16)[name = tensor<string, []>("x_31_cast_fp16")];
            tensor<int32, [5]> reshape_12_shape_0 = const()[name = tensor<string, []>("reshape_12_shape_0"), val = tensor<int32, [5]>([1, 2, 32, 32, 32])];
            tensor<fp16, [1, 2, 32, 32, 32]> reshape_12_cast_fp16 = reshape(shape = reshape_12_shape_0, x = x_31_cast_fp16)[name = tensor<string, []>("reshape_12_cast_fp16")];
            tensor<int32, [3]> reduce_mean_18_axes_0 = const()[name = tensor<string, []>("reduce_mean_18_axes_0"), val = tensor<int32, [3]>([2, 3, 4])];
            tensor<bool, []> reduce_mean_18_keep_dims_0 = const()[name = tensor<string, []>("reduce_mean_18_keep_dims_0"), val = tensor<bool, []>(true)];
            tensor<fp16, [1, 2, 1, 1, 1]> reduce_mean_18_cast_fp16 = reduce_mean(axes = reduce_mean_18_axes_0, keep_dims = reduce_mean_18_keep_dims_0, x = reshape_12_cast_fp16)[name = tensor<string, []>("reduce_mean_18_cast_fp16")];
            tensor<fp16, [1, 2, 32, 32, 32]> sub_12_cast_fp16 = sub(x = reshape_12_cast_fp16, y = reduce_mean_18_cast_fp16)[name = tensor<string, []>("sub_12_cast_fp16")];
            tensor<fp16, [1, 2, 32, 32, 32]> square_6_cast_fp16 = square(x = sub_12_cast_fp16)[name = tensor<string, []>("square_6_cast_fp16")];
            tensor<int32, [3]> reduce_mean_20_axes_0 = const()[name = tensor<string, []>("reduce_mean_20_axes_0"), val = tensor<int32, [3]>([2, 3, 4])];
            tensor<bool, []> reduce_mean_20_keep_dims_0 = const()[name = tensor<string, []>("reduce_mean_20_keep_dims_0"), val = tensor<bool, []>(true)];
            tensor<fp16, [1, 2, 1, 1, 1]> reduce_mean_20_cast_fp16 = reduce_mean(axes = reduce_mean_20_axes_0, keep_dims = reduce_mean_20_keep_dims_0, x = square_6_cast_fp16)[name = tensor<string, []>("reduce_mean_20_cast_fp16")];
            tensor<fp16, []> add_6_y_0_to_fp16 = const()[name = tensor<string, []>("add_6_y_0_to_fp16"), val = tensor<fp16, []>(0x1.5p-17)];
            tensor<fp16, [1, 2, 1, 1, 1]> add_6_cast_fp16 = add(x = reduce_mean_20_cast_fp16, y = add_6_y_0_to_fp16)[name = tensor<string, []>("add_6_cast_fp16")];
            tensor<fp16, [1, 2, 1, 1, 1]> sqrt_6_cast_fp16 = sqrt(x = add_6_cast_fp16)[name = tensor<string, []>("sqrt_6_cast_fp16")];
            tensor<fp16, [1, 2, 32, 32, 32]> real_div_6_cast_fp16 = real_div(x = sub_12_cast_fp16, y = sqrt_6_cast_fp16)[name = tensor<string, []>("real_div_6_cast_fp16")];
            tensor<int32, [4]> reshape_13_shape_0 = const()[name = tensor<string, []>("reshape_13_shape_0"), val = tensor<int32, [4]>([1, 64, 32, 32])];
            tensor<fp16, [1, 64, 32, 32]> reshape_13_cast_fp16 = reshape(shape = reshape_13_shape_0, x = real_div_6_cast_fp16)[name = tensor<string, []>("reshape_13_cast_fp16")];
            tensor<fp16, [128, 512]> inner_model_unet_d_blocks_1_resblocks_1_norm1_linear_weight_to_fp16 = const()[name = tensor<string, []>("inner_model_unet_d_blocks_1_resblocks_1_norm1_linear_weight_to_fp16"), val = tensor<fp16, [128, 512]>(BLOBFILE(path = tensor<string, []>("@model_path/weights/weight.bin"), offset = tensor<uint64, []>(1734464)))];
            tensor<fp16, [128]> inner_model_unet_d_blocks_1_resblocks_1_norm1_linear_bias_to_fp16 = const()[name = tensor<string, []>("inner_model_unet_d_blocks_1_resblocks_1_norm1_linear_bias_to_fp16"), val = tensor<fp16, [128]>(BLOBFILE(path = tensor<string, []>("@model_path/weights/weight.bin"), offset = tensor<uint64, []>(1865600)))];
            tensor<fp16, [1, 128]> linear_8_cast_fp16 = linear(bias = inner_model_unet_d_blocks_1_resblocks_1_norm1_linear_bias_to_fp16, weight = inner_model_unet_d_blocks_1_resblocks_1_norm1_linear_weight_to_fp16, x = linear_1_cast_fp16)[name = tensor<string, []>("linear_8_cast_fp16")];
            tensor<int32, [1]> var_366_axes_0 = const()[name = tensor<string, []>("op_366_axes_0"), val = tensor<int32, [1]>([2])];
            tensor<fp16, [1, 128, 1]> var_366_cast_fp16 = expand_dims(axes = var_366_axes_0, x = linear_8_cast_fp16)[name = tensor<string, []>("op_366_cast_fp16")];
            tensor<int32, [1]> var_367_axes_0 = const()[name = tensor<string, []>("op_367_axes_0"), val = tensor<int32, [1]>([3])];
            tensor<fp16, [1, 128, 1, 1]> var_367_cast_fp16 = expand_dims(axes = var_367_axes_0, x = var_366_cast_fp16)[name = tensor<string, []>("op_367_cast_fp16")];
            tensor<int32, [2]> var_368_split_sizes_0 = const()[name = tensor<string, []>("op_368_split_sizes_0"), val = tensor<int32, [2]>([64, 64])];
            tensor<int32, []> var_368_axis_0 = const()[name = tensor<string, []>("op_368_axis_0"), val = tensor<int32, []>(1)];
            tensor<fp16, [1, 64, 1, 1]> var_368_cast_fp16_0, tensor<fp16, [1, 64, 1, 1]> var_368_cast_fp16_1 = split(axis = var_368_axis_0, split_sizes = var_368_split_sizes_0, x = var_367_cast_fp16)[name = tensor<string, []>("op_368_cast_fp16")];
            tensor<fp16, []> var_370_promoted_to_fp16 = const()[name = tensor<string, []>("op_370_promoted_to_fp16"), val = tensor<fp16, []>(0x1p+0)];
            tensor<fp16, [1, 64, 1, 1]> var_371_cast_fp16 = add(x = var_368_cast_fp16_0, y = var_370_promoted_to_fp16)[name = tensor<string, []>("op_371_cast_fp16")];
            tensor<fp16, [1, 64, 32, 32]> var_372_cast_fp16 = mul(x = reshape_13_cast_fp16, y = var_371_cast_fp16)[name = tensor<string, []>("op_372_cast_fp16")];
            tensor<fp16, [1, 64, 32, 32]> input_43_cast_fp16 = add(x = var_372_cast_fp16, y = var_368_cast_fp16_1)[name = tensor<string, []>("input_43_cast_fp16")];
            tensor<fp16, [1, 64, 32, 32]> input_45_cast_fp16 = silu(x = input_43_cast_fp16)[name = tensor<string, []>("input_45_cast_fp16")];
            tensor<int32, [2]> var_377 = const()[name = tensor<string, []>("op_377"), val = tensor<int32, [2]>([1, 1])];
            tensor<int32, [2]> var_379 = const()[name = tensor<string, []>("op_379"), val = tensor<int32, [2]>([1, 1])];
            tensor<string, []> x_35_pad_type_0 = const()[name = tensor<string, []>("x_35_pad_type_0"), val = tensor<string, []>("custom")];
            tensor<int32, [4]> x_35_pad_0 = const()[name = tensor<string, []>("x_35_pad_0"), val = tensor<int32, [4]>([1, 1, 1, 1])];
            tensor<fp16, [64, 64, 3, 3]> inner_model_unet_d_blocks_1_resblocks_1_conv1_weight_to_fp16 = const()[name = tensor<string, []>("inner_model_unet_d_blocks_1_resblocks_1_conv1_weight_to_fp16"), val = tensor<fp16, [64, 64, 3, 3]>(BLOBFILE(path = tensor<string, []>("@model_path/weights/weight.bin"), offset = tensor<uint64, []>(1865920)))];
            tensor<fp16, [64]> inner_model_unet_d_blocks_1_resblocks_1_conv1_bias_to_fp16 = const()[name = tensor<string, []>("inner_model_unet_d_blocks_1_resblocks_1_conv1_bias_to_fp16"), val = tensor<fp16, [64]>(BLOBFILE(path = tensor<string, []>("@model_path/weights/weight.bin"), offset = tensor<uint64, []>(1939712)))];
            tensor<fp16, [1, 64, 32, 32]> x_35_cast_fp16 = conv(bias = inner_model_unet_d_blocks_1_resblocks_1_conv1_bias_to_fp16, dilations = var_379, groups = var_85, pad = x_35_pad_0, pad_type = x_35_pad_type_0, strides = var_377, weight = inner_model_unet_d_blocks_1_resblocks_1_conv1_weight_to_fp16, x = input_45_cast_fp16)[name = tensor<string, []>("x_35_cast_fp16")];
            tensor<int32, [5]> reshape_14_shape_0 = const()[name = tensor<string, []>("reshape_14_shape_0"), val = tensor<int32, [5]>([1, 2, 32, 32, 32])];
            tensor<fp16, [1, 2, 32, 32, 32]> reshape_14_cast_fp16 = reshape(shape = reshape_14_shape_0, x = x_35_cast_fp16)[name = tensor<string, []>("reshape_14_cast_fp16")];
            tensor<int32, [3]> reduce_mean_21_axes_0 = const()[name = tensor<string, []>("reduce_mean_21_axes_0"), val = tensor<int32, [3]>([2, 3, 4])];
            tensor<bool, []> reduce_mean_21_keep_dims_0 = const()[name = tensor<string, []>("reduce_mean_21_keep_dims_0"), val = tensor<bool, []>(true)];
            tensor<fp16, [1, 2, 1, 1, 1]> reduce_mean_21_cast_fp16 = reduce_mean(axes = reduce_mean_21_axes_0, keep_dims = reduce_mean_21_keep_dims_0, x = reshape_14_cast_fp16)[name = tensor<string, []>("reduce_mean_21_cast_fp16")];
            tensor<fp16, [1, 2, 32, 32, 32]> sub_14_cast_fp16 = sub(x = reshape_14_cast_fp16, y = reduce_mean_21_cast_fp16)[name = tensor<string, []>("sub_14_cast_fp16")];
            tensor<fp16, [1, 2, 32, 32, 32]> square_7_cast_fp16 = square(x = sub_14_cast_fp16)[name = tensor<string, []>("square_7_cast_fp16")];
            tensor<int32, [3]> reduce_mean_23_axes_0 = const()[name = tensor<string, []>("reduce_mean_23_axes_0"), val = tensor<int32, [3]>([2, 3, 4])];
            tensor<bool, []> reduce_mean_23_keep_dims_0 = const()[name = tensor<string, []>("reduce_mean_23_keep_dims_0"), val = tensor<bool, []>(true)];
            tensor<fp16, [1, 2, 1, 1, 1]> reduce_mean_23_cast_fp16 = reduce_mean(axes = reduce_mean_23_axes_0, keep_dims = reduce_mean_23_keep_dims_0, x = square_7_cast_fp16)[name = tensor<string, []>("reduce_mean_23_cast_fp16")];
            tensor<fp16, []> add_7_y_0_to_fp16 = const()[name = tensor<string, []>("add_7_y_0_to_fp16"), val = tensor<fp16, []>(0x1.5p-17)];
            tensor<fp16, [1, 2, 1, 1, 1]> add_7_cast_fp16 = add(x = reduce_mean_23_cast_fp16, y = add_7_y_0_to_fp16)[name = tensor<string, []>("add_7_cast_fp16")];
            tensor<fp16, [1, 2, 1, 1, 1]> sqrt_7_cast_fp16 = sqrt(x = add_7_cast_fp16)[name = tensor<string, []>("sqrt_7_cast_fp16")];
            tensor<fp16, [1, 2, 32, 32, 32]> real_div_7_cast_fp16 = real_div(x = sub_14_cast_fp16, y = sqrt_7_cast_fp16)[name = tensor<string, []>("real_div_7_cast_fp16")];
            tensor<int32, [4]> reshape_15_shape_0 = const()[name = tensor<string, []>("reshape_15_shape_0"), val = tensor<int32, [4]>([1, 64, 32, 32])];
            tensor<fp16, [1, 64, 32, 32]> reshape_15_cast_fp16 = reshape(shape = reshape_15_shape_0, x = real_div_7_cast_fp16)[name = tensor<string, []>("reshape_15_cast_fp16")];
            tensor<fp16, [128, 512]> inner_model_unet_d_blocks_1_resblocks_1_norm2_linear_weight_to_fp16 = const()[name = tensor<string, []>("inner_model_unet_d_blocks_1_resblocks_1_norm2_linear_weight_to_fp16"), val = tensor<fp16, [128, 512]>(BLOBFILE(path = tensor<string, []>("@model_path/weights/weight.bin"), offset = tensor<uint64, []>(1939904)))];
            tensor<fp16, [128]> inner_model_unet_d_blocks_1_resblocks_1_norm2_linear_bias_to_fp16 = const()[name = tensor<string, []>("inner_model_unet_d_blocks_1_resblocks_1_norm2_linear_bias_to_fp16"), val = tensor<fp16, [128]>(BLOBFILE(path = tensor<string, []>("@model_path/weights/weight.bin"), offset = tensor<uint64, []>(2071040)))];
            tensor<fp16, [1, 128]> linear_9_cast_fp16 = linear(bias = inner_model_unet_d_blocks_1_resblocks_1_norm2_linear_bias_to_fp16, weight = inner_model_unet_d_blocks_1_resblocks_1_norm2_linear_weight_to_fp16, x = linear_1_cast_fp16)[name = tensor<string, []>("linear_9_cast_fp16")];
            tensor<int32, [1]> var_389_axes_0 = const()[name = tensor<string, []>("op_389_axes_0"), val = tensor<int32, [1]>([2])];
            tensor<fp16, [1, 128, 1]> var_389_cast_fp16 = expand_dims(axes = var_389_axes_0, x = linear_9_cast_fp16)[name = tensor<string, []>("op_389_cast_fp16")];
            tensor<int32, [1]> var_390_axes_0 = const()[name = tensor<string, []>("op_390_axes_0"), val = tensor<int32, [1]>([3])];
            tensor<fp16, [1, 128, 1, 1]> var_390_cast_fp16 = expand_dims(axes = var_390_axes_0, x = var_389_cast_fp16)[name = tensor<string, []>("op_390_cast_fp16")];
            tensor<int32, [2]> var_391_split_sizes_0 = const()[name = tensor<string, []>("op_391_split_sizes_0"), val = tensor<int32, [2]>([64, 64])];
            tensor<int32, []> var_391_axis_0 = const()[name = tensor<string, []>("op_391_axis_0"), val = tensor<int32, []>(1)];
            tensor<fp16, [1, 64, 1, 1]> var_391_cast_fp16_0, tensor<fp16, [1, 64, 1, 1]> var_391_cast_fp16_1 = split(axis = var_391_axis_0, split_sizes = var_391_split_sizes_0, x = var_390_cast_fp16)[name = tensor<string, []>("op_391_cast_fp16")];
            tensor<fp16, []> var_393_promoted_to_fp16 = const()[name = tensor<string, []>("op_393_promoted_to_fp16"), val = tensor<fp16, []>(0x1p+0)];
            tensor<fp16, [1, 64, 1, 1]> var_394_cast_fp16 = add(x = var_391_cast_fp16_0, y = var_393_promoted_to_fp16)[name = tensor<string, []>("op_394_cast_fp16")];
            tensor<fp16, [1, 64, 32, 32]> var_395_cast_fp16 = mul(x = reshape_15_cast_fp16, y = var_394_cast_fp16)[name = tensor<string, []>("op_395_cast_fp16")];
            tensor<fp16, [1, 64, 32, 32]> input_47_cast_fp16 = add(x = var_395_cast_fp16, y = var_391_cast_fp16_1)[name = tensor<string, []>("input_47_cast_fp16")];
            tensor<fp16, [1, 64, 32, 32]> input_49_cast_fp16 = silu(x = input_47_cast_fp16)[name = tensor<string, []>("input_49_cast_fp16")];
            tensor<int32, [2]> var_400 = const()[name = tensor<string, []>("op_400"), val = tensor<int32, [2]>([1, 1])];
            tensor<int32, [2]> var_402 = const()[name = tensor<string, []>("op_402"), val = tensor<int32, [2]>([1, 1])];
            tensor<string, []> x_39_pad_type_0 = const()[name = tensor<string, []>("x_39_pad_type_0"), val = tensor<string, []>("custom")];
            tensor<int32, [4]> x_39_pad_0 = const()[name = tensor<string, []>("x_39_pad_0"), val = tensor<int32, [4]>([1, 1, 1, 1])];
            tensor<fp16, [64, 64, 3, 3]> inner_model_unet_d_blocks_1_resblocks_1_conv2_weight_to_fp16 = const()[name = tensor<string, []>("inner_model_unet_d_blocks_1_resblocks_1_conv2_weight_to_fp16"), val = tensor<fp16, [64, 64, 3, 3]>(BLOBFILE(path = tensor<string, []>("@model_path/weights/weight.bin"), offset = tensor<uint64, []>(2071360)))];
            tensor<fp16, [64]> inner_model_unet_d_blocks_1_resblocks_1_conv2_bias_to_fp16 = const()[name = tensor<string, []>("inner_model_unet_d_blocks_1_resblocks_1_conv2_bias_to_fp16"), val = tensor<fp16, [64]>(BLOBFILE(path = tensor<string, []>("@model_path/weights/weight.bin"), offset = tensor<uint64, []>(2145152)))];
            tensor<fp16, [1, 64, 32, 32]> x_39_cast_fp16 = conv(bias = inner_model_unet_d_blocks_1_resblocks_1_conv2_bias_to_fp16, dilations = var_402, groups = var_85, pad = x_39_pad_0, pad_type = x_39_pad_type_0, strides = var_400, weight = inner_model_unet_d_blocks_1_resblocks_1_conv2_weight_to_fp16, x = input_49_cast_fp16)[name = tensor<string, []>("x_39_cast_fp16")];
            tensor<fp16, [1, 64, 32, 32]> input_51_cast_fp16 = add(x = x_39_cast_fp16, y = x_31_cast_fp16)[name = tensor<string, []>("input_51_cast_fp16")];
            tensor<int32, [2]> var_412 = const()[name = tensor<string, []>("op_412"), val = tensor<int32, [2]>([2, 2])];
            tensor<int32, [2]> var_414 = const()[name = tensor<string, []>("op_414"), val = tensor<int32, [2]>([1, 1])];
            tensor<string, []> input_53_pad_type_0 = const()[name = tensor<string, []>("input_53_pad_type_0"), val = tensor<string, []>("custom")];
            tensor<int32, [4]> input_53_pad_0 = const()[name = tensor<string, []>("input_53_pad_0"), val = tensor<int32, [4]>([1, 1, 1, 1])];
            tensor<fp16, [64, 64, 3, 3]> inner_model_unet_downsamples_2_conv_weight_to_fp16 = const()[name = tensor<string, []>("inner_model_unet_downsamples_2_conv_weight_to_fp16"), val = tensor<fp16, [64, 64, 3, 3]>(BLOBFILE(path = tensor<string, []>("@model_path/weights/weight.bin"), offset = tensor<uint64, []>(2145344)))];
            tensor<fp16, [64]> inner_model_unet_downsamples_2_conv_bias_to_fp16 = const()[name = tensor<string, []>("inner_model_unet_downsamples_2_conv_bias_to_fp16"), val = tensor<fp16, [64]>(BLOBFILE(path = tensor<string, []>("@model_path/weights/weight.bin"), offset = tensor<uint64, []>(2219136)))];
            tensor<fp16, [1, 64, 16, 16]> input_53_cast_fp16 = conv(bias = inner_model_unet_downsamples_2_conv_bias_to_fp16, dilations = var_414, groups = var_85, pad = input_53_pad_0, pad_type = input_53_pad_type_0, strides = var_412, weight = inner_model_unet_downsamples_2_conv_weight_to_fp16, x = input_51_cast_fp16)[name = tensor<string, []>("input_53_cast_fp16")];
            tensor<int32, [2]> var_429 = const()[name = tensor<string, []>("op_429"), val = tensor<int32, [2]>([1, 1])];
            tensor<int32, [2]> var_431 = const()[name = tensor<string, []>("op_431"), val = tensor<int32, [2]>([1, 1])];
            tensor<string, []> r_3_pad_type_0 = const()[name = tensor<string, []>("r_3_pad_type_0"), val = tensor<string, []>("custom")];
            tensor<int32, [4]> r_3_pad_0 = const()[name = tensor<string, []>("r_3_pad_0"), val = tensor<int32, [4]>([0, 0, 0, 0])];
            tensor<fp16, [128, 64, 1, 1]> inner_model_unet_d_blocks_2_resblocks_0_proj_weight_to_fp16 = const()[name = tensor<string, []>("inner_model_unet_d_blocks_2_resblocks_0_proj_weight_to_fp16"), val = tensor<fp16, [128, 64, 1, 1]>(BLOBFILE(path = tensor<string, []>("@model_path/weights/weight.bin"), offset = tensor<uint64, []>(2219328)))];
            tensor<fp16, [128]> inner_model_unet_d_blocks_2_resblocks_0_proj_bias_to_fp16 = const()[name = tensor<string, []>("inner_model_unet_d_blocks_2_resblocks_0_proj_bias_to_fp16"), val = tensor<fp16, [128]>(BLOBFILE(path = tensor<string, []>("@model_path/weights/weight.bin"), offset = tensor<uint64, []>(2235776)))];
            tensor<fp16, [1, 128, 16, 16]> r_3_cast_fp16 = conv(bias = inner_model_unet_d_blocks_2_resblocks_0_proj_bias_to_fp16, dilations = var_431, groups = var_85, pad = r_3_pad_0, pad_type = r_3_pad_type_0, strides = var_429, weight = inner_model_unet_d_blocks_2_resblocks_0_proj_weight_to_fp16, x = input_53_cast_fp16)[name = tensor<string, []>("r_3_cast_fp16")];
            tensor<int32, [5]> reshape_16_shape_0 = const()[name = tensor<string, []>("reshape_16_shape_0"), val = tensor<int32, [5]>([1, 2, 32, 16, 16])];
            tensor<fp16, [1, 2, 32, 16, 16]> reshape_16_cast_fp16 = reshape(shape = reshape_16_shape_0, x = input_53_cast_fp16)[name = tensor<string, []>("reshape_16_cast_fp16")];
            tensor<int32, [3]> reduce_mean_24_axes_0 = const()[name = tensor<string, []>("reduce_mean_24_axes_0"), val = tensor<int32, [3]>([2, 3, 4])];
            tensor<bool, []> reduce_mean_24_keep_dims_0 = const()[name = tensor<string, []>("reduce_mean_24_keep_dims_0"), val = tensor<bool, []>(true)];
            tensor<fp16, [1, 2, 1, 1, 1]> reduce_mean_24_cast_fp16 = reduce_mean(axes = reduce_mean_24_axes_0, keep_dims = reduce_mean_24_keep_dims_0, x = reshape_16_cast_fp16)[name = tensor<string, []>("reduce_mean_24_cast_fp16")];
            tensor<fp16, [1, 2, 32, 16, 16]> sub_16_cast_fp16 = sub(x = reshape_16_cast_fp16, y = reduce_mean_24_cast_fp16)[name = tensor<string, []>("sub_16_cast_fp16")];
            tensor<fp16, [1, 2, 32, 16, 16]> square_8_cast_fp16 = square(x = sub_16_cast_fp16)[name = tensor<string, []>("square_8_cast_fp16")];
            tensor<int32, [3]> reduce_mean_26_axes_0 = const()[name = tensor<string, []>("reduce_mean_26_axes_0"), val = tensor<int32, [3]>([2, 3, 4])];
            tensor<bool, []> reduce_mean_26_keep_dims_0 = const()[name = tensor<string, []>("reduce_mean_26_keep_dims_0"), val = tensor<bool, []>(true)];
            tensor<fp16, [1, 2, 1, 1, 1]> reduce_mean_26_cast_fp16 = reduce_mean(axes = reduce_mean_26_axes_0, keep_dims = reduce_mean_26_keep_dims_0, x = square_8_cast_fp16)[name = tensor<string, []>("reduce_mean_26_cast_fp16")];
            tensor<fp16, []> add_8_y_0_to_fp16 = const()[name = tensor<string, []>("add_8_y_0_to_fp16"), val = tensor<fp16, []>(0x1.5p-17)];
            tensor<fp16, [1, 2, 1, 1, 1]> add_8_cast_fp16 = add(x = reduce_mean_26_cast_fp16, y = add_8_y_0_to_fp16)[name = tensor<string, []>("add_8_cast_fp16")];
            tensor<fp16, [1, 2, 1, 1, 1]> sqrt_8_cast_fp16 = sqrt(x = add_8_cast_fp16)[name = tensor<string, []>("sqrt_8_cast_fp16")];
            tensor<fp16, [1, 2, 32, 16, 16]> real_div_8_cast_fp16 = real_div(x = sub_16_cast_fp16, y = sqrt_8_cast_fp16)[name = tensor<string, []>("real_div_8_cast_fp16")];
            tensor<int32, [4]> reshape_17_shape_0 = const()[name = tensor<string, []>("reshape_17_shape_0"), val = tensor<int32, [4]>([1, 64, 16, 16])];
            tensor<fp16, [1, 64, 16, 16]> reshape_17_cast_fp16 = reshape(shape = reshape_17_shape_0, x = real_div_8_cast_fp16)[name = tensor<string, []>("reshape_17_cast_fp16")];
            tensor<fp16, [128, 512]> inner_model_unet_d_blocks_2_resblocks_0_norm1_linear_weight_to_fp16 = const()[name = tensor<string, []>("inner_model_unet_d_blocks_2_resblocks_0_norm1_linear_weight_to_fp16"), val = tensor<fp16, [128, 512]>(BLOBFILE(path = tensor<string, []>("@model_path/weights/weight.bin"), offset = tensor<uint64, []>(2236096)))];
            tensor<fp16, [128]> inner_model_unet_d_blocks_2_resblocks_0_norm1_linear_bias_to_fp16 = const()[name = tensor<string, []>("inner_model_unet_d_blocks_2_resblocks_0_norm1_linear_bias_to_fp16"), val = tensor<fp16, [128]>(BLOBFILE(path = tensor<string, []>("@model_path/weights/weight.bin"), offset = tensor<uint64, []>(2367232)))];
            tensor<fp16, [1, 128]> linear_10_cast_fp16 = linear(bias = inner_model_unet_d_blocks_2_resblocks_0_norm1_linear_bias_to_fp16, weight = inner_model_unet_d_blocks_2_resblocks_0_norm1_linear_weight_to_fp16, x = linear_1_cast_fp16)[name = tensor<string, []>("linear_10_cast_fp16")];
            tensor<int32, [1]> var_441_axes_0 = const()[name = tensor<string, []>("op_441_axes_0"), val = tensor<int32, [1]>([2])];
            tensor<fp16, [1, 128, 1]> var_441_cast_fp16 = expand_dims(axes = var_441_axes_0, x = linear_10_cast_fp16)[name = tensor<string, []>("op_441_cast_fp16")];
            tensor<int32, [1]> var_442_axes_0 = const()[name = tensor<string, []>("op_442_axes_0"), val = tensor<int32, [1]>([3])];
            tensor<fp16, [1, 128, 1, 1]> var_442_cast_fp16 = expand_dims(axes = var_442_axes_0, x = var_441_cast_fp16)[name = tensor<string, []>("op_442_cast_fp16")];
            tensor<int32, [2]> var_443_split_sizes_0 = const()[name = tensor<string, []>("op_443_split_sizes_0"), val = tensor<int32, [2]>([64, 64])];
            tensor<int32, []> var_443_axis_0 = const()[name = tensor<string, []>("op_443_axis_0"), val = tensor<int32, []>(1)];
            tensor<fp16, [1, 64, 1, 1]> var_443_cast_fp16_0, tensor<fp16, [1, 64, 1, 1]> var_443_cast_fp16_1 = split(axis = var_443_axis_0, split_sizes = var_443_split_sizes_0, x = var_442_cast_fp16)[name = tensor<string, []>("op_443_cast_fp16")];
            tensor<fp16, []> var_445_promoted_to_fp16 = const()[name = tensor<string, []>("op_445_promoted_to_fp16"), val = tensor<fp16, []>(0x1p+0)];
            tensor<fp16, [1, 64, 1, 1]> var_446_cast_fp16 = add(x = var_443_cast_fp16_0, y = var_445_promoted_to_fp16)[name = tensor<string, []>("op_446_cast_fp16")];
            tensor<fp16, [1, 64, 16, 16]> var_447_cast_fp16 = mul(x = reshape_17_cast_fp16, y = var_446_cast_fp16)[name = tensor<string, []>("op_447_cast_fp16")];
            tensor<fp16, [1, 64, 16, 16]> input_55_cast_fp16 = add(x = var_447_cast_fp16, y = var_443_cast_fp16_1)[name = tensor<string, []>("input_55_cast_fp16")];
            tensor<fp16, [1, 64, 16, 16]> input_57_cast_fp16 = silu(x = input_55_cast_fp16)[name = tensor<string, []>("input_57_cast_fp16")];
            tensor<int32, [2]> var_452 = const()[name = tensor<string, []>("op_452"), val = tensor<int32, [2]>([1, 1])];
            tensor<int32, [2]> var_454 = const()[name = tensor<string, []>("op_454"), val = tensor<int32, [2]>([1, 1])];
            tensor<string, []> x_43_pad_type_0 = const()[name = tensor<string, []>("x_43_pad_type_0"), val = tensor<string, []>("custom")];
            tensor<int32, [4]> x_43_pad_0 = const()[name = tensor<string, []>("x_43_pad_0"), val = tensor<int32, [4]>([1, 1, 1, 1])];
            tensor<fp16, [128, 64, 3, 3]> inner_model_unet_d_blocks_2_resblocks_0_conv1_weight_to_fp16 = const()[name = tensor<string, []>("inner_model_unet_d_blocks_2_resblocks_0_conv1_weight_to_fp16"), val = tensor<fp16, [128, 64, 3, 3]>(BLOBFILE(path = tensor<string, []>("@model_path/weights/weight.bin"), offset = tensor<uint64, []>(2367552)))];
            tensor<fp16, [128]> inner_model_unet_d_blocks_2_resblocks_0_conv1_bias_to_fp16 = const()[name = tensor<string, []>("inner_model_unet_d_blocks_2_resblocks_0_conv1_bias_to_fp16"), val = tensor<fp16, [128]>(BLOBFILE(path = tensor<string, []>("@model_path/weights/weight.bin"), offset = tensor<uint64, []>(2515072)))];
            tensor<fp16, [1, 128, 16, 16]> x_43_cast_fp16 = conv(bias = inner_model_unet_d_blocks_2_resblocks_0_conv1_bias_to_fp16, dilations = var_454, groups = var_85, pad = x_43_pad_0, pad_type = x_43_pad_type_0, strides = var_452, weight = inner_model_unet_d_blocks_2_resblocks_0_conv1_weight_to_fp16, x = input_57_cast_fp16)[name = tensor<string, []>("x_43_cast_fp16")];
            tensor<int32, [5]> reshape_18_shape_0 = const()[name = tensor<string, []>("reshape_18_shape_0"), val = tensor<int32, [5]>([1, 4, 32, 16, 16])];
            tensor<fp16, [1, 4, 32, 16, 16]> reshape_18_cast_fp16 = reshape(shape = reshape_18_shape_0, x = x_43_cast_fp16)[name = tensor<string, []>("reshape_18_cast_fp16")];
            tensor<int32, [3]> reduce_mean_27_axes_0 = const()[name = tensor<string, []>("reduce_mean_27_axes_0"), val = tensor<int32, [3]>([2, 3, 4])];
            tensor<bool, []> reduce_mean_27_keep_dims_0 = const()[name = tensor<string, []>("reduce_mean_27_keep_dims_0"), val = tensor<bool, []>(true)];
            tensor<fp16, [1, 4, 1, 1, 1]> reduce_mean_27_cast_fp16 = reduce_mean(axes = reduce_mean_27_axes_0, keep_dims = reduce_mean_27_keep_dims_0, x = reshape_18_cast_fp16)[name = tensor<string, []>("reduce_mean_27_cast_fp16")];
            tensor<fp16, [1, 4, 32, 16, 16]> sub_18_cast_fp16 = sub(x = reshape_18_cast_fp16, y = reduce_mean_27_cast_fp16)[name = tensor<string, []>("sub_18_cast_fp16")];
            tensor<fp16, [1, 4, 32, 16, 16]> square_9_cast_fp16 = square(x = sub_18_cast_fp16)[name = tensor<string, []>("square_9_cast_fp16")];
            tensor<int32, [3]> reduce_mean_29_axes_0 = const()[name = tensor<string, []>("reduce_mean_29_axes_0"), val = tensor<int32, [3]>([2, 3, 4])];
            tensor<bool, []> reduce_mean_29_keep_dims_0 = const()[name = tensor<string, []>("reduce_mean_29_keep_dims_0"), val = tensor<bool, []>(true)];
            tensor<fp16, [1, 4, 1, 1, 1]> reduce_mean_29_cast_fp16 = reduce_mean(axes = reduce_mean_29_axes_0, keep_dims = reduce_mean_29_keep_dims_0, x = square_9_cast_fp16)[name = tensor<string, []>("reduce_mean_29_cast_fp16")];
            tensor<fp16, []> add_9_y_0_to_fp16 = const()[name = tensor<string, []>("add_9_y_0_to_fp16"), val = tensor<fp16, []>(0x1.5p-17)];
            tensor<fp16, [1, 4, 1, 1, 1]> add_9_cast_fp16 = add(x = reduce_mean_29_cast_fp16, y = add_9_y_0_to_fp16)[name = tensor<string, []>("add_9_cast_fp16")];
            tensor<fp16, [1, 4, 1, 1, 1]> sqrt_9_cast_fp16 = sqrt(x = add_9_cast_fp16)[name = tensor<string, []>("sqrt_9_cast_fp16")];
            tensor<fp16, [1, 4, 32, 16, 16]> real_div_9_cast_fp16 = real_div(x = sub_18_cast_fp16, y = sqrt_9_cast_fp16)[name = tensor<string, []>("real_div_9_cast_fp16")];
            tensor<int32, [4]> reshape_19_shape_0 = const()[name = tensor<string, []>("reshape_19_shape_0"), val = tensor<int32, [4]>([1, 128, 16, 16])];
            tensor<fp16, [1, 128, 16, 16]> reshape_19_cast_fp16 = reshape(shape = reshape_19_shape_0, x = real_div_9_cast_fp16)[name = tensor<string, []>("reshape_19_cast_fp16")];
            tensor<fp16, [256, 512]> inner_model_unet_d_blocks_2_resblocks_0_norm2_linear_weight_to_fp16 = const()[name = tensor<string, []>("inner_model_unet_d_blocks_2_resblocks_0_norm2_linear_weight_to_fp16"), val = tensor<fp16, [256, 512]>(BLOBFILE(path = tensor<string, []>("@model_path/weights/weight.bin"), offset = tensor<uint64, []>(2515392)))];
            tensor<fp16, [256]> inner_model_unet_d_blocks_2_resblocks_0_norm2_linear_bias_to_fp16 = const()[name = tensor<string, []>("inner_model_unet_d_blocks_2_resblocks_0_norm2_linear_bias_to_fp16"), val = tensor<fp16, [256]>(BLOBFILE(path = tensor<string, []>("@model_path/weights/weight.bin"), offset = tensor<uint64, []>(2777600)))];
            tensor<fp16, [1, 256]> linear_11_cast_fp16 = linear(bias = inner_model_unet_d_blocks_2_resblocks_0_norm2_linear_bias_to_fp16, weight = inner_model_unet_d_blocks_2_resblocks_0_norm2_linear_weight_to_fp16, x = linear_1_cast_fp16)[name = tensor<string, []>("linear_11_cast_fp16")];
            tensor<int32, [1]> var_464_axes_0 = const()[name = tensor<string, []>("op_464_axes_0"), val = tensor<int32, [1]>([2])];
            tensor<fp16, [1, 256, 1]> var_464_cast_fp16 = expand_dims(axes = var_464_axes_0, x = linear_11_cast_fp16)[name = tensor<string, []>("op_464_cast_fp16")];
            tensor<int32, [1]> var_465_axes_0 = const()[name = tensor<string, []>("op_465_axes_0"), val = tensor<int32, [1]>([3])];
            tensor<fp16, [1, 256, 1, 1]> var_465_cast_fp16 = expand_dims(axes = var_465_axes_0, x = var_464_cast_fp16)[name = tensor<string, []>("op_465_cast_fp16")];
            tensor<int32, [2]> var_466_split_sizes_0 = const()[name = tensor<string, []>("op_466_split_sizes_0"), val = tensor<int32, [2]>([128, 128])];
            tensor<int32, []> var_466_axis_0 = const()[name = tensor<string, []>("op_466_axis_0"), val = tensor<int32, []>(1)];
            tensor<fp16, [1, 128, 1, 1]> var_466_cast_fp16_0, tensor<fp16, [1, 128, 1, 1]> var_466_cast_fp16_1 = split(axis = var_466_axis_0, split_sizes = var_466_split_sizes_0, x = var_465_cast_fp16)[name = tensor<string, []>("op_466_cast_fp16")];
            tensor<fp16, []> var_468_promoted_to_fp16 = const()[name = tensor<string, []>("op_468_promoted_to_fp16"), val = tensor<fp16, []>(0x1p+0)];
            tensor<fp16, [1, 128, 1, 1]> var_469_cast_fp16 = add(x = var_466_cast_fp16_0, y = var_468_promoted_to_fp16)[name = tensor<string, []>("op_469_cast_fp16")];
            tensor<fp16, [1, 128, 16, 16]> var_470_cast_fp16 = mul(x = reshape_19_cast_fp16, y = var_469_cast_fp16)[name = tensor<string, []>("op_470_cast_fp16")];
            tensor<fp16, [1, 128, 16, 16]> input_59_cast_fp16 = add(x = var_470_cast_fp16, y = var_466_cast_fp16_1)[name = tensor<string, []>("input_59_cast_fp16")];
            tensor<fp16, [1, 128, 16, 16]> input_61_cast_fp16 = silu(x = input_59_cast_fp16)[name = tensor<string, []>("input_61_cast_fp16")];
            tensor<int32, [2]> var_475 = const()[name = tensor<string, []>("op_475"), val = tensor<int32, [2]>([1, 1])];
            tensor<int32, [2]> var_477 = const()[name = tensor<string, []>("op_477"), val = tensor<int32, [2]>([1, 1])];
            tensor<string, []> x_47_pad_type_0 = const()[name = tensor<string, []>("x_47_pad_type_0"), val = tensor<string, []>("custom")];
            tensor<int32, [4]> x_47_pad_0 = const()[name = tensor<string, []>("x_47_pad_0"), val = tensor<int32, [4]>([1, 1, 1, 1])];
            tensor<fp16, [128, 128, 3, 3]> inner_model_unet_d_blocks_2_resblocks_0_conv2_weight_to_fp16 = const()[name = tensor<string, []>("inner_model_unet_d_blocks_2_resblocks_0_conv2_weight_to_fp16"), val = tensor<fp16, [128, 128, 3, 3]>(BLOBFILE(path = tensor<string, []>("@model_path/weights/weight.bin"), offset = tensor<uint64, []>(2778176)))];
            tensor<fp16, [128]> inner_model_unet_d_blocks_2_resblocks_0_conv2_bias_to_fp16 = const()[name = tensor<string, []>("inner_model_unet_d_blocks_2_resblocks_0_conv2_bias_to_fp16"), val = tensor<fp16, [128]>(BLOBFILE(path = tensor<string, []>("@model_path/weights/weight.bin"), offset = tensor<uint64, []>(3073152)))];
            tensor<fp16, [1, 128, 16, 16]> x_47_cast_fp16 = conv(bias = inner_model_unet_d_blocks_2_resblocks_0_conv2_bias_to_fp16, dilations = var_477, groups = var_85, pad = x_47_pad_0, pad_type = x_47_pad_type_0, strides = var_475, weight = inner_model_unet_d_blocks_2_resblocks_0_conv2_weight_to_fp16, x = input_61_cast_fp16)[name = tensor<string, []>("x_47_cast_fp16")];
            tensor<fp16, [1, 128, 16, 16]> x_49_cast_fp16 = add(x = x_47_cast_fp16, y = r_3_cast_fp16)[name = tensor<string, []>("x_49_cast_fp16")];
            tensor<int32, [5]> reshape_20_shape_0 = const()[name = tensor<string, []>("reshape_20_shape_0"), val = tensor<int32, [5]>([1, 4, 32, 16, 16])];
            tensor<fp16, [1, 4, 32, 16, 16]> reshape_20_cast_fp16 = reshape(shape = reshape_20_shape_0, x = x_49_cast_fp16)[name = tensor<string, []>("reshape_20_cast_fp16")];
            tensor<int32, [3]> reduce_mean_30_axes_0 = const()[name = tensor<string, []>("reduce_mean_30_axes_0"), val = tensor<int32, [3]>([2, 3, 4])];
            tensor<bool, []> reduce_mean_30_keep_dims_0 = const()[name = tensor<string, []>("reduce_mean_30_keep_dims_0"), val = tensor<bool, []>(true)];
            tensor<fp16, [1, 4, 1, 1, 1]> reduce_mean_30_cast_fp16 = reduce_mean(axes = reduce_mean_30_axes_0, keep_dims = reduce_mean_30_keep_dims_0, x = reshape_20_cast_fp16)[name = tensor<string, []>("reduce_mean_30_cast_fp16")];
            tensor<fp16, [1, 4, 32, 16, 16]> sub_20_cast_fp16 = sub(x = reshape_20_cast_fp16, y = reduce_mean_30_cast_fp16)[name = tensor<string, []>("sub_20_cast_fp16")];
            tensor<fp16, [1, 4, 32, 16, 16]> square_10_cast_fp16 = square(x = sub_20_cast_fp16)[name = tensor<string, []>("square_10_cast_fp16")];
            tensor<int32, [3]> reduce_mean_32_axes_0 = const()[name = tensor<string, []>("reduce_mean_32_axes_0"), val = tensor<int32, [3]>([2, 3, 4])];
            tensor<bool, []> reduce_mean_32_keep_dims_0 = const()[name = tensor<string, []>("reduce_mean_32_keep_dims_0"), val = tensor<bool, []>(true)];
            tensor<fp16, [1, 4, 1, 1, 1]> reduce_mean_32_cast_fp16 = reduce_mean(axes = reduce_mean_32_axes_0, keep_dims = reduce_mean_32_keep_dims_0, x = square_10_cast_fp16)[name = tensor<string, []>("reduce_mean_32_cast_fp16")];
            tensor<fp16, []> add_10_y_0_to_fp16 = const()[name = tensor<string, []>("add_10_y_0_to_fp16"), val = tensor<fp16, []>(0x1.5p-17)];
            tensor<fp16, [1, 4, 1, 1, 1]> add_10_cast_fp16 = add(x = reduce_mean_32_cast_fp16, y = add_10_y_0_to_fp16)[name = tensor<string, []>("add_10_cast_fp16")];
            tensor<fp16, [1, 4, 1, 1, 1]> sqrt_10_cast_fp16 = sqrt(x = add_10_cast_fp16)[name = tensor<string, []>("sqrt_10_cast_fp16")];
            tensor<fp16, [1, 4, 32, 16, 16]> real_div_10_cast_fp16 = real_div(x = sub_20_cast_fp16, y = sqrt_10_cast_fp16)[name = tensor<string, []>("real_div_10_cast_fp16")];
            tensor<int32, [4]> reshape_21_shape_0 = const()[name = tensor<string, []>("reshape_21_shape_0"), val = tensor<int32, [4]>([1, 128, 16, 16])];
            tensor<fp16, [1, 128, 16, 16]> reshape_21_cast_fp16 = reshape(shape = reshape_21_shape_0, x = real_div_10_cast_fp16)[name = tensor<string, []>("reshape_21_cast_fp16")];
            tensor<fp16, [128]> add_11_mean_0_to_fp16 = const()[name = tensor<string, []>("add_11_mean_0_to_fp16"), val = tensor<fp16, [128]>(BLOBFILE(path = tensor<string, []>("@model_path/weights/weight.bin"), offset = tensor<uint64, []>(3073472)))];
            tensor<fp16, [128]> add_11_variance_0_to_fp16 = const()[name = tensor<string, []>("add_11_variance_0_to_fp16"), val = tensor<fp16, [128]>(BLOBFILE(path = tensor<string, []>("@model_path/weights/weight.bin"), offset = tensor<uint64, []>(3073792)))];
            tensor<fp16, [128]> add_11_gamma_0_to_fp16 = const()[name = tensor<string, []>("add_11_gamma_0_to_fp16"), val = tensor<fp16, [128]>(BLOBFILE(path = tensor<string, []>("@model_path/weights/weight.bin"), offset = tensor<uint64, []>(3074112)))];
            tensor<fp16, [128]> add_11_beta_0_to_fp16 = const()[name = tensor<string, []>("add_11_beta_0_to_fp16"), val = tensor<fp16, [128]>(BLOBFILE(path = tensor<string, []>("@model_path/weights/weight.bin"), offset = tensor<uint64, []>(3074432)))];
            tensor<fp16, []> add_11_epsilon_0_to_fp16 = const()[name = tensor<string, []>("add_11_epsilon_0_to_fp16"), val = tensor<fp16, []>(0x1.5p-17)];
            tensor<fp16, [1, 128, 16, 16]> add_11_cast_fp16 = batch_norm(beta = add_11_beta_0_to_fp16, epsilon = add_11_epsilon_0_to_fp16, gamma = add_11_gamma_0_to_fp16, mean = add_11_mean_0_to_fp16, variance = add_11_variance_0_to_fp16, x = reshape_21_cast_fp16)[name = tensor<string, []>("add_11_cast_fp16")];
            tensor<int32, [2]> var_497 = const()[name = tensor<string, []>("op_497"), val = tensor<int32, [2]>([1, 1])];
            tensor<int32, [2]> var_499 = const()[name = tensor<string, []>("op_499"), val = tensor<int32, [2]>([1, 1])];
            tensor<string, []> qkv_1_pad_type_0 = const()[name = tensor<string, []>("qkv_1_pad_type_0"), val = tensor<string, []>("custom")];
            tensor<int32, [4]> qkv_1_pad_0 = const()[name = tensor<string, []>("qkv_1_pad_0"), val = tensor<int32, [4]>([0, 0, 0, 0])];
            tensor<fp16, [384, 128, 1, 1]> inner_model_unet_d_blocks_2_resblocks_0_attn_qkv_proj_weight_to_fp16 = const()[name = tensor<string, []>("inner_model_unet_d_blocks_2_resblocks_0_attn_qkv_proj_weight_to_fp16"), val = tensor<fp16, [384, 128, 1, 1]>(BLOBFILE(path = tensor<string, []>("@model_path/weights/weight.bin"), offset = tensor<uint64, []>(3074752)))];
            tensor<fp16, [384]> inner_model_unet_d_blocks_2_resblocks_0_attn_qkv_proj_bias_to_fp16 = const()[name = tensor<string, []>("inner_model_unet_d_blocks_2_resblocks_0_attn_qkv_proj_bias_to_fp16"), val = tensor<fp16, [384]>(BLOBFILE(path = tensor<string, []>("@model_path/weights/weight.bin"), offset = tensor<uint64, []>(3173120)))];
            tensor<fp16, [1, 384, 16, 16]> qkv_1_cast_fp16 = conv(bias = inner_model_unet_d_blocks_2_resblocks_0_attn_qkv_proj_bias_to_fp16, dilations = var_499, groups = var_85, pad = qkv_1_pad_0, pad_type = qkv_1_pad_type_0, strides = var_497, weight = inner_model_unet_d_blocks_2_resblocks_0_attn_qkv_proj_weight_to_fp16, x = add_11_cast_fp16)[name = tensor<string, []>("qkv_1_cast_fp16")];
            tensor<int32, [4]> var_506 = const()[name = tensor<string, []>("op_506"), val = tensor<int32, [4]>([1, 48, 8, 256])];
            tensor<fp16, [1, 48, 8, 256]> var_507_cast_fp16 = reshape(shape = var_506, x = qkv_1_cast_fp16)[name = tensor<string, []>("op_507_cast_fp16")];
            tensor<int32, [4]> var_508_perm_0 = const()[name = tensor<string, []>("op_508_perm_0"), val = tensor<int32, [4]>([0, 1, 3, 2])];
            tensor<int32, [3]> var_510_split_sizes_0 = const()[name = tensor<string, []>("op_510_split_sizes_0"), val = tensor<int32, [3]>([16, 16, 16])];
            tensor<int32, []> var_510_axis_0 = const()[name = tensor<string, []>("op_510_axis_0"), val = tensor<int32, []>(1)];
            tensor<fp16, [1, 48, 256, 8]> transpose_25 = transpose(perm = var_508_perm_0, x = var_507_cast_fp16)[name = tensor<string, []>("transpose_25")];
            tensor<fp16, [1, 16, 256, 8]> var_510_cast_fp16_0, tensor<fp16, [1, 16, 256, 8]> var_510_cast_fp16_1, tensor<fp16, [1, 16, 256, 8]> var_510_cast_fp16_2 = split(axis = var_510_axis_0, split_sizes = var_510_split_sizes_0, x = transpose_25)[name = tensor<string, []>("op_510_cast_fp16")];
            tensor<bool, []> var_514_transpose_x_1 = const()[name = tensor<string, []>("op_514_transpose_x_1"), val = tensor<bool, []>(false)];
            tensor<bool, []> var_514_transpose_y_1 = const()[name = tensor<string, []>("op_514_transpose_y_1"), val = tensor<bool, []>(true)];
            tensor<fp16, [1, 16, 256, 256]> var_514_cast_fp16 = matmul(transpose_x = var_514_transpose_x_1, transpose_y = var_514_transpose_y_1, x = var_510_cast_fp16_0, y = var_510_cast_fp16_1)[name = tensor<string, []>("op_514_cast_fp16")];
            tensor<fp16, []> _inversed_input_65_y_0_to_fp16 = const()[name = tensor<string, []>("_inversed_input_65_y_0_to_fp16"), val = tensor<fp16, []>(0x1.6ap-2)];
            tensor<fp16, [1, 16, 256, 256]> _inversed_input_65_cast_fp16 = mul(x = var_514_cast_fp16, y = _inversed_input_65_y_0_to_fp16)[name = tensor<string, []>("_inversed_input_65_cast_fp16")];
            tensor<fp16, [1, 16, 256, 256]> att_1_cast_fp16 = softmax(axis = var_84, x = _inversed_input_65_cast_fp16)[name = tensor<string, []>("att_1_cast_fp16")];
            tensor<bool, []> y_1_transpose_x_0 = const()[name = tensor<string, []>("y_1_transpose_x_0"), val = tensor<bool, []>(false)];
            tensor<bool, []> y_1_transpose_y_0 = const()[name = tensor<string, []>("y_1_transpose_y_0"), val = tensor<bool, []>(false)];
            tensor<fp16, [1, 16, 256, 8]> y_1_cast_fp16 = matmul(transpose_x = y_1_transpose_x_0, transpose_y = y_1_transpose_y_0, x = att_1_cast_fp16, y = var_510_cast_fp16_2)[name = tensor<string, []>("y_1_cast_fp16")];
            tensor<int32, [4]> var_519_perm_0 = const()[name = tensor<string, []>("op_519_perm_0"), val = tensor<int32, [4]>([0, 1, 3, 2])];
            tensor<int32, [4]> var_520 = const()[name = tensor<string, []>("op_520"), val = tensor<int32, [4]>([1, 128, 16, 16])];
            tensor<fp16, [1, 16, 8, 256]> transpose_24 = transpose(perm = var_519_perm_0, x = y_1_cast_fp16)[name = tensor<string, []>("transpose_24")];
            tensor<fp16, [1, 128, 16, 16]> input_67_cast_fp16 = reshape(shape = var_520, x = transpose_24)[name = tensor<string, []>("input_67_cast_fp16")];
            tensor<int32, [2]> var_524 = const()[name = tensor<string, []>("op_524"), val = tensor<int32, [2]>([1, 1])];
            tensor<int32, [2]> var_526 = const()[name = tensor<string, []>("op_526"), val = tensor<int32, [2]>([1, 1])];
            tensor<string, []> var_528_pad_type_0 = const()[name = tensor<string, []>("op_528_pad_type_0"), val = tensor<string, []>("custom")];
            tensor<int32, [4]> var_528_pad_0 = const()[name = tensor<string, []>("op_528_pad_0"), val = tensor<int32, [4]>([0, 0, 0, 0])];
            tensor<fp16, [128, 128, 1, 1]> inner_model_unet_d_blocks_2_resblocks_0_attn_out_proj_weight_to_fp16 = const()[name = tensor<string, []>("inner_model_unet_d_blocks_2_resblocks_0_attn_out_proj_weight_to_fp16"), val = tensor<fp16, [128, 128, 1, 1]>(BLOBFILE(path = tensor<string, []>("@model_path/weights/weight.bin"), offset = tensor<uint64, []>(3173952)))];
            tensor<fp16, [128]> inner_model_unet_d_blocks_2_resblocks_0_attn_out_proj_bias_to_fp16 = const()[name = tensor<string, []>("inner_model_unet_d_blocks_2_resblocks_0_attn_out_proj_bias_to_fp16"), val = tensor<fp16, [128]>(BLOBFILE(path = tensor<string, []>("@model_path/weights/weight.bin"), offset = tensor<uint64, []>(3206784)))];
            tensor<fp16, [1, 128, 16, 16]> var_528_cast_fp16 = conv(bias = inner_model_unet_d_blocks_2_resblocks_0_attn_out_proj_bias_to_fp16, dilations = var_526, groups = var_85, pad = var_528_pad_0, pad_type = var_528_pad_type_0, strides = var_524, weight = inner_model_unet_d_blocks_2_resblocks_0_attn_out_proj_weight_to_fp16, x = input_67_cast_fp16)[name = tensor<string, []>("op_528_cast_fp16")];
            tensor<fp16, [1, 128, 16, 16]> x_51_cast_fp16 = add(x = add_11_cast_fp16, y = var_528_cast_fp16)[name = tensor<string, []>("x_51_cast_fp16")];
            tensor<int32, [5]> reshape_24_shape_0 = const()[name = tensor<string, []>("reshape_24_shape_0"), val = tensor<int32, [5]>([1, 4, 32, 16, 16])];
            tensor<fp16, [1, 4, 32, 16, 16]> reshape_24_cast_fp16 = reshape(shape = reshape_24_shape_0, x = x_51_cast_fp16)[name = tensor<string, []>("reshape_24_cast_fp16")];
            tensor<int32, [3]> reduce_mean_33_axes_0 = const()[name = tensor<string, []>("reduce_mean_33_axes_0"), val = tensor<int32, [3]>([2, 3, 4])];
            tensor<bool, []> reduce_mean_33_keep_dims_0 = const()[name = tensor<string, []>("reduce_mean_33_keep_dims_0"), val = tensor<bool, []>(true)];
            tensor<fp16, [1, 4, 1, 1, 1]> reduce_mean_33_cast_fp16 = reduce_mean(axes = reduce_mean_33_axes_0, keep_dims = reduce_mean_33_keep_dims_0, x = reshape_24_cast_fp16)[name = tensor<string, []>("reduce_mean_33_cast_fp16")];
            tensor<fp16, [1, 4, 32, 16, 16]> sub_22_cast_fp16 = sub(x = reshape_24_cast_fp16, y = reduce_mean_33_cast_fp16)[name = tensor<string, []>("sub_22_cast_fp16")];
            tensor<fp16, [1, 4, 32, 16, 16]> square_11_cast_fp16 = square(x = sub_22_cast_fp16)[name = tensor<string, []>("square_11_cast_fp16")];
            tensor<int32, [3]> reduce_mean_35_axes_0 = const()[name = tensor<string, []>("reduce_mean_35_axes_0"), val = tensor<int32, [3]>([2, 3, 4])];
            tensor<bool, []> reduce_mean_35_keep_dims_0 = const()[name = tensor<string, []>("reduce_mean_35_keep_dims_0"), val = tensor<bool, []>(true)];
            tensor<fp16, [1, 4, 1, 1, 1]> reduce_mean_35_cast_fp16 = reduce_mean(axes = reduce_mean_35_axes_0, keep_dims = reduce_mean_35_keep_dims_0, x = square_11_cast_fp16)[name = tensor<string, []>("reduce_mean_35_cast_fp16")];
            tensor<fp16, []> add_12_y_0_to_fp16 = const()[name = tensor<string, []>("add_12_y_0_to_fp16"), val = tensor<fp16, []>(0x1.5p-17)];
            tensor<fp16, [1, 4, 1, 1, 1]> add_12_cast_fp16 = add(x = reduce_mean_35_cast_fp16, y = add_12_y_0_to_fp16)[name = tensor<string, []>("add_12_cast_fp16")];
            tensor<fp16, [1, 4, 1, 1, 1]> sqrt_11_cast_fp16 = sqrt(x = add_12_cast_fp16)[name = tensor<string, []>("sqrt_11_cast_fp16")];
            tensor<fp16, [1, 4, 32, 16, 16]> real_div_11_cast_fp16 = real_div(x = sub_22_cast_fp16, y = sqrt_11_cast_fp16)[name = tensor<string, []>("real_div_11_cast_fp16")];
            tensor<int32, [4]> reshape_25_shape_0 = const()[name = tensor<string, []>("reshape_25_shape_0"), val = tensor<int32, [4]>([1, 128, 16, 16])];
            tensor<fp16, [1, 128, 16, 16]> reshape_25_cast_fp16 = reshape(shape = reshape_25_shape_0, x = real_div_11_cast_fp16)[name = tensor<string, []>("reshape_25_cast_fp16")];
            tensor<fp16, [256, 512]> inner_model_unet_d_blocks_2_resblocks_1_norm1_linear_weight_to_fp16 = const()[name = tensor<string, []>("inner_model_unet_d_blocks_2_resblocks_1_norm1_linear_weight_to_fp16"), val = tensor<fp16, [256, 512]>(BLOBFILE(path = tensor<string, []>("@model_path/weights/weight.bin"), offset = tensor<uint64, []>(3207104)))];
            tensor<fp16, [256]> inner_model_unet_d_blocks_2_resblocks_1_norm1_linear_bias_to_fp16 = const()[name = tensor<string, []>("inner_model_unet_d_blocks_2_resblocks_1_norm1_linear_bias_to_fp16"), val = tensor<fp16, [256]>(BLOBFILE(path = tensor<string, []>("@model_path/weights/weight.bin"), offset = tensor<uint64, []>(3469312)))];
            tensor<fp16, [1, 256]> linear_12_cast_fp16 = linear(bias = inner_model_unet_d_blocks_2_resblocks_1_norm1_linear_bias_to_fp16, weight = inner_model_unet_d_blocks_2_resblocks_1_norm1_linear_weight_to_fp16, x = linear_1_cast_fp16)[name = tensor<string, []>("linear_12_cast_fp16")];
            tensor<int32, [1]> var_542_axes_0 = const()[name = tensor<string, []>("op_542_axes_0"), val = tensor<int32, [1]>([2])];
            tensor<fp16, [1, 256, 1]> var_542_cast_fp16 = expand_dims(axes = var_542_axes_0, x = linear_12_cast_fp16)[name = tensor<string, []>("op_542_cast_fp16")];
            tensor<int32, [1]> var_543_axes_0 = const()[name = tensor<string, []>("op_543_axes_0"), val = tensor<int32, [1]>([3])];
            tensor<fp16, [1, 256, 1, 1]> var_543_cast_fp16 = expand_dims(axes = var_543_axes_0, x = var_542_cast_fp16)[name = tensor<string, []>("op_543_cast_fp16")];
            tensor<int32, [2]> var_544_split_sizes_0 = const()[name = tensor<string, []>("op_544_split_sizes_0"), val = tensor<int32, [2]>([128, 128])];
            tensor<int32, []> var_544_axis_0 = const()[name = tensor<string, []>("op_544_axis_0"), val = tensor<int32, []>(1)];
            tensor<fp16, [1, 128, 1, 1]> var_544_cast_fp16_0, tensor<fp16, [1, 128, 1, 1]> var_544_cast_fp16_1 = split(axis = var_544_axis_0, split_sizes = var_544_split_sizes_0, x = var_543_cast_fp16)[name = tensor<string, []>("op_544_cast_fp16")];
            tensor<fp16, []> var_546_promoted_to_fp16 = const()[name = tensor<string, []>("op_546_promoted_to_fp16"), val = tensor<fp16, []>(0x1p+0)];
            tensor<fp16, [1, 128, 1, 1]> var_547_cast_fp16 = add(x = var_544_cast_fp16_0, y = var_546_promoted_to_fp16)[name = tensor<string, []>("op_547_cast_fp16")];
            tensor<fp16, [1, 128, 16, 16]> var_548_cast_fp16 = mul(x = reshape_25_cast_fp16, y = var_547_cast_fp16)[name = tensor<string, []>("op_548_cast_fp16")];
            tensor<fp16, [1, 128, 16, 16]> input_69_cast_fp16 = add(x = var_548_cast_fp16, y = var_544_cast_fp16_1)[name = tensor<string, []>("input_69_cast_fp16")];
            tensor<fp16, [1, 128, 16, 16]> input_71_cast_fp16 = silu(x = input_69_cast_fp16)[name = tensor<string, []>("input_71_cast_fp16")];
            tensor<int32, [2]> var_553 = const()[name = tensor<string, []>("op_553"), val = tensor<int32, [2]>([1, 1])];
            tensor<int32, [2]> var_555 = const()[name = tensor<string, []>("op_555"), val = tensor<int32, [2]>([1, 1])];
            tensor<string, []> x_55_pad_type_0 = const()[name = tensor<string, []>("x_55_pad_type_0"), val = tensor<string, []>("custom")];
            tensor<int32, [4]> x_55_pad_0 = const()[name = tensor<string, []>("x_55_pad_0"), val = tensor<int32, [4]>([1, 1, 1, 1])];
            tensor<fp16, [128, 128, 3, 3]> inner_model_unet_d_blocks_2_resblocks_1_conv1_weight_to_fp16 = const()[name = tensor<string, []>("inner_model_unet_d_blocks_2_resblocks_1_conv1_weight_to_fp16"), val = tensor<fp16, [128, 128, 3, 3]>(BLOBFILE(path = tensor<string, []>("@model_path/weights/weight.bin"), offset = tensor<uint64, []>(3469888)))];
            tensor<fp16, [128]> inner_model_unet_d_blocks_2_resblocks_1_conv1_bias_to_fp16 = const()[name = tensor<string, []>("inner_model_unet_d_blocks_2_resblocks_1_conv1_bias_to_fp16"), val = tensor<fp16, [128]>(BLOBFILE(path = tensor<string, []>("@model_path/weights/weight.bin"), offset = tensor<uint64, []>(3764864)))];
            tensor<fp16, [1, 128, 16, 16]> x_55_cast_fp16 = conv(bias = inner_model_unet_d_blocks_2_resblocks_1_conv1_bias_to_fp16, dilations = var_555, groups = var_85, pad = x_55_pad_0, pad_type = x_55_pad_type_0, strides = var_553, weight = inner_model_unet_d_blocks_2_resblocks_1_conv1_weight_to_fp16, x = input_71_cast_fp16)[name = tensor<string, []>("x_55_cast_fp16")];
            tensor<int32, [5]> reshape_26_shape_0 = const()[name = tensor<string, []>("reshape_26_shape_0"), val = tensor<int32, [5]>([1, 4, 32, 16, 16])];
            tensor<fp16, [1, 4, 32, 16, 16]> reshape_26_cast_fp16 = reshape(shape = reshape_26_shape_0, x = x_55_cast_fp16)[name = tensor<string, []>("reshape_26_cast_fp16")];
            tensor<int32, [3]> reduce_mean_36_axes_0 = const()[name = tensor<string, []>("reduce_mean_36_axes_0"), val = tensor<int32, [3]>([2, 3, 4])];
            tensor<bool, []> reduce_mean_36_keep_dims_0 = const()[name = tensor<string, []>("reduce_mean_36_keep_dims_0"), val = tensor<bool, []>(true)];
            tensor<fp16, [1, 4, 1, 1, 1]> reduce_mean_36_cast_fp16 = reduce_mean(axes = reduce_mean_36_axes_0, keep_dims = reduce_mean_36_keep_dims_0, x = reshape_26_cast_fp16)[name = tensor<string, []>("reduce_mean_36_cast_fp16")];
            tensor<fp16, [1, 4, 32, 16, 16]> sub_24_cast_fp16 = sub(x = reshape_26_cast_fp16, y = reduce_mean_36_cast_fp16)[name = tensor<string, []>("sub_24_cast_fp16")];
            tensor<fp16, [1, 4, 32, 16, 16]> square_12_cast_fp16 = square(x = sub_24_cast_fp16)[name = tensor<string, []>("square_12_cast_fp16")];
            tensor<int32, [3]> reduce_mean_38_axes_0 = const()[name = tensor<string, []>("reduce_mean_38_axes_0"), val = tensor<int32, [3]>([2, 3, 4])];
            tensor<bool, []> reduce_mean_38_keep_dims_0 = const()[name = tensor<string, []>("reduce_mean_38_keep_dims_0"), val = tensor<bool, []>(true)];
            tensor<fp16, [1, 4, 1, 1, 1]> reduce_mean_38_cast_fp16 = reduce_mean(axes = reduce_mean_38_axes_0, keep_dims = reduce_mean_38_keep_dims_0, x = square_12_cast_fp16)[name = tensor<string, []>("reduce_mean_38_cast_fp16")];
            tensor<fp16, []> add_13_y_0_to_fp16 = const()[name = tensor<string, []>("add_13_y_0_to_fp16"), val = tensor<fp16, []>(0x1.5p-17)];
            tensor<fp16, [1, 4, 1, 1, 1]> add_13_cast_fp16 = add(x = reduce_mean_38_cast_fp16, y = add_13_y_0_to_fp16)[name = tensor<string, []>("add_13_cast_fp16")];
            tensor<fp16, [1, 4, 1, 1, 1]> sqrt_12_cast_fp16 = sqrt(x = add_13_cast_fp16)[name = tensor<string, []>("sqrt_12_cast_fp16")];
            tensor<fp16, [1, 4, 32, 16, 16]> real_div_12_cast_fp16 = real_div(x = sub_24_cast_fp16, y = sqrt_12_cast_fp16)[name = tensor<string, []>("real_div_12_cast_fp16")];
            tensor<int32, [4]> reshape_27_shape_0 = const()[name = tensor<string, []>("reshape_27_shape_0"), val = tensor<int32, [4]>([1, 128, 16, 16])];
            tensor<fp16, [1, 128, 16, 16]> reshape_27_cast_fp16 = reshape(shape = reshape_27_shape_0, x = real_div_12_cast_fp16)[name = tensor<string, []>("reshape_27_cast_fp16")];
            tensor<fp16, [256, 512]> inner_model_unet_d_blocks_2_resblocks_1_norm2_linear_weight_to_fp16 = const()[name = tensor<string, []>("inner_model_unet_d_blocks_2_resblocks_1_norm2_linear_weight_to_fp16"), val = tensor<fp16, [256, 512]>(BLOBFILE(path = tensor<string, []>("@model_path/weights/weight.bin"), offset = tensor<uint64, []>(3765184)))];
            tensor<fp16, [256]> inner_model_unet_d_blocks_2_resblocks_1_norm2_linear_bias_to_fp16 = const()[name = tensor<string, []>("inner_model_unet_d_blocks_2_resblocks_1_norm2_linear_bias_to_fp16"), val = tensor<fp16, [256]>(BLOBFILE(path = tensor<string, []>("@model_path/weights/weight.bin"), offset = tensor<uint64, []>(4027392)))];
            tensor<fp16, [1, 256]> linear_13_cast_fp16 = linear(bias = inner_model_unet_d_blocks_2_resblocks_1_norm2_linear_bias_to_fp16, weight = inner_model_unet_d_blocks_2_resblocks_1_norm2_linear_weight_to_fp16, x = linear_1_cast_fp16)[name = tensor<string, []>("linear_13_cast_fp16")];
            tensor<int32, [1]> var_565_axes_0 = const()[name = tensor<string, []>("op_565_axes_0"), val = tensor<int32, [1]>([2])];
            tensor<fp16, [1, 256, 1]> var_565_cast_fp16 = expand_dims(axes = var_565_axes_0, x = linear_13_cast_fp16)[name = tensor<string, []>("op_565_cast_fp16")];
            tensor<int32, [1]> var_566_axes_0 = const()[name = tensor<string, []>("op_566_axes_0"), val = tensor<int32, [1]>([3])];
            tensor<fp16, [1, 256, 1, 1]> var_566_cast_fp16 = expand_dims(axes = var_566_axes_0, x = var_565_cast_fp16)[name = tensor<string, []>("op_566_cast_fp16")];
            tensor<int32, [2]> var_567_split_sizes_0 = const()[name = tensor<string, []>("op_567_split_sizes_0"), val = tensor<int32, [2]>([128, 128])];
            tensor<int32, []> var_567_axis_0 = const()[name = tensor<string, []>("op_567_axis_0"), val = tensor<int32, []>(1)];
            tensor<fp16, [1, 128, 1, 1]> var_567_cast_fp16_0, tensor<fp16, [1, 128, 1, 1]> var_567_cast_fp16_1 = split(axis = var_567_axis_0, split_sizes = var_567_split_sizes_0, x = var_566_cast_fp16)[name = tensor<string, []>("op_567_cast_fp16")];
            tensor<fp16, []> var_569_promoted_to_fp16 = const()[name = tensor<string, []>("op_569_promoted_to_fp16"), val = tensor<fp16, []>(0x1p+0)];
            tensor<fp16, [1, 128, 1, 1]> var_570_cast_fp16 = add(x = var_567_cast_fp16_0, y = var_569_promoted_to_fp16)[name = tensor<string, []>("op_570_cast_fp16")];
            tensor<fp16, [1, 128, 16, 16]> var_571_cast_fp16 = mul(x = reshape_27_cast_fp16, y = var_570_cast_fp16)[name = tensor<string, []>("op_571_cast_fp16")];
            tensor<fp16, [1, 128, 16, 16]> input_73_cast_fp16 = add(x = var_571_cast_fp16, y = var_567_cast_fp16_1)[name = tensor<string, []>("input_73_cast_fp16")];
            tensor<fp16, [1, 128, 16, 16]> input_75_cast_fp16 = silu(x = input_73_cast_fp16)[name = tensor<string, []>("input_75_cast_fp16")];
            tensor<int32, [2]> var_576 = const()[name = tensor<string, []>("op_576"), val = tensor<int32, [2]>([1, 1])];
            tensor<int32, [2]> var_578 = const()[name = tensor<string, []>("op_578"), val = tensor<int32, [2]>([1, 1])];
            tensor<string, []> x_59_pad_type_0 = const()[name = tensor<string, []>("x_59_pad_type_0"), val = tensor<string, []>("custom")];
            tensor<int32, [4]> x_59_pad_0 = const()[name = tensor<string, []>("x_59_pad_0"), val = tensor<int32, [4]>([1, 1, 1, 1])];
            tensor<fp16, [128, 128, 3, 3]> inner_model_unet_d_blocks_2_resblocks_1_conv2_weight_to_fp16 = const()[name = tensor<string, []>("inner_model_unet_d_blocks_2_resblocks_1_conv2_weight_to_fp16"), val = tensor<fp16, [128, 128, 3, 3]>(BLOBFILE(path = tensor<string, []>("@model_path/weights/weight.bin"), offset = tensor<uint64, []>(4027968)))];
            tensor<fp16, [128]> inner_model_unet_d_blocks_2_resblocks_1_conv2_bias_to_fp16 = const()[name = tensor<string, []>("inner_model_unet_d_blocks_2_resblocks_1_conv2_bias_to_fp16"), val = tensor<fp16, [128]>(BLOBFILE(path = tensor<string, []>("@model_path/weights/weight.bin"), offset = tensor<uint64, []>(4322944)))];
            tensor<fp16, [1, 128, 16, 16]> x_59_cast_fp16 = conv(bias = inner_model_unet_d_blocks_2_resblocks_1_conv2_bias_to_fp16, dilations = var_578, groups = var_85, pad = x_59_pad_0, pad_type = x_59_pad_type_0, strides = var_576, weight = inner_model_unet_d_blocks_2_resblocks_1_conv2_weight_to_fp16, x = input_75_cast_fp16)[name = tensor<string, []>("x_59_cast_fp16")];
            tensor<fp16, [1, 128, 16, 16]> x_61_cast_fp16 = add(x = x_59_cast_fp16, y = x_51_cast_fp16)[name = tensor<string, []>("x_61_cast_fp16")];
            tensor<int32, [5]> reshape_28_shape_0 = const()[name = tensor<string, []>("reshape_28_shape_0"), val = tensor<int32, [5]>([1, 4, 32, 16, 16])];
            tensor<fp16, [1, 4, 32, 16, 16]> reshape_28_cast_fp16 = reshape(shape = reshape_28_shape_0, x = x_61_cast_fp16)[name = tensor<string, []>("reshape_28_cast_fp16")];
            tensor<int32, [3]> reduce_mean_39_axes_0 = const()[name = tensor<string, []>("reduce_mean_39_axes_0"), val = tensor<int32, [3]>([2, 3, 4])];
            tensor<bool, []> reduce_mean_39_keep_dims_0 = const()[name = tensor<string, []>("reduce_mean_39_keep_dims_0"), val = tensor<bool, []>(true)];
            tensor<fp16, [1, 4, 1, 1, 1]> reduce_mean_39_cast_fp16 = reduce_mean(axes = reduce_mean_39_axes_0, keep_dims = reduce_mean_39_keep_dims_0, x = reshape_28_cast_fp16)[name = tensor<string, []>("reduce_mean_39_cast_fp16")];
            tensor<fp16, [1, 4, 32, 16, 16]> sub_26_cast_fp16 = sub(x = reshape_28_cast_fp16, y = reduce_mean_39_cast_fp16)[name = tensor<string, []>("sub_26_cast_fp16")];
            tensor<fp16, [1, 4, 32, 16, 16]> square_13_cast_fp16 = square(x = sub_26_cast_fp16)[name = tensor<string, []>("square_13_cast_fp16")];
            tensor<int32, [3]> reduce_mean_41_axes_0 = const()[name = tensor<string, []>("reduce_mean_41_axes_0"), val = tensor<int32, [3]>([2, 3, 4])];
            tensor<bool, []> reduce_mean_41_keep_dims_0 = const()[name = tensor<string, []>("reduce_mean_41_keep_dims_0"), val = tensor<bool, []>(true)];
            tensor<fp16, [1, 4, 1, 1, 1]> reduce_mean_41_cast_fp16 = reduce_mean(axes = reduce_mean_41_axes_0, keep_dims = reduce_mean_41_keep_dims_0, x = square_13_cast_fp16)[name = tensor<string, []>("reduce_mean_41_cast_fp16")];
            tensor<fp16, []> add_14_y_0_to_fp16 = const()[name = tensor<string, []>("add_14_y_0_to_fp16"), val = tensor<fp16, []>(0x1.5p-17)];
            tensor<fp16, [1, 4, 1, 1, 1]> add_14_cast_fp16 = add(x = reduce_mean_41_cast_fp16, y = add_14_y_0_to_fp16)[name = tensor<string, []>("add_14_cast_fp16")];
            tensor<fp16, [1, 4, 1, 1, 1]> sqrt_13_cast_fp16 = sqrt(x = add_14_cast_fp16)[name = tensor<string, []>("sqrt_13_cast_fp16")];
            tensor<fp16, [1, 4, 32, 16, 16]> real_div_13_cast_fp16 = real_div(x = sub_26_cast_fp16, y = sqrt_13_cast_fp16)[name = tensor<string, []>("real_div_13_cast_fp16")];
            tensor<int32, [4]> reshape_29_shape_0 = const()[name = tensor<string, []>("reshape_29_shape_0"), val = tensor<int32, [4]>([1, 128, 16, 16])];
            tensor<fp16, [1, 128, 16, 16]> reshape_29_cast_fp16 = reshape(shape = reshape_29_shape_0, x = real_div_13_cast_fp16)[name = tensor<string, []>("reshape_29_cast_fp16")];
            tensor<fp16, [128]> add_15_gamma_0_to_fp16 = const()[name = tensor<string, []>("add_15_gamma_0_to_fp16"), val = tensor<fp16, [128]>(BLOBFILE(path = tensor<string, []>("@model_path/weights/weight.bin"), offset = tensor<uint64, []>(4323264)))];
            tensor<fp16, [128]> add_15_beta_0_to_fp16 = const()[name = tensor<string, []>("add_15_beta_0_to_fp16"), val = tensor<fp16, [128]>(BLOBFILE(path = tensor<string, []>("@model_path/weights/weight.bin"), offset = tensor<uint64, []>(4323584)))];
            tensor<fp16, []> add_15_epsilon_0_to_fp16 = const()[name = tensor<string, []>("add_15_epsilon_0_to_fp16"), val = tensor<fp16, []>(0x1.5p-17)];
            tensor<fp16, [1, 128, 16, 16]> add_15_cast_fp16 = batch_norm(beta = add_15_beta_0_to_fp16, epsilon = add_15_epsilon_0_to_fp16, gamma = add_15_gamma_0_to_fp16, mean = add_11_mean_0_to_fp16, variance = add_11_variance_0_to_fp16, x = reshape_29_cast_fp16)[name = tensor<string, []>("add_15_cast_fp16")];
            tensor<int32, [2]> var_598 = const()[name = tensor<string, []>("op_598"), val = tensor<int32, [2]>([1, 1])];
            tensor<int32, [2]> var_600 = const()[name = tensor<string, []>("op_600"), val = tensor<int32, [2]>([1, 1])];
            tensor<string, []> qkv_5_pad_type_0 = const()[name = tensor<string, []>("qkv_5_pad_type_0"), val = tensor<string, []>("custom")];
            tensor<int32, [4]> qkv_5_pad_0 = const()[name = tensor<string, []>("qkv_5_pad_0"), val = tensor<int32, [4]>([0, 0, 0, 0])];
            tensor<fp16, [384, 128, 1, 1]> inner_model_unet_d_blocks_2_resblocks_1_attn_qkv_proj_weight_to_fp16 = const()[name = tensor<string, []>("inner_model_unet_d_blocks_2_resblocks_1_attn_qkv_proj_weight_to_fp16"), val = tensor<fp16, [384, 128, 1, 1]>(BLOBFILE(path = tensor<string, []>("@model_path/weights/weight.bin"), offset = tensor<uint64, []>(4323904)))];
            tensor<fp16, [384]> inner_model_unet_d_blocks_2_resblocks_1_attn_qkv_proj_bias_to_fp16 = const()[name = tensor<string, []>("inner_model_unet_d_blocks_2_resblocks_1_attn_qkv_proj_bias_to_fp16"), val = tensor<fp16, [384]>(BLOBFILE(path = tensor<string, []>("@model_path/weights/weight.bin"), offset = tensor<uint64, []>(4422272)))];
            tensor<fp16, [1, 384, 16, 16]> qkv_5_cast_fp16 = conv(bias = inner_model_unet_d_blocks_2_resblocks_1_attn_qkv_proj_bias_to_fp16, dilations = var_600, groups = var_85, pad = qkv_5_pad_0, pad_type = qkv_5_pad_type_0, strides = var_598, weight = inner_model_unet_d_blocks_2_resblocks_1_attn_qkv_proj_weight_to_fp16, x = add_15_cast_fp16)[name = tensor<string, []>("qkv_5_cast_fp16")];
            tensor<int32, [4]> var_607 = const()[name = tensor<string, []>("op_607"), val = tensor<int32, [4]>([1, 48, 8, 256])];
            tensor<fp16, [1, 48, 8, 256]> var_608_cast_fp16 = reshape(shape = var_607, x = qkv_5_cast_fp16)[name = tensor<string, []>("op_608_cast_fp16")];
            tensor<int32, [4]> var_609_perm_0 = const()[name = tensor<string, []>("op_609_perm_0"), val = tensor<int32, [4]>([0, 1, 3, 2])];
            tensor<int32, [3]> var_611_split_sizes_0 = const()[name = tensor<string, []>("op_611_split_sizes_0"), val = tensor<int32, [3]>([16, 16, 16])];
            tensor<int32, []> var_611_axis_0 = const()[name = tensor<string, []>("op_611_axis_0"), val = tensor<int32, []>(1)];
            tensor<fp16, [1, 48, 256, 8]> transpose_23 = transpose(perm = var_609_perm_0, x = var_608_cast_fp16)[name = tensor<string, []>("transpose_23")];
            tensor<fp16, [1, 16, 256, 8]> var_611_cast_fp16_0, tensor<fp16, [1, 16, 256, 8]> var_611_cast_fp16_1, tensor<fp16, [1, 16, 256, 8]> var_611_cast_fp16_2 = split(axis = var_611_axis_0, split_sizes = var_611_split_sizes_0, x = transpose_23)[name = tensor<string, []>("op_611_cast_fp16")];
            tensor<bool, []> var_615_transpose_x_1 = const()[name = tensor<string, []>("op_615_transpose_x_1"), val = tensor<bool, []>(false)];
            tensor<bool, []> var_615_transpose_y_1 = const()[name = tensor<string, []>("op_615_transpose_y_1"), val = tensor<bool, []>(true)];
            tensor<fp16, [1, 16, 256, 256]> var_615_cast_fp16 = matmul(transpose_x = var_615_transpose_x_1, transpose_y = var_615_transpose_y_1, x = var_611_cast_fp16_0, y = var_611_cast_fp16_1)[name = tensor<string, []>("op_615_cast_fp16")];
            tensor<fp16, []> _inversed_input_79_y_0_to_fp16 = const()[name = tensor<string, []>("_inversed_input_79_y_0_to_fp16"), val = tensor<fp16, []>(0x1.6ap-2)];
            tensor<fp16, [1, 16, 256, 256]> _inversed_input_79_cast_fp16 = mul(x = var_615_cast_fp16, y = _inversed_input_79_y_0_to_fp16)[name = tensor<string, []>("_inversed_input_79_cast_fp16")];
            tensor<fp16, [1, 16, 256, 256]> att_3_cast_fp16 = softmax(axis = var_84, x = _inversed_input_79_cast_fp16)[name = tensor<string, []>("att_3_cast_fp16")];
            tensor<bool, []> y_3_transpose_x_0 = const()[name = tensor<string, []>("y_3_transpose_x_0"), val = tensor<bool, []>(false)];
            tensor<bool, []> y_3_transpose_y_0 = const()[name = tensor<string, []>("y_3_transpose_y_0"), val = tensor<bool, []>(false)];
            tensor<fp16, [1, 16, 256, 8]> y_3_cast_fp16 = matmul(transpose_x = y_3_transpose_x_0, transpose_y = y_3_transpose_y_0, x = att_3_cast_fp16, y = var_611_cast_fp16_2)[name = tensor<string, []>("y_3_cast_fp16")];
            tensor<int32, [4]> var_620_perm_0 = const()[name = tensor<string, []>("op_620_perm_0"), val = tensor<int32, [4]>([0, 1, 3, 2])];
            tensor<int32, [4]> var_621 = const()[name = tensor<string, []>("op_621"), val = tensor<int32, [4]>([1, 128, 16, 16])];
            tensor<fp16, [1, 16, 8, 256]> transpose_22 = transpose(perm = var_620_perm_0, x = y_3_cast_fp16)[name = tensor<string, []>("transpose_22")];
            tensor<fp16, [1, 128, 16, 16]> input_81_cast_fp16 = reshape(shape = var_621, x = transpose_22)[name = tensor<string, []>("input_81_cast_fp16")];
            tensor<int32, [2]> var_625 = const()[name = tensor<string, []>("op_625"), val = tensor<int32, [2]>([1, 1])];
            tensor<int32, [2]> var_627 = const()[name = tensor<string, []>("op_627"), val = tensor<int32, [2]>([1, 1])];
            tensor<string, []> var_629_pad_type_0 = const()[name = tensor<string, []>("op_629_pad_type_0"), val = tensor<string, []>("custom")];
            tensor<int32, [4]> var_629_pad_0 = const()[name = tensor<string, []>("op_629_pad_0"), val = tensor<int32, [4]>([0, 0, 0, 0])];
            tensor<fp16, [128, 128, 1, 1]> inner_model_unet_d_blocks_2_resblocks_1_attn_out_proj_weight_to_fp16 = const()[name = tensor<string, []>("inner_model_unet_d_blocks_2_resblocks_1_attn_out_proj_weight_to_fp16"), val = tensor<fp16, [128, 128, 1, 1]>(BLOBFILE(path = tensor<string, []>("@model_path/weights/weight.bin"), offset = tensor<uint64, []>(4423104)))];
            tensor<fp16, [128]> inner_model_unet_d_blocks_2_resblocks_1_attn_out_proj_bias_to_fp16 = const()[name = tensor<string, []>("inner_model_unet_d_blocks_2_resblocks_1_attn_out_proj_bias_to_fp16"), val = tensor<fp16, [128]>(BLOBFILE(path = tensor<string, []>("@model_path/weights/weight.bin"), offset = tensor<uint64, []>(4455936)))];
            tensor<fp16, [1, 128, 16, 16]> var_629_cast_fp16 = conv(bias = inner_model_unet_d_blocks_2_resblocks_1_attn_out_proj_bias_to_fp16, dilations = var_627, groups = var_85, pad = var_629_pad_0, pad_type = var_629_pad_type_0, strides = var_625, weight = inner_model_unet_d_blocks_2_resblocks_1_attn_out_proj_weight_to_fp16, x = input_81_cast_fp16)[name = tensor<string, []>("op_629_cast_fp16")];
            tensor<fp16, [1, 128, 16, 16]> input_83_cast_fp16 = add(x = add_15_cast_fp16, y = var_629_cast_fp16)[name = tensor<string, []>("input_83_cast_fp16")];
            tensor<int32, [2]> var_637 = const()[name = tensor<string, []>("op_637"), val = tensor<int32, [2]>([2, 2])];
            tensor<int32, [2]> var_639 = const()[name = tensor<string, []>("op_639"), val = tensor<int32, [2]>([1, 1])];
            tensor<string, []> input_85_pad_type_0 = const()[name = tensor<string, []>("input_85_pad_type_0"), val = tensor<string, []>("custom")];
            tensor<int32, [4]> input_85_pad_0 = const()[name = tensor<string, []>("input_85_pad_0"), val = tensor<int32, [4]>([1, 1, 1, 1])];
            tensor<fp16, [128, 128, 3, 3]> inner_model_unet_downsamples_3_conv_weight_to_fp16 = const()[name = tensor<string, []>("inner_model_unet_downsamples_3_conv_weight_to_fp16"), val = tensor<fp16, [128, 128, 3, 3]>(BLOBFILE(path = tensor<string, []>("@model_path/weights/weight.bin"), offset = tensor<uint64, []>(4456256)))];
            tensor<fp16, [128]> inner_model_unet_downsamples_3_conv_bias_to_fp16 = const()[name = tensor<string, []>("inner_model_unet_downsamples_3_conv_bias_to_fp16"), val = tensor<fp16, [128]>(BLOBFILE(path = tensor<string, []>("@model_path/weights/weight.bin"), offset = tensor<uint64, []>(4751232)))];
            tensor<fp16, [1, 128, 8, 8]> input_85_cast_fp16 = conv(bias = inner_model_unet_downsamples_3_conv_bias_to_fp16, dilations = var_639, groups = var_85, pad = input_85_pad_0, pad_type = input_85_pad_type_0, strides = var_637, weight = inner_model_unet_downsamples_3_conv_weight_to_fp16, x = input_83_cast_fp16)[name = tensor<string, []>("input_85_cast_fp16")];
            tensor<int32, [2]> var_654 = const()[name = tensor<string, []>("op_654"), val = tensor<int32, [2]>([1, 1])];
            tensor<int32, [2]> var_656 = const()[name = tensor<string, []>("op_656"), val = tensor<int32, [2]>([1, 1])];
            tensor<string, []> r_5_pad_type_0 = const()[name = tensor<string, []>("r_5_pad_type_0"), val = tensor<string, []>("custom")];
            tensor<int32, [4]> r_5_pad_0 = const()[name = tensor<string, []>("r_5_pad_0"), val = tensor<int32, [4]>([0, 0, 0, 0])];
            tensor<fp16, [256, 128, 1, 1]> inner_model_unet_d_blocks_3_resblocks_0_proj_weight_to_fp16 = const()[name = tensor<string, []>("inner_model_unet_d_blocks_3_resblocks_0_proj_weight_to_fp16"), val = tensor<fp16, [256, 128, 1, 1]>(BLOBFILE(path = tensor<string, []>("@model_path/weights/weight.bin"), offset = tensor<uint64, []>(4751552)))];
            tensor<fp16, [256]> inner_model_unet_d_blocks_3_resblocks_0_proj_bias_to_fp16 = const()[name = tensor<string, []>("inner_model_unet_d_blocks_3_resblocks_0_proj_bias_to_fp16"), val = tensor<fp16, [256]>(BLOBFILE(path = tensor<string, []>("@model_path/weights/weight.bin"), offset = tensor<uint64, []>(4817152)))];
            tensor<fp16, [1, 256, 8, 8]> r_5_cast_fp16 = conv(bias = inner_model_unet_d_blocks_3_resblocks_0_proj_bias_to_fp16, dilations = var_656, groups = var_85, pad = r_5_pad_0, pad_type = r_5_pad_type_0, strides = var_654, weight = inner_model_unet_d_blocks_3_resblocks_0_proj_weight_to_fp16, x = input_85_cast_fp16)[name = tensor<string, []>("r_5_cast_fp16")];
            tensor<int32, [5]> reshape_32_shape_0 = const()[name = tensor<string, []>("reshape_32_shape_0"), val = tensor<int32, [5]>([1, 4, 32, 8, 8])];
            tensor<fp16, [1, 4, 32, 8, 8]> reshape_32_cast_fp16 = reshape(shape = reshape_32_shape_0, x = input_85_cast_fp16)[name = tensor<string, []>("reshape_32_cast_fp16")];
            tensor<int32, [3]> reduce_mean_42_axes_0 = const()[name = tensor<string, []>("reduce_mean_42_axes_0"), val = tensor<int32, [3]>([2, 3, 4])];
            tensor<bool, []> reduce_mean_42_keep_dims_0 = const()[name = tensor<string, []>("reduce_mean_42_keep_dims_0"), val = tensor<bool, []>(true)];
            tensor<fp16, [1, 4, 1, 1, 1]> reduce_mean_42_cast_fp16 = reduce_mean(axes = reduce_mean_42_axes_0, keep_dims = reduce_mean_42_keep_dims_0, x = reshape_32_cast_fp16)[name = tensor<string, []>("reduce_mean_42_cast_fp16")];
            tensor<fp16, [1, 4, 32, 8, 8]> sub_28_cast_fp16 = sub(x = reshape_32_cast_fp16, y = reduce_mean_42_cast_fp16)[name = tensor<string, []>("sub_28_cast_fp16")];
            tensor<fp16, [1, 4, 32, 8, 8]> square_14_cast_fp16 = square(x = sub_28_cast_fp16)[name = tensor<string, []>("square_14_cast_fp16")];
            tensor<int32, [3]> reduce_mean_44_axes_0 = const()[name = tensor<string, []>("reduce_mean_44_axes_0"), val = tensor<int32, [3]>([2, 3, 4])];
            tensor<bool, []> reduce_mean_44_keep_dims_0 = const()[name = tensor<string, []>("reduce_mean_44_keep_dims_0"), val = tensor<bool, []>(true)];
            tensor<fp16, [1, 4, 1, 1, 1]> reduce_mean_44_cast_fp16 = reduce_mean(axes = reduce_mean_44_axes_0, keep_dims = reduce_mean_44_keep_dims_0, x = square_14_cast_fp16)[name = tensor<string, []>("reduce_mean_44_cast_fp16")];
            tensor<fp16, []> add_16_y_0_to_fp16 = const()[name = tensor<string, []>("add_16_y_0_to_fp16"), val = tensor<fp16, []>(0x1.5p-17)];
            tensor<fp16, [1, 4, 1, 1, 1]> add_16_cast_fp16 = add(x = reduce_mean_44_cast_fp16, y = add_16_y_0_to_fp16)[name = tensor<string, []>("add_16_cast_fp16")];
            tensor<fp16, [1, 4, 1, 1, 1]> sqrt_14_cast_fp16 = sqrt(x = add_16_cast_fp16)[name = tensor<string, []>("sqrt_14_cast_fp16")];
            tensor<fp16, [1, 4, 32, 8, 8]> real_div_14_cast_fp16 = real_div(x = sub_28_cast_fp16, y = sqrt_14_cast_fp16)[name = tensor<string, []>("real_div_14_cast_fp16")];
            tensor<int32, [4]> reshape_33_shape_0 = const()[name = tensor<string, []>("reshape_33_shape_0"), val = tensor<int32, [4]>([1, 128, 8, 8])];
            tensor<fp16, [1, 128, 8, 8]> reshape_33_cast_fp16 = reshape(shape = reshape_33_shape_0, x = real_div_14_cast_fp16)[name = tensor<string, []>("reshape_33_cast_fp16")];
            tensor<fp16, [256, 512]> inner_model_unet_d_blocks_3_resblocks_0_norm1_linear_weight_to_fp16 = const()[name = tensor<string, []>("inner_model_unet_d_blocks_3_resblocks_0_norm1_linear_weight_to_fp16"), val = tensor<fp16, [256, 512]>(BLOBFILE(path = tensor<string, []>("@model_path/weights/weight.bin"), offset = tensor<uint64, []>(4817728)))];
            tensor<fp16, [256]> inner_model_unet_d_blocks_3_resblocks_0_norm1_linear_bias_to_fp16 = const()[name = tensor<string, []>("inner_model_unet_d_blocks_3_resblocks_0_norm1_linear_bias_to_fp16"), val = tensor<fp16, [256]>(BLOBFILE(path = tensor<string, []>("@model_path/weights/weight.bin"), offset = tensor<uint64, []>(5079936)))];
            tensor<fp16, [1, 256]> linear_14_cast_fp16 = linear(bias = inner_model_unet_d_blocks_3_resblocks_0_norm1_linear_bias_to_fp16, weight = inner_model_unet_d_blocks_3_resblocks_0_norm1_linear_weight_to_fp16, x = linear_1_cast_fp16)[name = tensor<string, []>("linear_14_cast_fp16")];
            tensor<int32, [1]> var_666_axes_0 = const()[name = tensor<string, []>("op_666_axes_0"), val = tensor<int32, [1]>([2])];
            tensor<fp16, [1, 256, 1]> var_666_cast_fp16 = expand_dims(axes = var_666_axes_0, x = linear_14_cast_fp16)[name = tensor<string, []>("op_666_cast_fp16")];
            tensor<int32, [1]> var_667_axes_0 = const()[name = tensor<string, []>("op_667_axes_0"), val = tensor<int32, [1]>([3])];
            tensor<fp16, [1, 256, 1, 1]> var_667_cast_fp16 = expand_dims(axes = var_667_axes_0, x = var_666_cast_fp16)[name = tensor<string, []>("op_667_cast_fp16")];
            tensor<int32, [2]> var_668_split_sizes_0 = const()[name = tensor<string, []>("op_668_split_sizes_0"), val = tensor<int32, [2]>([128, 128])];
            tensor<int32, []> var_668_axis_0 = const()[name = tensor<string, []>("op_668_axis_0"), val = tensor<int32, []>(1)];
            tensor<fp16, [1, 128, 1, 1]> var_668_cast_fp16_0, tensor<fp16, [1, 128, 1, 1]> var_668_cast_fp16_1 = split(axis = var_668_axis_0, split_sizes = var_668_split_sizes_0, x = var_667_cast_fp16)[name = tensor<string, []>("op_668_cast_fp16")];
            tensor<fp16, []> var_670_promoted_to_fp16 = const()[name = tensor<string, []>("op_670_promoted_to_fp16"), val = tensor<fp16, []>(0x1p+0)];
            tensor<fp16, [1, 128, 1, 1]> var_671_cast_fp16 = add(x = var_668_cast_fp16_0, y = var_670_promoted_to_fp16)[name = tensor<string, []>("op_671_cast_fp16")];
            tensor<fp16, [1, 128, 8, 8]> var_672_cast_fp16 = mul(x = reshape_33_cast_fp16, y = var_671_cast_fp16)[name = tensor<string, []>("op_672_cast_fp16")];
            tensor<fp16, [1, 128, 8, 8]> input_87_cast_fp16 = add(x = var_672_cast_fp16, y = var_668_cast_fp16_1)[name = tensor<string, []>("input_87_cast_fp16")];
            tensor<fp16, [1, 128, 8, 8]> input_89_cast_fp16 = silu(x = input_87_cast_fp16)[name = tensor<string, []>("input_89_cast_fp16")];
            tensor<int32, [2]> var_677 = const()[name = tensor<string, []>("op_677"), val = tensor<int32, [2]>([1, 1])];
            tensor<int32, [2]> var_679 = const()[name = tensor<string, []>("op_679"), val = tensor<int32, [2]>([1, 1])];
            tensor<string, []> x_65_pad_type_0 = const()[name = tensor<string, []>("x_65_pad_type_0"), val = tensor<string, []>("custom")];
            tensor<int32, [4]> x_65_pad_0 = const()[name = tensor<string, []>("x_65_pad_0"), val = tensor<int32, [4]>([1, 1, 1, 1])];
            tensor<fp16, [256, 128, 3, 3]> inner_model_unet_d_blocks_3_resblocks_0_conv1_weight_to_fp16 = const()[name = tensor<string, []>("inner_model_unet_d_blocks_3_resblocks_0_conv1_weight_to_fp16"), val = tensor<fp16, [256, 128, 3, 3]>(BLOBFILE(path = tensor<string, []>("@model_path/weights/weight.bin"), offset = tensor<uint64, []>(5080512)))];
            tensor<fp16, [256]> inner_model_unet_d_blocks_3_resblocks_0_conv1_bias_to_fp16 = const()[name = tensor<string, []>("inner_model_unet_d_blocks_3_resblocks_0_conv1_bias_to_fp16"), val = tensor<fp16, [256]>(BLOBFILE(path = tensor<string, []>("@model_path/weights/weight.bin"), offset = tensor<uint64, []>(5670400)))];
            tensor<fp16, [1, 256, 8, 8]> x_65_cast_fp16 = conv(bias = inner_model_unet_d_blocks_3_resblocks_0_conv1_bias_to_fp16, dilations = var_679, groups = var_85, pad = x_65_pad_0, pad_type = x_65_pad_type_0, strides = var_677, weight = inner_model_unet_d_blocks_3_resblocks_0_conv1_weight_to_fp16, x = input_89_cast_fp16)[name = tensor<string, []>("x_65_cast_fp16")];
            tensor<int32, [5]> reshape_34_shape_0 = const()[name = tensor<string, []>("reshape_34_shape_0"), val = tensor<int32, [5]>([1, 8, 32, 8, 8])];
            tensor<fp16, [1, 8, 32, 8, 8]> reshape_34_cast_fp16 = reshape(shape = reshape_34_shape_0, x = x_65_cast_fp16)[name = tensor<string, []>("reshape_34_cast_fp16")];
            tensor<int32, [3]> reduce_mean_45_axes_0 = const()[name = tensor<string, []>("reduce_mean_45_axes_0"), val = tensor<int32, [3]>([2, 3, 4])];
            tensor<bool, []> reduce_mean_45_keep_dims_0 = const()[name = tensor<string, []>("reduce_mean_45_keep_dims_0"), val = tensor<bool, []>(true)];
            tensor<fp16, [1, 8, 1, 1, 1]> reduce_mean_45_cast_fp16 = reduce_mean(axes = reduce_mean_45_axes_0, keep_dims = reduce_mean_45_keep_dims_0, x = reshape_34_cast_fp16)[name = tensor<string, []>("reduce_mean_45_cast_fp16")];
            tensor<fp16, [1, 8, 32, 8, 8]> sub_30_cast_fp16 = sub(x = reshape_34_cast_fp16, y = reduce_mean_45_cast_fp16)[name = tensor<string, []>("sub_30_cast_fp16")];
            tensor<fp16, [1, 8, 32, 8, 8]> square_15_cast_fp16 = square(x = sub_30_cast_fp16)[name = tensor<string, []>("square_15_cast_fp16")];
            tensor<int32, [3]> reduce_mean_47_axes_0 = const()[name = tensor<string, []>("reduce_mean_47_axes_0"), val = tensor<int32, [3]>([2, 3, 4])];
            tensor<bool, []> reduce_mean_47_keep_dims_0 = const()[name = tensor<string, []>("reduce_mean_47_keep_dims_0"), val = tensor<bool, []>(true)];
            tensor<fp16, [1, 8, 1, 1, 1]> reduce_mean_47_cast_fp16 = reduce_mean(axes = reduce_mean_47_axes_0, keep_dims = reduce_mean_47_keep_dims_0, x = square_15_cast_fp16)[name = tensor<string, []>("reduce_mean_47_cast_fp16")];
            tensor<fp16, []> add_17_y_0_to_fp16 = const()[name = tensor<string, []>("add_17_y_0_to_fp16"), val = tensor<fp16, []>(0x1.5p-17)];
            tensor<fp16, [1, 8, 1, 1, 1]> add_17_cast_fp16 = add(x = reduce_mean_47_cast_fp16, y = add_17_y_0_to_fp16)[name = tensor<string, []>("add_17_cast_fp16")];
            tensor<fp16, [1, 8, 1, 1, 1]> sqrt_15_cast_fp16 = sqrt(x = add_17_cast_fp16)[name = tensor<string, []>("sqrt_15_cast_fp16")];
            tensor<fp16, [1, 8, 32, 8, 8]> real_div_15_cast_fp16 = real_div(x = sub_30_cast_fp16, y = sqrt_15_cast_fp16)[name = tensor<string, []>("real_div_15_cast_fp16")];
            tensor<int32, [4]> reshape_35_shape_0 = const()[name = tensor<string, []>("reshape_35_shape_0"), val = tensor<int32, [4]>([1, 256, 8, 8])];
            tensor<fp16, [1, 256, 8, 8]> reshape_35_cast_fp16 = reshape(shape = reshape_35_shape_0, x = real_div_15_cast_fp16)[name = tensor<string, []>("reshape_35_cast_fp16")];
            tensor<fp16, [512, 512]> inner_model_unet_d_blocks_3_resblocks_0_norm2_linear_weight_to_fp16 = const()[name = tensor<string, []>("inner_model_unet_d_blocks_3_resblocks_0_norm2_linear_weight_to_fp16"), val = tensor<fp16, [512, 512]>(BLOBFILE(path = tensor<string, []>("@model_path/weights/weight.bin"), offset = tensor<uint64, []>(5670976)))];
            tensor<fp16, [512]> inner_model_unet_d_blocks_3_resblocks_0_norm2_linear_bias_to_fp16 = const()[name = tensor<string, []>("inner_model_unet_d_blocks_3_resblocks_0_norm2_linear_bias_to_fp16"), val = tensor<fp16, [512]>(BLOBFILE(path = tensor<string, []>("@model_path/weights/weight.bin"), offset = tensor<uint64, []>(6195328)))];
            tensor<fp16, [1, 512]> linear_15_cast_fp16 = linear(bias = inner_model_unet_d_blocks_3_resblocks_0_norm2_linear_bias_to_fp16, weight = inner_model_unet_d_blocks_3_resblocks_0_norm2_linear_weight_to_fp16, x = linear_1_cast_fp16)[name = tensor<string, []>("linear_15_cast_fp16")];
            tensor<int32, [1]> var_689_axes_0 = const()[name = tensor<string, []>("op_689_axes_0"), val = tensor<int32, [1]>([2])];
            tensor<fp16, [1, 512, 1]> var_689_cast_fp16 = expand_dims(axes = var_689_axes_0, x = linear_15_cast_fp16)[name = tensor<string, []>("op_689_cast_fp16")];
            tensor<int32, [1]> var_690_axes_0 = const()[name = tensor<string, []>("op_690_axes_0"), val = tensor<int32, [1]>([3])];
            tensor<fp16, [1, 512, 1, 1]> var_690_cast_fp16 = expand_dims(axes = var_690_axes_0, x = var_689_cast_fp16)[name = tensor<string, []>("op_690_cast_fp16")];
            tensor<int32, [2]> var_691_split_sizes_0 = const()[name = tensor<string, []>("op_691_split_sizes_0"), val = tensor<int32, [2]>([256, 256])];
            tensor<int32, []> var_691_axis_0 = const()[name = tensor<string, []>("op_691_axis_0"), val = tensor<int32, []>(1)];
            tensor<fp16, [1, 256, 1, 1]> var_691_cast_fp16_0, tensor<fp16, [1, 256, 1, 1]> var_691_cast_fp16_1 = split(axis = var_691_axis_0, split_sizes = var_691_split_sizes_0, x = var_690_cast_fp16)[name = tensor<string, []>("op_691_cast_fp16")];
            tensor<fp16, []> var_693_promoted_to_fp16 = const()[name = tensor<string, []>("op_693_promoted_to_fp16"), val = tensor<fp16, []>(0x1p+0)];
            tensor<fp16, [1, 256, 1, 1]> var_694_cast_fp16 = add(x = var_691_cast_fp16_0, y = var_693_promoted_to_fp16)[name = tensor<string, []>("op_694_cast_fp16")];
            tensor<fp16, [1, 256, 8, 8]> var_695_cast_fp16 = mul(x = reshape_35_cast_fp16, y = var_694_cast_fp16)[name = tensor<string, []>("op_695_cast_fp16")];
            tensor<fp16, [1, 256, 8, 8]> input_91_cast_fp16 = add(x = var_695_cast_fp16, y = var_691_cast_fp16_1)[name = tensor<string, []>("input_91_cast_fp16")];
            tensor<fp16, [1, 256, 8, 8]> input_93_cast_fp16 = silu(x = input_91_cast_fp16)[name = tensor<string, []>("input_93_cast_fp16")];
            tensor<int32, [2]> var_700 = const()[name = tensor<string, []>("op_700"), val = tensor<int32, [2]>([1, 1])];
            tensor<int32, [2]> var_702 = const()[name = tensor<string, []>("op_702"), val = tensor<int32, [2]>([1, 1])];
            tensor<string, []> x_69_pad_type_0 = const()[name = tensor<string, []>("x_69_pad_type_0"), val = tensor<string, []>("custom")];
            tensor<int32, [4]> x_69_pad_0 = const()[name = tensor<string, []>("x_69_pad_0"), val = tensor<int32, [4]>([1, 1, 1, 1])];
            tensor<fp16, [256, 256, 3, 3]> inner_model_unet_d_blocks_3_resblocks_0_conv2_weight_to_fp16 = const()[name = tensor<string, []>("inner_model_unet_d_blocks_3_resblocks_0_conv2_weight_to_fp16"), val = tensor<fp16, [256, 256, 3, 3]>(BLOBFILE(path = tensor<string, []>("@model_path/weights/weight.bin"), offset = tensor<uint64, []>(6196416)))];
            tensor<fp16, [256]> inner_model_unet_d_blocks_3_resblocks_0_conv2_bias_to_fp16 = const()[name = tensor<string, []>("inner_model_unet_d_blocks_3_resblocks_0_conv2_bias_to_fp16"), val = tensor<fp16, [256]>(BLOBFILE(path = tensor<string, []>("@model_path/weights/weight.bin"), offset = tensor<uint64, []>(7376128)))];
            tensor<fp16, [1, 256, 8, 8]> x_69_cast_fp16 = conv(bias = inner_model_unet_d_blocks_3_resblocks_0_conv2_bias_to_fp16, dilations = var_702, groups = var_85, pad = x_69_pad_0, pad_type = x_69_pad_type_0, strides = var_700, weight = inner_model_unet_d_blocks_3_resblocks_0_conv2_weight_to_fp16, x = input_93_cast_fp16)[name = tensor<string, []>("x_69_cast_fp16")];
            tensor<fp16, [1, 256, 8, 8]> x_71_cast_fp16 = add(x = x_69_cast_fp16, y = r_5_cast_fp16)[name = tensor<string, []>("x_71_cast_fp16")];
            tensor<int32, [5]> reshape_36_shape_0 = const()[name = tensor<string, []>("reshape_36_shape_0"), val = tensor<int32, [5]>([1, 8, 32, 8, 8])];
            tensor<fp16, [1, 8, 32, 8, 8]> reshape_36_cast_fp16 = reshape(shape = reshape_36_shape_0, x = x_71_cast_fp16)[name = tensor<string, []>("reshape_36_cast_fp16")];
            tensor<int32, [3]> reduce_mean_48_axes_0 = const()[name = tensor<string, []>("reduce_mean_48_axes_0"), val = tensor<int32, [3]>([2, 3, 4])];
            tensor<bool, []> reduce_mean_48_keep_dims_0 = const()[name = tensor<string, []>("reduce_mean_48_keep_dims_0"), val = tensor<bool, []>(true)];
            tensor<fp16, [1, 8, 1, 1, 1]> reduce_mean_48_cast_fp16 = reduce_mean(axes = reduce_mean_48_axes_0, keep_dims = reduce_mean_48_keep_dims_0, x = reshape_36_cast_fp16)[name = tensor<string, []>("reduce_mean_48_cast_fp16")];
            tensor<fp16, [1, 8, 32, 8, 8]> sub_32_cast_fp16 = sub(x = reshape_36_cast_fp16, y = reduce_mean_48_cast_fp16)[name = tensor<string, []>("sub_32_cast_fp16")];
            tensor<fp16, [1, 8, 32, 8, 8]> square_16_cast_fp16 = square(x = sub_32_cast_fp16)[name = tensor<string, []>("square_16_cast_fp16")];
            tensor<int32, [3]> reduce_mean_50_axes_0 = const()[name = tensor<string, []>("reduce_mean_50_axes_0"), val = tensor<int32, [3]>([2, 3, 4])];
            tensor<bool, []> reduce_mean_50_keep_dims_0 = const()[name = tensor<string, []>("reduce_mean_50_keep_dims_0"), val = tensor<bool, []>(true)];
            tensor<fp16, [1, 8, 1, 1, 1]> reduce_mean_50_cast_fp16 = reduce_mean(axes = reduce_mean_50_axes_0, keep_dims = reduce_mean_50_keep_dims_0, x = square_16_cast_fp16)[name = tensor<string, []>("reduce_mean_50_cast_fp16")];
            tensor<fp16, []> add_18_y_0_to_fp16 = const()[name = tensor<string, []>("add_18_y_0_to_fp16"), val = tensor<fp16, []>(0x1.5p-17)];
            tensor<fp16, [1, 8, 1, 1, 1]> add_18_cast_fp16 = add(x = reduce_mean_50_cast_fp16, y = add_18_y_0_to_fp16)[name = tensor<string, []>("add_18_cast_fp16")];
            tensor<fp16, [1, 8, 1, 1, 1]> sqrt_16_cast_fp16 = sqrt(x = add_18_cast_fp16)[name = tensor<string, []>("sqrt_16_cast_fp16")];
            tensor<fp16, [1, 8, 32, 8, 8]> real_div_16_cast_fp16 = real_div(x = sub_32_cast_fp16, y = sqrt_16_cast_fp16)[name = tensor<string, []>("real_div_16_cast_fp16")];
            tensor<int32, [4]> reshape_37_shape_0 = const()[name = tensor<string, []>("reshape_37_shape_0"), val = tensor<int32, [4]>([1, 256, 8, 8])];
            tensor<fp16, [1, 256, 8, 8]> reshape_37_cast_fp16 = reshape(shape = reshape_37_shape_0, x = real_div_16_cast_fp16)[name = tensor<string, []>("reshape_37_cast_fp16")];
            tensor<fp16, [256]> add_19_variance_0_to_fp16 = const()[name = tensor<string, []>("add_19_variance_0_to_fp16"), val = tensor<fp16, [256]>(BLOBFILE(path = tensor<string, []>("@model_path/weights/weight.bin"), offset = tensor<uint64, []>(7376704)))];
            tensor<fp16, [256]> add_19_gamma_0_to_fp16 = const()[name = tensor<string, []>("add_19_gamma_0_to_fp16"), val = tensor<fp16, [256]>(BLOBFILE(path = tensor<string, []>("@model_path/weights/weight.bin"), offset = tensor<uint64, []>(7377280)))];
            tensor<fp16, [256]> add_19_beta_0_to_fp16 = const()[name = tensor<string, []>("add_19_beta_0_to_fp16"), val = tensor<fp16, [256]>(BLOBFILE(path = tensor<string, []>("@model_path/weights/weight.bin"), offset = tensor<uint64, []>(7377856)))];
            tensor<fp16, []> add_19_epsilon_0_to_fp16 = const()[name = tensor<string, []>("add_19_epsilon_0_to_fp16"), val = tensor<fp16, []>(0x1.5p-17)];
            tensor<fp16, [1, 256, 8, 8]> add_19_cast_fp16 = batch_norm(beta = add_19_beta_0_to_fp16, epsilon = add_19_epsilon_0_to_fp16, gamma = add_19_gamma_0_to_fp16, mean = f_1_bias_0_to_fp16, variance = add_19_variance_0_to_fp16, x = reshape_37_cast_fp16)[name = tensor<string, []>("add_19_cast_fp16")];
            tensor<int32, [2]> var_722 = const()[name = tensor<string, []>("op_722"), val = tensor<int32, [2]>([1, 1])];
            tensor<int32, [2]> var_724 = const()[name = tensor<string, []>("op_724"), val = tensor<int32, [2]>([1, 1])];
            tensor<string, []> qkv_9_pad_type_0 = const()[name = tensor<string, []>("qkv_9_pad_type_0"), val = tensor<string, []>("custom")];
            tensor<int32, [4]> qkv_9_pad_0 = const()[name = tensor<string, []>("qkv_9_pad_0"), val = tensor<int32, [4]>([0, 0, 0, 0])];
            tensor<fp16, [768, 256, 1, 1]> inner_model_unet_d_blocks_3_resblocks_0_attn_qkv_proj_weight_to_fp16 = const()[name = tensor<string, []>("inner_model_unet_d_blocks_3_resblocks_0_attn_qkv_proj_weight_to_fp16"), val = tensor<fp16, [768, 256, 1, 1]>(BLOBFILE(path = tensor<string, []>("@model_path/weights/weight.bin"), offset = tensor<uint64, []>(7378432)))];
            tensor<fp16, [768]> inner_model_unet_d_blocks_3_resblocks_0_attn_qkv_proj_bias_to_fp16 = const()[name = tensor<string, []>("inner_model_unet_d_blocks_3_resblocks_0_attn_qkv_proj_bias_to_fp16"), val = tensor<fp16, [768]>(BLOBFILE(path = tensor<string, []>("@model_path/weights/weight.bin"), offset = tensor<uint64, []>(7771712)))];
            tensor<fp16, [1, 768, 8, 8]> qkv_9_cast_fp16 = conv(bias = inner_model_unet_d_blocks_3_resblocks_0_attn_qkv_proj_bias_to_fp16, dilations = var_724, groups = var_85, pad = qkv_9_pad_0, pad_type = qkv_9_pad_type_0, strides = var_722, weight = inner_model_unet_d_blocks_3_resblocks_0_attn_qkv_proj_weight_to_fp16, x = add_19_cast_fp16)[name = tensor<string, []>("qkv_9_cast_fp16")];
            tensor<int32, [4]> var_731 = const()[name = tensor<string, []>("op_731"), val = tensor<int32, [4]>([1, 96, 8, 64])];
            tensor<fp16, [1, 96, 8, 64]> var_732_cast_fp16 = reshape(shape = var_731, x = qkv_9_cast_fp16)[name = tensor<string, []>("op_732_cast_fp16")];
            tensor<int32, [4]> var_733_perm_0 = const()[name = tensor<string, []>("op_733_perm_0"), val = tensor<int32, [4]>([0, 1, 3, 2])];
            tensor<int32, [3]> var_735_split_sizes_0 = const()[name = tensor<string, []>("op_735_split_sizes_0"), val = tensor<int32, [3]>([32, 32, 32])];
            tensor<int32, []> var_735_axis_0 = const()[name = tensor<string, []>("op_735_axis_0"), val = tensor<int32, []>(1)];
            tensor<fp16, [1, 96, 64, 8]> transpose_21 = transpose(perm = var_733_perm_0, x = var_732_cast_fp16)[name = tensor<string, []>("transpose_21")];
…
            tensor<int32, []> var_1991_axis_0 = const()[name = tensor<string, []>("op_1991_axis_0"), val = tensor<int32, []>(1)];
            tensor<fp16, [1, 64, 1, 1]> var_1991_cast_fp16_0, tensor<fp16, [1, 64, 1, 1]> var_1991_cast_fp16_1 = split(axis = var_1991_axis_0, split_sizes = var_1991_split_sizes_0, x = var_1990_cast_fp16)[name = tensor<string, []>("op_1991_cast_fp16")];
            tensor<fp16, []> var_1993_promoted_to_fp16 = const()[name = tensor<string, []>("op_1993_promoted_to_fp16"), val = tensor<fp16, []>(0x1p+0)];
            tensor<fp16, [1, 64, 1, 1]> var_1994_cast_fp16 = add(x = var_1991_cast_fp16_0, y = var_1993_promoted_to_fp16)[name = tensor<string, []>("op_1994_cast_fp16")];
            tensor<fp16, [1, 64, 64, 64]> var_1995_cast_fp16 = mul(x = reshape_125_cast_fp16, y = var_1994_cast_fp16)[name = tensor<string, []>("op_1995_cast_fp16")];
            tensor<fp16, [1, 64, 64, 64]> input_283_cast_fp16 = add(x = var_1995_cast_fp16, y = var_1991_cast_fp16_1)[name = tensor<string, []>("input_283_cast_fp16")];
            tensor<fp16, [1, 64, 64, 64]> input_285_cast_fp16 = silu(x = input_283_cast_fp16)[name = tensor<string, []>("input_285_cast_fp16")];
            tensor<int32, [2]> var_2000 = const()[name = tensor<string, []>("op_2000"), val = tensor<int32, [2]>([1, 1])];
            tensor<int32, [2]> var_2002 = const()[name = tensor<string, []>("op_2002"), val = tensor<int32, [2]>([1, 1])];
            tensor<string, []> x_215_pad_type_0 = const()[name = tensor<string, []>("x_215_pad_type_0"), val = tensor<string, []>("custom")];
            tensor<int32, [4]> x_215_pad_0 = const()[name = tensor<string, []>("x_215_pad_0"), val = tensor<int32, [4]>([1, 1, 1, 1])];
            tensor<fp16, [32, 64, 3, 3]> inner_model_unet_u_blocks_3_resblocks_0_conv1_weight_to_fp16 = const()[name = tensor<string, []>("inner_model_unet_u_blocks_3_resblocks_0_conv1_weight_to_fp16"), val = tensor<fp16, [32, 64, 3, 3]>(BLOBFILE(path = tensor<string, []>("@model_path/weights/weight.bin"), offset = tensor<uint64, []>(40757056)))];
            tensor<fp16, [32]> inner_model_unet_u_blocks_3_resblocks_0_conv1_bias_to_fp16 = const()[name = tensor<string, []>("inner_model_unet_u_blocks_3_resblocks_0_conv1_bias_to_fp16"), val = tensor<fp16, [32]>(BLOBFILE(path = tensor<string, []>("@model_path/weights/weight.bin"), offset = tensor<uint64, []>(40793984)))];
            tensor<fp16, [1, 32, 64, 64]> x_215_cast_fp16 = conv(bias = inner_model_unet_u_blocks_3_resblocks_0_conv1_bias_to_fp16, dilations = var_2002, groups = var_85, pad = x_215_pad_0, pad_type = x_215_pad_type_0, strides = var_2000, weight = inner_model_unet_u_blocks_3_resblocks_0_conv1_weight_to_fp16, x = input_285_cast_fp16)[name = tensor<string, []>("x_215_cast_fp16")];
            tensor<int32, [5]> reshape_126_shape_0 = const()[name = tensor<string, []>("reshape_126_shape_0"), val = tensor<int32, [5]>([1, 1, 32, 64, 64])];
            tensor<fp16, [1, 1, 32, 64, 64]> reshape_126_cast_fp16 = reshape(shape = reshape_126_shape_0, x = x_215_cast_fp16)[name = tensor<string, []>("reshape_126_cast_fp16")];
            tensor<int32, [3]> reduce_mean_153_axes_0 = const()[name = tensor<string, []>("reduce_mean_153_axes_0"), val = tensor<int32, [3]>([2, 3, 4])];
            tensor<bool, []> reduce_mean_153_keep_dims_0 = const()[name = tensor<string, []>("reduce_mean_153_keep_dims_0"), val = tensor<bool, []>(true)];
            tensor<fp16, [1, 1, 1, 1, 1]> reduce_mean_153_cast_fp16 = reduce_mean(axes = reduce_mean_153_axes_0, keep_dims = reduce_mean_153_keep_dims_0, x = reshape_126_cast_fp16)[name = tensor<string, []>("reduce_mean_153_cast_fp16")];
            tensor<fp16, [1, 1, 32, 64, 64]> sub_102_cast_fp16 = sub(x = reshape_126_cast_fp16, y = reduce_mean_153_cast_fp16)[name = tensor<string, []>("sub_102_cast_fp16")];
            tensor<fp16, [1, 1, 32, 64, 64]> square_51_cast_fp16 = square(x = sub_102_cast_fp16)[name = tensor<string, []>("square_51_cast_fp16")];
            tensor<int32, [3]> reduce_mean_155_axes_0 = const()[name = tensor<string, []>("reduce_mean_155_axes_0"), val = tensor<int32, [3]>([2, 3, 4])];
            tensor<bool, []> reduce_mean_155_keep_dims_0 = const()[name = tensor<string, []>("reduce_mean_155_keep_dims_0"), val = tensor<bool, []>(true)];
            tensor<fp16, [1, 1, 1, 1, 1]> reduce_mean_155_cast_fp16 = reduce_mean(axes = reduce_mean_155_axes_0, keep_dims = reduce_mean_155_keep_dims_0, x = square_51_cast_fp16)[name = tensor<string, []>("reduce_mean_155_cast_fp16")];
            tensor<fp16, []> add_63_y_0_to_fp16 = const()[name = tensor<string, []>("add_63_y_0_to_fp16"), val = tensor<fp16, []>(0x1.5p-17)];
            tensor<fp16, [1, 1, 1, 1, 1]> add_63_cast_fp16 = add(x = reduce_mean_155_cast_fp16, y = add_63_y_0_to_fp16)[name = tensor<string, []>("add_63_cast_fp16")];
            tensor<fp16, [1, 1, 1, 1, 1]> sqrt_51_cast_fp16 = sqrt(x = add_63_cast_fp16)[name = tensor<string, []>("sqrt_51_cast_fp16")];
            tensor<fp16, [1, 1, 32, 64, 64]> real_div_51_cast_fp16 = real_div(x = sub_102_cast_fp16, y = sqrt_51_cast_fp16)[name = tensor<string, []>("real_div_51_cast_fp16")];
            tensor<int32, [4]> reshape_127_shape_0 = const()[name = tensor<string, []>("reshape_127_shape_0"), val = tensor<int32, [4]>([1, 32, 64, 64])];
            tensor<fp16, [1, 32, 64, 64]> reshape_127_cast_fp16 = reshape(shape = reshape_127_shape_0, x = real_div_51_cast_fp16)[name = tensor<string, []>("reshape_127_cast_fp16")];
            tensor<fp16, [64, 512]> inner_model_unet_u_blocks_3_resblocks_0_norm2_linear_weight_to_fp16 = const()[name = tensor<string, []>("inner_model_unet_u_blocks_3_resblocks_0_norm2_linear_weight_to_fp16"), val = tensor<fp16, [64, 512]>(BLOBFILE(path = tensor<string, []>("@model_path/weights/weight.bin"), offset = tensor<uint64, []>(40794112)))];
            tensor<fp16, [64]> inner_model_unet_u_blocks_3_resblocks_0_norm2_linear_bias_to_fp16 = const()[name = tensor<string, []>("inner_model_unet_u_blocks_3_resblocks_0_norm2_linear_bias_to_fp16"), val = tensor<fp16, [64]>(BLOBFILE(path = tensor<string, []>("@model_path/weights/weight.bin"), offset = tensor<uint64, []>(40859712)))];
            tensor<fp16, [1, 64]> linear_41_cast_fp16 = linear(bias = inner_model_unet_u_blocks_3_resblocks_0_norm2_linear_bias_to_fp16, weight = inner_model_unet_u_blocks_3_resblocks_0_norm2_linear_weight_to_fp16, x = linear_1_cast_fp16)[name = tensor<string, []>("linear_41_cast_fp16")];
            tensor<int32, [1]> var_2012_axes_0 = const()[name = tensor<string, []>("op_2012_axes_0"), val = tensor<int32, [1]>([2])];
            tensor<fp16, [1, 64, 1]> var_2012_cast_fp16 = expand_dims(axes = var_2012_axes_0, x = linear_41_cast_fp16)[name = tensor<string, []>("op_2012_cast_fp16")];
            tensor<int32, [1]> var_2013_axes_0 = const()[name = tensor<string, []>("op_2013_axes_0"), val = tensor<int32, [1]>([3])];
            tensor<fp16, [1, 64, 1, 1]> var_2013_cast_fp16 = expand_dims(axes = var_2013_axes_0, x = var_2012_cast_fp16)[name = tensor<string, []>("op_2013_cast_fp16")];
            tensor<int32, [2]> var_2014_split_sizes_0 = const()[name = tensor<string, []>("op_2014_split_sizes_0"), val = tensor<int32, [2]>([32, 32])];
            tensor<int32, []> var_2014_axis_0 = const()[name = tensor<string, []>("op_2014_axis_0"), val = tensor<int32, []>(1)];
            tensor<fp16, [1, 32, 1, 1]> var_2014_cast_fp16_0, tensor<fp16, [1, 32, 1, 1]> var_2014_cast_fp16_1 = split(axis = var_2014_axis_0, split_sizes = var_2014_split_sizes_0, x = var_2013_cast_fp16)[name = tensor<string, []>("op_2014_cast_fp16")];
            tensor<fp16, []> var_2016_promoted_to_fp16 = const()[name = tensor<string, []>("op_2016_promoted_to_fp16"), val = tensor<fp16, []>(0x1p+0)];
            tensor<fp16, [1, 32, 1, 1]> var_2017_cast_fp16 = add(x = var_2014_cast_fp16_0, y = var_2016_promoted_to_fp16)[name = tensor<string, []>("op_2017_cast_fp16")];
            tensor<fp16, [1, 32, 64, 64]> var_2018_cast_fp16 = mul(x = reshape_127_cast_fp16, y = var_2017_cast_fp16)[name = tensor<string, []>("op_2018_cast_fp16")];
            tensor<fp16, [1, 32, 64, 64]> input_287_cast_fp16 = add(x = var_2018_cast_fp16, y = var_2014_cast_fp16_1)[name = tensor<string, []>("input_287_cast_fp16")];
            tensor<fp16, [1, 32, 64, 64]> input_289_cast_fp16 = silu(x = input_287_cast_fp16)[name = tensor<string, []>("input_289_cast_fp16")];
            tensor<int32, [2]> var_2023 = const()[name = tensor<string, []>("op_2023"), val = tensor<int32, [2]>([1, 1])];
            tensor<int32, [2]> var_2025 = const()[name = tensor<string, []>("op_2025"), val = tensor<int32, [2]>([1, 1])];
            tensor<string, []> x_219_pad_type_0 = const()[name = tensor<string, []>("x_219_pad_type_0"), val = tensor<string, []>("custom")];
            tensor<int32, [4]> x_219_pad_0 = const()[name = tensor<string, []>("x_219_pad_0"), val = tensor<int32, [4]>([1, 1, 1, 1])];
            tensor<fp16, [32, 32, 3, 3]> inner_model_unet_u_blocks_3_resblocks_0_conv2_weight_to_fp16 = const()[name = tensor<string, []>("inner_model_unet_u_blocks_3_resblocks_0_conv2_weight_to_fp16"), val = tensor<fp16, [32, 32, 3, 3]>(BLOBFILE(path = tensor<string, []>("@model_path/weights/weight.bin"), offset = tensor<uint64, []>(40859904)))];
            tensor<fp16, [32]> inner_model_unet_u_blocks_3_resblocks_0_conv2_bias_to_fp16 = const()[name = tensor<string, []>("inner_model_unet_u_blocks_3_resblocks_0_conv2_bias_to_fp16"), val = tensor<fp16, [32]>(BLOBFILE(path = tensor<string, []>("@model_path/weights/weight.bin"), offset = tensor<uint64, []>(40878400)))];
            tensor<fp16, [1, 32, 64, 64]> x_219_cast_fp16 = conv(bias = inner_model_unet_u_blocks_3_resblocks_0_conv2_bias_to_fp16, dilations = var_2025, groups = var_85, pad = x_219_pad_0, pad_type = x_219_pad_type_0, strides = var_2023, weight = inner_model_unet_u_blocks_3_resblocks_0_conv2_weight_to_fp16, x = input_289_cast_fp16)[name = tensor<string, []>("x_219_cast_fp16")];
            tensor<fp16, [1, 32, 64, 64]> x_221_cast_fp16 = add(x = x_219_cast_fp16, y = r_25_cast_fp16)[name = tensor<string, []>("x_221_cast_fp16")];
            tensor<bool, []> input_291_interleave_0 = const()[name = tensor<string, []>("input_291_interleave_0"), val = tensor<bool, []>(false)];
            tensor<fp16, [1, 64, 64, 64]> input_291_cast_fp16 = concat(axis = var_85, interleave = input_291_interleave_0, values = (x_221_cast_fp16, x_13_cast_fp16))[name = tensor<string, []>("input_291_cast_fp16")];
            tensor<int32, [2]> var_2038 = const()[name = tensor<string, []>("op_2038"), val = tensor<int32, [2]>([1, 1])];
            tensor<int32, [2]> var_2040 = const()[name = tensor<string, []>("op_2040"), val = tensor<int32, [2]>([1, 1])];
            tensor<string, []> r_27_pad_type_0 = const()[name = tensor<string, []>("r_27_pad_type_0"), val = tensor<string, []>("custom")];
            tensor<int32, [4]> r_27_pad_0 = const()[name = tensor<string, []>("r_27_pad_0"), val = tensor<int32, [4]>([0, 0, 0, 0])];
            tensor<fp16, [32, 64, 1, 1]> inner_model_unet_u_blocks_3_resblocks_1_proj_weight_to_fp16 = const()[name = tensor<string, []>("inner_model_unet_u_blocks_3_resblocks_1_proj_weight_to_fp16"), val = tensor<fp16, [32, 64, 1, 1]>(BLOBFILE(path = tensor<string, []>("@model_path/weights/weight.bin"), offset = tensor<uint64, []>(40878528)))];
            tensor<fp16, [32]> inner_model_unet_u_blocks_3_resblocks_1_proj_bias_to_fp16 = const()[name = tensor<string, []>("inner_model_unet_u_blocks_3_resblocks_1_proj_bias_to_fp16"), val = tensor<fp16, [32]>(BLOBFILE(path = tensor<string, []>("@model_path/weights/weight.bin"), offset = tensor<uint64, []>(40882688)))];
            tensor<fp16, [1, 32, 64, 64]> r_27_cast_fp16 = conv(bias = inner_model_unet_u_blocks_3_resblocks_1_proj_bias_to_fp16, dilations = var_2040, groups = var_85, pad = r_27_pad_0, pad_type = r_27_pad_type_0, strides = var_2038, weight = inner_model_unet_u_blocks_3_resblocks_1_proj_weight_to_fp16, x = input_291_cast_fp16)[name = tensor<string, []>("r_27_cast_fp16")];
            tensor<int32, [5]> reshape_128_shape_0 = const()[name = tensor<string, []>("reshape_128_shape_0"), val = tensor<int32, [5]>([1, 2, 32, 64, 64])];
            tensor<fp16, [1, 2, 32, 64, 64]> reshape_128_cast_fp16 = reshape(shape = reshape_128_shape_0, x = input_291_cast_fp16)[name = tensor<string, []>("reshape_128_cast_fp16")];
            tensor<int32, [3]> reduce_mean_156_axes_0 = const()[name = tensor<string, []>("reduce_mean_156_axes_0"), val = tensor<int32, [3]>([2, 3, 4])];
            tensor<bool, []> reduce_mean_156_keep_dims_0 = const()[name = tensor<string, []>("reduce_mean_156_keep_dims_0"), val = tensor<bool, []>(true)];
            tensor<fp16, [1, 2, 1, 1, 1]> reduce_mean_156_cast_fp16 = reduce_mean(axes = reduce_mean_156_axes_0, keep_dims = reduce_mean_156_keep_dims_0, x = reshape_128_cast_fp16)[name = tensor<string, []>("reduce_mean_156_cast_fp16")];
            tensor<fp16, [1, 2, 32, 64, 64]> sub_104_cast_fp16 = sub(x = reshape_128_cast_fp16, y = reduce_mean_156_cast_fp16)[name = tensor<string, []>("sub_104_cast_fp16")];
            tensor<fp16, [1, 2, 32, 64, 64]> square_52_cast_fp16 = square(x = sub_104_cast_fp16)[name = tensor<string, []>("square_52_cast_fp16")];
            tensor<int32, [3]> reduce_mean_158_axes_0 = const()[name = tensor<string, []>("reduce_mean_158_axes_0"), val = tensor<int32, [3]>([2, 3, 4])];
            tensor<bool, []> reduce_mean_158_keep_dims_0 = const()[name = tensor<string, []>("reduce_mean_158_keep_dims_0"), val = tensor<bool, []>(true)];
            tensor<fp16, [1, 2, 1, 1, 1]> reduce_mean_158_cast_fp16 = reduce_mean(axes = reduce_mean_158_axes_0, keep_dims = reduce_mean_158_keep_dims_0, x = square_52_cast_fp16)[name = tensor<string, []>("reduce_mean_158_cast_fp16")];
            tensor<fp16, []> add_64_y_0_to_fp16 = const()[name = tensor<string, []>("add_64_y_0_to_fp16"), val = tensor<fp16, []>(0x1.5p-17)];
            tensor<fp16, [1, 2, 1, 1, 1]> add_64_cast_fp16 = add(x = reduce_mean_158_cast_fp16, y = add_64_y_0_to_fp16)[name = tensor<string, []>("add_64_cast_fp16")];
            tensor<fp16, [1, 2, 1, 1, 1]> sqrt_52_cast_fp16 = sqrt(x = add_64_cast_fp16)[name = tensor<string, []>("sqrt_52_cast_fp16")];
            tensor<fp16, [1, 2, 32, 64, 64]> real_div_52_cast_fp16 = real_div(x = sub_104_cast_fp16, y = sqrt_52_cast_fp16)[name = tensor<string, []>("real_div_52_cast_fp16")];
            tensor<int32, [4]> reshape_129_shape_0 = const()[name = tensor<string, []>("reshape_129_shape_0"), val = tensor<int32, [4]>([1, 64, 64, 64])];
            tensor<fp16, [1, 64, 64, 64]> reshape_129_cast_fp16 = reshape(shape = reshape_129_shape_0, x = real_div_52_cast_fp16)[name = tensor<string, []>("reshape_129_cast_fp16")];
            tensor<fp16, [128, 512]> inner_model_unet_u_blocks_3_resblocks_1_norm1_linear_weight_to_fp16 = const()[name = tensor<string, []>("inner_model_unet_u_blocks_3_resblocks_1_norm1_linear_weight_to_fp16"), val = tensor<fp16, [128, 512]>(BLOBFILE(path = tensor<string, []>("@model_path/weights/weight.bin"), offset = tensor<uint64, []>(40882816)))];
            tensor<fp16, [128]> inner_model_unet_u_blocks_3_resblocks_1_norm1_linear_bias_to_fp16 = const()[name = tensor<string, []>("inner_model_unet_u_blocks_3_resblocks_1_norm1_linear_bias_to_fp16"), val = tensor<fp16, [128]>(BLOBFILE(path = tensor<string, []>("@model_path/weights/weight.bin"), offset = tensor<uint64, []>(41013952)))];
            tensor<fp16, [1, 128]> linear_42_cast_fp16 = linear(bias = inner_model_unet_u_blocks_3_resblocks_1_norm1_linear_bias_to_fp16, weight = inner_model_unet_u_blocks_3_resblocks_1_norm1_linear_weight_to_fp16, x = linear_1_cast_fp16)[name = tensor<string, []>("linear_42_cast_fp16")];
            tensor<int32, [1]> var_2050_axes_0 = const()[name = tensor<string, []>("op_2050_axes_0"), val = tensor<int32, [1]>([2])];
            tensor<fp16, [1, 128, 1]> var_2050_cast_fp16 = expand_dims(axes = var_2050_axes_0, x = linear_42_cast_fp16)[name = tensor<string, []>("op_2050_cast_fp16")];
            tensor<int32, [1]> var_2051_axes_0 = const()[name = tensor<string, []>("op_2051_axes_0"), val = tensor<int32, [1]>([3])];
            tensor<fp16, [1, 128, 1, 1]> var_2051_cast_fp16 = expand_dims(axes = var_2051_axes_0, x = var_2050_cast_fp16)[name = tensor<string, []>("op_2051_cast_fp16")];
            tensor<int32, [2]> var_2052_split_sizes_0 = const()[name = tensor<string, []>("op_2052_split_sizes_0"), val = tensor<int32, [2]>([64, 64])];
            tensor<int32, []> var_2052_axis_0 = const()[name = tensor<string, []>("op_2052_axis_0"), val = tensor<int32, []>(1)];
            tensor<fp16, [1, 64, 1, 1]> var_2052_cast_fp16_0, tensor<fp16, [1, 64, 1, 1]> var_2052_cast_fp16_1 = split(axis = var_2052_axis_0, split_sizes = var_2052_split_sizes_0, x = var_2051_cast_fp16)[name = tensor<string, []>("op_2052_cast_fp16")];
            tensor<fp16, []> var_2054_promoted_to_fp16 = const()[name = tensor<string, []>("op_2054_promoted_to_fp16"), val = tensor<fp16, []>(0x1p+0)];
            tensor<fp16, [1, 64, 1, 1]> var_2055_cast_fp16 = add(x = var_2052_cast_fp16_0, y = var_2054_promoted_to_fp16)[name = tensor<string, []>("op_2055_cast_fp16")];
            tensor<fp16, [1, 64, 64, 64]> var_2056_cast_fp16 = mul(x = reshape_129_cast_fp16, y = var_2055_cast_fp16)[name = tensor<string, []>("op_2056_cast_fp16")];
            tensor<fp16, [1, 64, 64, 64]> input_293_cast_fp16 = add(x = var_2056_cast_fp16, y = var_2052_cast_fp16_1)[name = tensor<string, []>("input_293_cast_fp16")];
            tensor<fp16, [1, 64, 64, 64]> input_295_cast_fp16 = silu(x = input_293_cast_fp16)[name = tensor<string, []>("input_295_cast_fp16")];
            tensor<int32, [2]> var_2061 = const()[name = tensor<string, []>("op_2061"), val = tensor<int32, [2]>([1, 1])];
            tensor<int32, [2]> var_2063 = const()[name = tensor<string, []>("op_2063"), val = tensor<int32, [2]>([1, 1])];
            tensor<string, []> x_225_pad_type_0 = const()[name = tensor<string, []>("x_225_pad_type_0"), val = tensor<string, []>("custom")];
            tensor<int32, [4]> x_225_pad_0 = const()[name = tensor<string, []>("x_225_pad_0"), val = tensor<int32, [4]>([1, 1, 1, 1])];
            tensor<fp16, [32, 64, 3, 3]> inner_model_unet_u_blocks_3_resblocks_1_conv1_weight_to_fp16 = const()[name = tensor<string, []>("inner_model_unet_u_blocks_3_resblocks_1_conv1_weight_to_fp16"), val = tensor<fp16, [32, 64, 3, 3]>(BLOBFILE(path = tensor<string, []>("@model_path/weights/weight.bin"), offset = tensor<uint64, []>(41014272)))];
            tensor<fp16, [32]> inner_model_unet_u_blocks_3_resblocks_1_conv1_bias_to_fp16 = const()[name = tensor<string, []>("inner_model_unet_u_blocks_3_resblocks_1_conv1_bias_to_fp16"), val = tensor<fp16, [32]>(BLOBFILE(path = tensor<string, []>("@model_path/weights/weight.bin"), offset = tensor<uint64, []>(41051200)))];
            tensor<fp16, [1, 32, 64, 64]> x_225_cast_fp16 = conv(bias = inner_model_unet_u_blocks_3_resblocks_1_conv1_bias_to_fp16, dilations = var_2063, groups = var_85, pad = x_225_pad_0, pad_type = x_225_pad_type_0, strides = var_2061, weight = inner_model_unet_u_blocks_3_resblocks_1_conv1_weight_to_fp16, x = input_295_cast_fp16)[name = tensor<string, []>("x_225_cast_fp16")];
            tensor<int32, [5]> reshape_130_shape_0 = const()[name = tensor<string, []>("reshape_130_shape_0"), val = tensor<int32, [5]>([1, 1, 32, 64, 64])];
            tensor<fp16, [1, 1, 32, 64, 64]> reshape_130_cast_fp16 = reshape(shape = reshape_130_shape_0, x = x_225_cast_fp16)[name = tensor<string, []>("reshape_130_cast_fp16")];
            tensor<int32, [3]> reduce_mean_159_axes_0 = const()[name = tensor<string, []>("reduce_mean_159_axes_0"), val = tensor<int32, [3]>([2, 3, 4])];
            tensor<bool, []> reduce_mean_159_keep_dims_0 = const()[name = tensor<string, []>("reduce_mean_159_keep_dims_0"), val = tensor<bool, []>(true)];
            tensor<fp16, [1, 1, 1, 1, 1]> reduce_mean_159_cast_fp16 = reduce_mean(axes = reduce_mean_159_axes_0, keep_dims = reduce_mean_159_keep_dims_0, x = reshape_130_cast_fp16)[name = tensor<string, []>("reduce_mean_159_cast_fp16")];
            tensor<fp16, [1, 1, 32, 64, 64]> sub_106_cast_fp16 = sub(x = reshape_130_cast_fp16, y = reduce_mean_159_cast_fp16)[name = tensor<string, []>("sub_106_cast_fp16")];
            tensor<fp16, [1, 1, 32, 64, 64]> square_53_cast_fp16 = square(x = sub_106_cast_fp16)[name = tensor<string, []>("square_53_cast_fp16")];
            tensor<int32, [3]> reduce_mean_161_axes_0 = const()[name = tensor<string, []>("reduce_mean_161_axes_0"), val = tensor<int32, [3]>([2, 3, 4])];
            tensor<bool, []> reduce_mean_161_keep_dims_0 = const()[name = tensor<string, []>("reduce_mean_161_keep_dims_0"), val = tensor<bool, []>(true)];
            tensor<fp16, [1, 1, 1, 1, 1]> reduce_mean_161_cast_fp16 = reduce_mean(axes = reduce_mean_161_axes_0, keep_dims = reduce_mean_161_keep_dims_0, x = square_53_cast_fp16)[name = tensor<string, []>("reduce_mean_161_cast_fp16")];
            tensor<fp16, []> add_65_y_0_to_fp16 = const()[name = tensor<string, []>("add_65_y_0_to_fp16"), val = tensor<fp16, []>(0x1.5p-17)];
            tensor<fp16, [1, 1, 1, 1, 1]> add_65_cast_fp16 = add(x = reduce_mean_161_cast_fp16, y = add_65_y_0_to_fp16)[name = tensor<string, []>("add_65_cast_fp16")];
            tensor<fp16, [1, 1, 1, 1, 1]> sqrt_53_cast_fp16 = sqrt(x = add_65_cast_fp16)[name = tensor<string, []>("sqrt_53_cast_fp16")];
            tensor<fp16, [1, 1, 32, 64, 64]> real_div_53_cast_fp16 = real_div(x = sub_106_cast_fp16, y = sqrt_53_cast_fp16)[name = tensor<string, []>("real_div_53_cast_fp16")];
            tensor<int32, [4]> reshape_131_shape_0 = const()[name = tensor<string, []>("reshape_131_shape_0"), val = tensor<int32, [4]>([1, 32, 64, 64])];
            tensor<fp16, [1, 32, 64, 64]> reshape_131_cast_fp16 = reshape(shape = reshape_131_shape_0, x = real_div_53_cast_fp16)[name = tensor<string, []>("reshape_131_cast_fp16")];
            tensor<fp16, [64, 512]> inner_model_unet_u_blocks_3_resblocks_1_norm2_linear_weight_to_fp16 = const()[name = tensor<string, []>("inner_model_unet_u_blocks_3_resblocks_1_norm2_linear_weight_to_fp16"), val = tensor<fp16, [64, 512]>(BLOBFILE(path = tensor<string, []>("@model_path/weights/weight.bin"), offset = tensor<uint64, []>(41051328)))];
            tensor<fp16, [64]> inner_model_unet_u_blocks_3_resblocks_1_norm2_linear_bias_to_fp16 = const()[name = tensor<string, []>("inner_model_unet_u_blocks_3_resblocks_1_norm2_linear_bias_to_fp16"), val = tensor<fp16, [64]>(BLOBFILE(path = tensor<string, []>("@model_path/weights/weight.bin"), offset = tensor<uint64, []>(41116928)))];
            tensor<fp16, [1, 64]> linear_43_cast_fp16 = linear(bias = inner_model_unet_u_blocks_3_resblocks_1_norm2_linear_bias_to_fp16, weight = inner_model_unet_u_blocks_3_resblocks_1_norm2_linear_weight_to_fp16, x = linear_1_cast_fp16)[name = tensor<string, []>("linear_43_cast_fp16")];
            tensor<int32, [1]> var_2073_axes_0 = const()[name = tensor<string, []>("op_2073_axes_0"), val = tensor<int32, [1]>([2])];
            tensor<fp16, [1, 64, 1]> var_2073_cast_fp16 = expand_dims(axes = var_2073_axes_0, x = linear_43_cast_fp16)[name = tensor<string, []>("op_2073_cast_fp16")];
            tensor<int32, [1]> var_2074_axes_0 = const()[name = tensor<string, []>("op_2074_axes_0"), val = tensor<int32, [1]>([3])];
            tensor<fp16, [1, 64, 1, 1]> var_2074_cast_fp16 = expand_dims(axes = var_2074_axes_0, x = var_2073_cast_fp16)[name = tensor<string, []>("op_2074_cast_fp16")];
            tensor<int32, [2]> var_2075_split_sizes_0 = const()[name = tensor<string, []>("op_2075_split_sizes_0"), val = tensor<int32, [2]>([32, 32])];
            tensor<int32, []> var_2075_axis_0 = const()[name = tensor<string, []>("op_2075_axis_0"), val = tensor<int32, []>(1)];
            tensor<fp16, [1, 32, 1, 1]> var_2075_cast_fp16_0, tensor<fp16, [1, 32, 1, 1]> var_2075_cast_fp16_1 = split(axis = var_2075_axis_0, split_sizes = var_2075_split_sizes_0, x = var_2074_cast_fp16)[name = tensor<string, []>("op_2075_cast_fp16")];
            tensor<fp16, []> var_2077_promoted_to_fp16 = const()[name = tensor<string, []>("op_2077_promoted_to_fp16"), val = tensor<fp16, []>(0x1p+0)];
            tensor<fp16, [1, 32, 1, 1]> var_2078_cast_fp16 = add(x = var_2075_cast_fp16_0, y = var_2077_promoted_to_fp16)[name = tensor<string, []>("op_2078_cast_fp16")];
            tensor<fp16, [1, 32, 64, 64]> var_2079_cast_fp16 = mul(x = reshape_131_cast_fp16, y = var_2078_cast_fp16)[name = tensor<string, []>("op_2079_cast_fp16")];
            tensor<fp16, [1, 32, 64, 64]> input_297_cast_fp16 = add(x = var_2079_cast_fp16, y = var_2075_cast_fp16_1)[name = tensor<string, []>("input_297_cast_fp16")];
            tensor<fp16, [1, 32, 64, 64]> input_299_cast_fp16 = silu(x = input_297_cast_fp16)[name = tensor<string, []>("input_299_cast_fp16")];
            tensor<int32, [2]> var_2084 = const()[name = tensor<string, []>("op_2084"), val = tensor<int32, [2]>([1, 1])];
            tensor<int32, [2]> var_2086 = const()[name = tensor<string, []>("op_2086"), val = tensor<int32, [2]>([1, 1])];
            tensor<string, []> x_229_pad_type_0 = const()[name = tensor<string, []>("x_229_pad_type_0"), val = tensor<string, []>("custom")];
            tensor<int32, [4]> x_229_pad_0 = const()[name = tensor<string, []>("x_229_pad_0"), val = tensor<int32, [4]>([1, 1, 1, 1])];
            tensor<fp16, [32, 32, 3, 3]> inner_model_unet_u_blocks_3_resblocks_1_conv2_weight_to_fp16 = const()[name = tensor<string, []>("inner_model_unet_u_blocks_3_resblocks_1_conv2_weight_to_fp16"), val = tensor<fp16, [32, 32, 3, 3]>(BLOBFILE(path = tensor<string, []>("@model_path/weights/weight.bin"), offset = tensor<uint64, []>(41117120)))];
            tensor<fp16, [32]> inner_model_unet_u_blocks_3_resblocks_1_conv2_bias_to_fp16 = const()[name = tensor<string, []>("inner_model_unet_u_blocks_3_resblocks_1_conv2_bias_to_fp16"), val = tensor<fp16, [32]>(BLOBFILE(path = tensor<string, []>("@model_path/weights/weight.bin"), offset = tensor<uint64, []>(41135616)))];
            tensor<fp16, [1, 32, 64, 64]> x_229_cast_fp16 = conv(bias = inner_model_unet_u_blocks_3_resblocks_1_conv2_bias_to_fp16, dilations = var_2086, groups = var_85, pad = x_229_pad_0, pad_type = x_229_pad_type_0, strides = var_2084, weight = inner_model_unet_u_blocks_3_resblocks_1_conv2_weight_to_fp16, x = input_299_cast_fp16)[name = tensor<string, []>("x_229_cast_fp16")];
            tensor<fp16, [1, 32, 64, 64]> x_231_cast_fp16 = add(x = x_229_cast_fp16, y = r_27_cast_fp16)[name = tensor<string, []>("x_231_cast_fp16")];
            tensor<bool, []> input_301_interleave_0 = const()[name = tensor<string, []>("input_301_interleave_0"), val = tensor<bool, []>(false)];
            tensor<fp16, [1, 64, 64, 64]> input_301_cast_fp16 = concat(axis = var_85, interleave = input_301_interleave_0, values = (x_231_cast_fp16, x_1_cast_fp16))[name = tensor<string, []>("input_301_cast_fp16")];
            tensor<int32, [2]> var_2099 = const()[name = tensor<string, []>("op_2099"), val = tensor<int32, [2]>([1, 1])];
            tensor<int32, [2]> var_2101 = const()[name = tensor<string, []>("op_2101"), val = tensor<int32, [2]>([1, 1])];
            tensor<string, []> r_pad_type_0 = const()[name = tensor<string, []>("r_pad_type_0"), val = tensor<string, []>("custom")];
            tensor<int32, [4]> r_pad_0 = const()[name = tensor<string, []>("r_pad_0"), val = tensor<int32, [4]>([0, 0, 0, 0])];
            tensor<fp16, [32, 64, 1, 1]> inner_model_unet_u_blocks_3_resblocks_2_proj_weight_to_fp16 = const()[name = tensor<string, []>("inner_model_unet_u_blocks_3_resblocks_2_proj_weight_to_fp16"), val = tensor<fp16, [32, 64, 1, 1]>(BLOBFILE(path = tensor<string, []>("@model_path/weights/weight.bin"), offset = tensor<uint64, []>(41135744)))];
            tensor<fp16, [32]> inner_model_unet_u_blocks_3_resblocks_2_proj_bias_to_fp16 = const()[name = tensor<string, []>("inner_model_unet_u_blocks_3_resblocks_2_proj_bias_to_fp16"), val = tensor<fp16, [32]>(BLOBFILE(path = tensor<string, []>("@model_path/weights/weight.bin"), offset = tensor<uint64, []>(41139904)))];
            tensor<fp16, [1, 32, 64, 64]> r_cast_fp16 = conv(bias = inner_model_unet_u_blocks_3_resblocks_2_proj_bias_to_fp16, dilations = var_2101, groups = var_85, pad = r_pad_0, pad_type = r_pad_type_0, strides = var_2099, weight = inner_model_unet_u_blocks_3_resblocks_2_proj_weight_to_fp16, x = input_301_cast_fp16)[name = tensor<string, []>("r_cast_fp16")];
            tensor<int32, [5]> reshape_132_shape_0 = const()[name = tensor<string, []>("reshape_132_shape_0"), val = tensor<int32, [5]>([1, 2, 32, 64, 64])];
            tensor<fp16, [1, 2, 32, 64, 64]> reshape_132_cast_fp16 = reshape(shape = reshape_132_shape_0, x = input_301_cast_fp16)[name = tensor<string, []>("reshape_132_cast_fp16")];
            tensor<int32, [3]> reduce_mean_162_axes_0 = const()[name = tensor<string, []>("reduce_mean_162_axes_0"), val = tensor<int32, [3]>([2, 3, 4])];
            tensor<bool, []> reduce_mean_162_keep_dims_0 = const()[name = tensor<string, []>("reduce_mean_162_keep_dims_0"), val = tensor<bool, []>(true)];
            tensor<fp16, [1, 2, 1, 1, 1]> reduce_mean_162_cast_fp16 = reduce_mean(axes = reduce_mean_162_axes_0, keep_dims = reduce_mean_162_keep_dims_0, x = reshape_132_cast_fp16)[name = tensor<string, []>("reduce_mean_162_cast_fp16")];
            tensor<fp16, [1, 2, 32, 64, 64]> sub_108_cast_fp16 = sub(x = reshape_132_cast_fp16, y = reduce_mean_162_cast_fp16)[name = tensor<string, []>("sub_108_cast_fp16")];
            tensor<fp16, [1, 2, 32, 64, 64]> square_54_cast_fp16 = square(x = sub_108_cast_fp16)[name = tensor<string, []>("square_54_cast_fp16")];
            tensor<int32, [3]> reduce_mean_164_axes_0 = const()[name = tensor<string, []>("reduce_mean_164_axes_0"), val = tensor<int32, [3]>([2, 3, 4])];
            tensor<bool, []> reduce_mean_164_keep_dims_0 = const()[name = tensor<string, []>("reduce_mean_164_keep_dims_0"), val = tensor<bool, []>(true)];
            tensor<fp16, [1, 2, 1, 1, 1]> reduce_mean_164_cast_fp16 = reduce_mean(axes = reduce_mean_164_axes_0, keep_dims = reduce_mean_164_keep_dims_0, x = square_54_cast_fp16)[name = tensor<string, []>("reduce_mean_164_cast_fp16")];
            tensor<fp16, []> add_66_y_0_to_fp16 = const()[name = tensor<string, []>("add_66_y_0_to_fp16"), val = tensor<fp16, []>(0x1.5p-17)];
            tensor<fp16, [1, 2, 1, 1, 1]> add_66_cast_fp16 = add(x = reduce_mean_164_cast_fp16, y = add_66_y_0_to_fp16)[name = tensor<string, []>("add_66_cast_fp16")];
            tensor<fp16, [1, 2, 1, 1, 1]> sqrt_54_cast_fp16 = sqrt(x = add_66_cast_fp16)[name = tensor<string, []>("sqrt_54_cast_fp16")];
            tensor<fp16, [1, 2, 32, 64, 64]> real_div_54_cast_fp16 = real_div(x = sub_108_cast_fp16, y = sqrt_54_cast_fp16)[name = tensor<string, []>("real_div_54_cast_fp16")];
            tensor<int32, [4]> reshape_133_shape_0 = const()[name = tensor<string, []>("reshape_133_shape_0"), val = tensor<int32, [4]>([1, 64, 64, 64])];
            tensor<fp16, [1, 64, 64, 64]> reshape_133_cast_fp16 = reshape(shape = reshape_133_shape_0, x = real_div_54_cast_fp16)[name = tensor<string, []>("reshape_133_cast_fp16")];
            tensor<fp16, [128, 512]> inner_model_unet_u_blocks_3_resblocks_2_norm1_linear_weight_to_fp16 = const()[name = tensor<string, []>("inner_model_unet_u_blocks_3_resblocks_2_norm1_linear_weight_to_fp16"), val = tensor<fp16, [128, 512]>(BLOBFILE(path = tensor<string, []>("@model_path/weights/weight.bin"), offset = tensor<uint64, []>(41140032)))];
            tensor<fp16, [128]> inner_model_unet_u_blocks_3_resblocks_2_norm1_linear_bias_to_fp16 = const()[name = tensor<string, []>("inner_model_unet_u_blocks_3_resblocks_2_norm1_linear_bias_to_fp16"), val = tensor<fp16, [128]>(BLOBFILE(path = tensor<string, []>("@model_path/weights/weight.bin"), offset = tensor<uint64, []>(41271168)))];
            tensor<fp16, [1, 128]> linear_44_cast_fp16 = linear(bias = inner_model_unet_u_blocks_3_resblocks_2_norm1_linear_bias_to_fp16, weight = inner_model_unet_u_blocks_3_resblocks_2_norm1_linear_weight_to_fp16, x = linear_1_cast_fp16)[name = tensor<string, []>("linear_44_cast_fp16")];
            tensor<int32, [1]> var_2111_axes_0 = const()[name = tensor<string, []>("op_2111_axes_0"), val = tensor<int32, [1]>([2])];
            tensor<fp16, [1, 128, 1]> var_2111_cast_fp16 = expand_dims(axes = var_2111_axes_0, x = linear_44_cast_fp16)[name = tensor<string, []>("op_2111_cast_fp16")];
            tensor<int32, [1]> var_2112_axes_0 = const()[name = tensor<string, []>("op_2112_axes_0"), val = tensor<int32, [1]>([3])];
            tensor<fp16, [1, 128, 1, 1]> var_2112_cast_fp16 = expand_dims(axes = var_2112_axes_0, x = var_2111_cast_fp16)[name = tensor<string, []>("op_2112_cast_fp16")];
            tensor<int32, [2]> var_2113_split_sizes_0 = const()[name = tensor<string, []>("op_2113_split_sizes_0"), val = tensor<int32, [2]>([64, 64])];
            tensor<int32, []> var_2113_axis_0 = const()[name = tensor<string, []>("op_2113_axis_0"), val = tensor<int32, []>(1)];
            tensor<fp16, [1, 64, 1, 1]> var_2113_cast_fp16_0, tensor<fp16, [1, 64, 1, 1]> var_2113_cast_fp16_1 = split(axis = var_2113_axis_0, split_sizes = var_2113_split_sizes_0, x = var_2112_cast_fp16)[name = tensor<string, []>("op_2113_cast_fp16")];
            tensor<fp16, []> var_2115_promoted_to_fp16 = const()[name = tensor<string, []>("op_2115_promoted_to_fp16"), val = tensor<fp16, []>(0x1p+0)];
            tensor<fp16, [1, 64, 1, 1]> var_2116_cast_fp16 = add(x = var_2113_cast_fp16_0, y = var_2115_promoted_to_fp16)[name = tensor<string, []>("op_2116_cast_fp16")];
            tensor<fp16, [1, 64, 64, 64]> var_2117_cast_fp16 = mul(x = reshape_133_cast_fp16, y = var_2116_cast_fp16)[name = tensor<string, []>("op_2117_cast_fp16")];
            tensor<fp16, [1, 64, 64, 64]> input_303_cast_fp16 = add(x = var_2117_cast_fp16, y = var_2113_cast_fp16_1)[name = tensor<string, []>("input_303_cast_fp16")];
            tensor<fp16, [1, 64, 64, 64]> input_305_cast_fp16 = silu(x = input_303_cast_fp16)[name = tensor<string, []>("input_305_cast_fp16")];
            tensor<int32, [2]> var_2122 = const()[name = tensor<string, []>("op_2122"), val = tensor<int32, [2]>([1, 1])];
            tensor<int32, [2]> var_2124 = const()[name = tensor<string, []>("op_2124"), val = tensor<int32, [2]>([1, 1])];
            tensor<string, []> x_235_pad_type_0 = const()[name = tensor<string, []>("x_235_pad_type_0"), val = tensor<string, []>("custom")];
            tensor<int32, [4]> x_235_pad_0 = const()[name = tensor<string, []>("x_235_pad_0"), val = tensor<int32, [4]>([1, 1, 1, 1])];
            tensor<fp16, [32, 64, 3, 3]> inner_model_unet_u_blocks_3_resblocks_2_conv1_weight_to_fp16 = const()[name = tensor<string, []>("inner_model_unet_u_blocks_3_resblocks_2_conv1_weight_to_fp16"), val = tensor<fp16, [32, 64, 3, 3]>(BLOBFILE(path = tensor<string, []>("@model_path/weights/weight.bin"), offset = tensor<uint64, []>(41271488)))];
            tensor<fp16, [32]> inner_model_unet_u_blocks_3_resblocks_2_conv1_bias_to_fp16 = const()[name = tensor<string, []>("inner_model_unet_u_blocks_3_resblocks_2_conv1_bias_to_fp16"), val = tensor<fp16, [32]>(BLOBFILE(path = tensor<string, []>("@model_path/weights/weight.bin"), offset = tensor<uint64, []>(41308416)))];
            tensor<fp16, [1, 32, 64, 64]> x_235_cast_fp16 = conv(bias = inner_model_unet_u_blocks_3_resblocks_2_conv1_bias_to_fp16, dilations = var_2124, groups = var_85, pad = x_235_pad_0, pad_type = x_235_pad_type_0, strides = var_2122, weight = inner_model_unet_u_blocks_3_resblocks_2_conv1_weight_to_fp16, x = input_305_cast_fp16)[name = tensor<string, []>("x_235_cast_fp16")];
            tensor<int32, [5]> reshape_134_shape_0 = const()[name = tensor<string, []>("reshape_134_shape_0"), val = tensor<int32, [5]>([1, 1, 32, 64, 64])];
            tensor<fp16, [1, 1, 32, 64, 64]> reshape_134_cast_fp16 = reshape(shape = reshape_134_shape_0, x = x_235_cast_fp16)[name = tensor<string, []>("reshape_134_cast_fp16")];
            tensor<int32, [3]> reduce_mean_165_axes_0 = const()[name = tensor<string, []>("reduce_mean_165_axes_0"), val = tensor<int32, [3]>([2, 3, 4])];
            tensor<bool, []> reduce_mean_165_keep_dims_0 = const()[name = tensor<string, []>("reduce_mean_165_keep_dims_0"), val = tensor<bool, []>(true)];
            tensor<fp16, [1, 1, 1, 1, 1]> reduce_mean_165_cast_fp16 = reduce_mean(axes = reduce_mean_165_axes_0, keep_dims = reduce_mean_165_keep_dims_0, x = reshape_134_cast_fp16)[name = tensor<string, []>("reduce_mean_165_cast_fp16")];
            tensor<fp16, [1, 1, 32, 64, 64]> sub_110_cast_fp16 = sub(x = reshape_134_cast_fp16, y = reduce_mean_165_cast_fp16)[name = tensor<string, []>("sub_110_cast_fp16")];
            tensor<fp16, [1, 1, 32, 64, 64]> square_55_cast_fp16 = square(x = sub_110_cast_fp16)[name = tensor<string, []>("square_55_cast_fp16")];
            tensor<int32, [3]> reduce_mean_167_axes_0 = const()[name = tensor<string, []>("reduce_mean_167_axes_0"), val = tensor<int32, [3]>([2, 3, 4])];
            tensor<bool, []> reduce_mean_167_keep_dims_0 = const()[name = tensor<string, []>("reduce_mean_167_keep_dims_0"), val = tensor<bool, []>(true)];
            tensor<fp16, [1, 1, 1, 1, 1]> reduce_mean_167_cast_fp16 = reduce_mean(axes = reduce_mean_167_axes_0, keep_dims = reduce_mean_167_keep_dims_0, x = square_55_cast_fp16)[name = tensor<string, []>("reduce_mean_167_cast_fp16")];
            tensor<fp16, []> add_67_y_0_to_fp16 = const()[name = tensor<string, []>("add_67_y_0_to_fp16"), val = tensor<fp16, []>(0x1.5p-17)];
            tensor<fp16, [1, 1, 1, 1, 1]> add_67_cast_fp16 = add(x = reduce_mean_167_cast_fp16, y = add_67_y_0_to_fp16)[name = tensor<string, []>("add_67_cast_fp16")];
            tensor<fp16, [1, 1, 1, 1, 1]> sqrt_55_cast_fp16 = sqrt(x = add_67_cast_fp16)[name = tensor<string, []>("sqrt_55_cast_fp16")];
            tensor<fp16, [1, 1, 32, 64, 64]> real_div_55_cast_fp16 = real_div(x = sub_110_cast_fp16, y = sqrt_55_cast_fp16)[name = tensor<string, []>("real_div_55_cast_fp16")];
            tensor<int32, [4]> reshape_135_shape_0 = const()[name = tensor<string, []>("reshape_135_shape_0"), val = tensor<int32, [4]>([1, 32, 64, 64])];
            tensor<fp16, [1, 32, 64, 64]> reshape_135_cast_fp16 = reshape(shape = reshape_135_shape_0, x = real_div_55_cast_fp16)[name = tensor<string, []>("reshape_135_cast_fp16")];
            tensor<fp16, [64, 512]> inner_model_unet_u_blocks_3_resblocks_2_norm2_linear_weight_to_fp16 = const()[name = tensor<string, []>("inner_model_unet_u_blocks_3_resblocks_2_norm2_linear_weight_to_fp16"), val = tensor<fp16, [64, 512]>(BLOBFILE(path = tensor<string, []>("@model_path/weights/weight.bin"), offset = tensor<uint64, []>(41308544)))];
            tensor<fp16, [64]> inner_model_unet_u_blocks_3_resblocks_2_norm2_linear_bias_to_fp16 = const()[name = tensor<string, []>("inner_model_unet_u_blocks_3_resblocks_2_norm2_linear_bias_to_fp16"), val = tensor<fp16, [64]>(BLOBFILE(path = tensor<string, []>("@model_path/weights/weight.bin"), offset = tensor<uint64, []>(41374144)))];
            tensor<fp16, [1, 64]> linear_45_cast_fp16 = linear(bias = inner_model_unet_u_blocks_3_resblocks_2_norm2_linear_bias_to_fp16, weight = inner_model_unet_u_blocks_3_resblocks_2_norm2_linear_weight_to_fp16, x = linear_1_cast_fp16)[name = tensor<string, []>("linear_45_cast_fp16")];
            tensor<int32, [1]> var_2134_axes_0 = const()[name = tensor<string, []>("op_2134_axes_0"), val = tensor<int32, [1]>([2])];
            tensor<fp16, [1, 64, 1]> var_2134_cast_fp16 = expand_dims(axes = var_2134_axes_0, x = linear_45_cast_fp16)[name = tensor<string, []>("op_2134_cast_fp16")];
            tensor<int32, [1]> var_2135_axes_0 = const()[name = tensor<string, []>("op_2135_axes_0"), val = tensor<int32, [1]>([3])];
            tensor<fp16, [1, 64, 1, 1]> var_2135_cast_fp16 = expand_dims(axes = var_2135_axes_0, x = var_2134_cast_fp16)[name = tensor<string, []>("op_2135_cast_fp16")];
            tensor<int32, [2]> var_2136_split_sizes_0 = const()[name = tensor<string, []>("op_2136_split_sizes_0"), val = tensor<int32, [2]>([32, 32])];
            tensor<int32, []> var_2136_axis_0 = const()[name = tensor<string, []>("op_2136_axis_0"), val = tensor<int32, []>(1)];
            tensor<fp16, [1, 32, 1, 1]> var_2136_cast_fp16_0, tensor<fp16, [1, 32, 1, 1]> var_2136_cast_fp16_1 = split(axis = var_2136_axis_0, split_sizes = var_2136_split_sizes_0, x = var_2135_cast_fp16)[name = tensor<string, []>("op_2136_cast_fp16")];
            tensor<fp16, []> var_2138_promoted_to_fp16 = const()[name = tensor<string, []>("op_2138_promoted_to_fp16"), val = tensor<fp16, []>(0x1p+0)];
            tensor<fp16, [1, 32, 1, 1]> var_2139_cast_fp16 = add(x = var_2136_cast_fp16_0, y = var_2138_promoted_to_fp16)[name = tensor<string, []>("op_2139_cast_fp16")];
            tensor<fp16, [1, 32, 64, 64]> var_2140_cast_fp16 = mul(x = reshape_135_cast_fp16, y = var_2139_cast_fp16)[name = tensor<string, []>("op_2140_cast_fp16")];
            tensor<fp16, [1, 32, 64, 64]> input_307_cast_fp16 = add(x = var_2140_cast_fp16, y = var_2136_cast_fp16_1)[name = tensor<string, []>("input_307_cast_fp16")];
            tensor<fp16, [1, 32, 64, 64]> input_309_cast_fp16 = silu(x = input_307_cast_fp16)[name = tensor<string, []>("input_309_cast_fp16")];
            tensor<int32, [2]> var_2145 = const()[name = tensor<string, []>("op_2145"), val = tensor<int32, [2]>([1, 1])];
            tensor<int32, [2]> var_2147 = const()[name = tensor<string, []>("op_2147"), val = tensor<int32, [2]>([1, 1])];
            tensor<string, []> x_239_pad_type_0 = const()[name = tensor<string, []>("x_239_pad_type_0"), val = tensor<string, []>("custom")];
            tensor<int32, [4]> x_239_pad_0 = const()[name = tensor<string, []>("x_239_pad_0"), val = tensor<int32, [4]>([1, 1, 1, 1])];
            tensor<fp16, [32, 32, 3, 3]> inner_model_unet_u_blocks_3_resblocks_2_conv2_weight_to_fp16 = const()[name = tensor<string, []>("inner_model_unet_u_blocks_3_resblocks_2_conv2_weight_to_fp16"), val = tensor<fp16, [32, 32, 3, 3]>(BLOBFILE(path = tensor<string, []>("@model_path/weights/weight.bin"), offset = tensor<uint64, []>(41374336)))];
            tensor<fp16, [32]> inner_model_unet_u_blocks_3_resblocks_2_conv2_bias_to_fp16 = const()[name = tensor<string, []>("inner_model_unet_u_blocks_3_resblocks_2_conv2_bias_to_fp16"), val = tensor<fp16, [32]>(BLOBFILE(path = tensor<string, []>("@model_path/weights/weight.bin"), offset = tensor<uint64, []>(41392832)))];
            tensor<fp16, [1, 32, 64, 64]> x_239_cast_fp16 = conv(bias = inner_model_unet_u_blocks_3_resblocks_2_conv2_bias_to_fp16, dilations = var_2147, groups = var_85, pad = x_239_pad_0, pad_type = x_239_pad_type_0, strides = var_2145, weight = inner_model_unet_u_blocks_3_resblocks_2_conv2_weight_to_fp16, x = input_309_cast_fp16)[name = tensor<string, []>("x_239_cast_fp16")];
            tensor<fp16, [1, 32, 64, 64]> x_cast_fp16 = add(x = x_239_cast_fp16, y = r_cast_fp16)[name = tensor<string, []>("x_cast_fp16")];
            tensor<int32, [5]> reshape_136_shape_0 = const()[name = tensor<string, []>("reshape_136_shape_0"), val = tensor<int32, [5]>([1, 1, 32, 64, 64])];
            tensor<fp16, [1, 1, 32, 64, 64]> reshape_136_cast_fp16 = reshape(shape = reshape_136_shape_0, x = x_cast_fp16)[name = tensor<string, []>("reshape_136_cast_fp16")];
            tensor<int32, [3]> reduce_mean_168_axes_0 = const()[name = tensor<string, []>("reduce_mean_168_axes_0"), val = tensor<int32, [3]>([2, 3, 4])];
            tensor<bool, []> reduce_mean_168_keep_dims_0 = const()[name = tensor<string, []>("reduce_mean_168_keep_dims_0"), val = tensor<bool, []>(true)];
            tensor<fp16, [1, 1, 1, 1, 1]> reduce_mean_168_cast_fp16 = reduce_mean(axes = reduce_mean_168_axes_0, keep_dims = reduce_mean_168_keep_dims_0, x = reshape_136_cast_fp16)[name = tensor<string, []>("reduce_mean_168_cast_fp16")];
            tensor<fp16, [1, 1, 32, 64, 64]> sub_112_cast_fp16 = sub(x = reshape_136_cast_fp16, y = reduce_mean_168_cast_fp16)[name = tensor<string, []>("sub_112_cast_fp16")];
            tensor<fp16, [1, 1, 32, 64, 64]> square_56_cast_fp16 = square(x = sub_112_cast_fp16)[name = tensor<string, []>("square_56_cast_fp16")];
            tensor<int32, [3]> reduce_mean_170_axes_0 = const()[name = tensor<string, []>("reduce_mean_170_axes_0"), val = tensor<int32, [3]>([2, 3, 4])];
            tensor<bool, []> reduce_mean_170_keep_dims_0 = const()[name = tensor<string, []>("reduce_mean_170_keep_dims_0"), val = tensor<bool, []>(true)];
            tensor<fp16, [1, 1, 1, 1, 1]> reduce_mean_170_cast_fp16 = reduce_mean(axes = reduce_mean_170_axes_0, keep_dims = reduce_mean_170_keep_dims_0, x = square_56_cast_fp16)[name = tensor<string, []>("reduce_mean_170_cast_fp16")];
            tensor<fp16, []> add_68_y_0_to_fp16 = const()[name = tensor<string, []>("add_68_y_0_to_fp16"), val = tensor<fp16, []>(0x1.5p-17)];
            tensor<fp16, [1, 1, 1, 1, 1]> add_68_cast_fp16 = add(x = reduce_mean_170_cast_fp16, y = add_68_y_0_to_fp16)[name = tensor<string, []>("add_68_cast_fp16")];
            tensor<fp16, [1, 1, 1, 1, 1]> sqrt_56_cast_fp16 = sqrt(x = add_68_cast_fp16)[name = tensor<string, []>("sqrt_56_cast_fp16")];
            tensor<fp16, [1, 1, 32, 64, 64]> real_div_56_cast_fp16 = real_div(x = sub_112_cast_fp16, y = sqrt_56_cast_fp16)[name = tensor<string, []>("real_div_56_cast_fp16")];
            tensor<int32, [4]> reshape_137_shape_0 = const()[name = tensor<string, []>("reshape_137_shape_0"), val = tensor<int32, [4]>([1, 32, 64, 64])];
            tensor<fp16, [1, 32, 64, 64]> reshape_137_cast_fp16 = reshape(shape = reshape_137_shape_0, x = real_div_56_cast_fp16)[name = tensor<string, []>("reshape_137_cast_fp16")];
            tensor<fp16, [32]> add_69_mean_0_to_fp16 = const()[name = tensor<string, []>("add_69_mean_0_to_fp16"), val = tensor<fp16, [32]>(BLOBFILE(path = tensor<string, []>("@model_path/weights/weight.bin"), offset = tensor<uint64, []>(41392960)))];
            tensor<fp16, [32]> add_69_variance_0_to_fp16 = const()[name = tensor<string, []>("add_69_variance_0_to_fp16"), val = tensor<fp16, [32]>(BLOBFILE(path = tensor<string, []>("@model_path/weights/weight.bin"), offset = tensor<uint64, []>(41393088)))];
            tensor<fp16, [32]> add_69_gamma_0_to_fp16 = const()[name = tensor<string, []>("add_69_gamma_0_to_fp16"), val = tensor<fp16, [32]>(BLOBFILE(path = tensor<string, []>("@model_path/weights/weight.bin"), offset = tensor<uint64, []>(41393216)))];
            tensor<fp16, [32]> add_69_beta_0_to_fp16 = const()[name = tensor<string, []>("add_69_beta_0_to_fp16"), val = tensor<fp16, [32]>(BLOBFILE(path = tensor<string, []>("@model_path/weights/weight.bin"), offset = tensor<uint64, []>(41393344)))];
            tensor<fp16, []> add_69_epsilon_0_to_fp16 = const()[name = tensor<string, []>("add_69_epsilon_0_to_fp16"), val = tensor<fp16, []>(0x1.5p-17)];
            tensor<fp16, [1, 32, 64, 64]> add_69_cast_fp16 = batch_norm(beta = add_69_beta_0_to_fp16, epsilon = add_69_epsilon_0_to_fp16, gamma = add_69_gamma_0_to_fp16, mean = add_69_mean_0_to_fp16, variance = add_69_variance_0_to_fp16, x = reshape_137_cast_fp16)[name = tensor<string, []>("add_69_cast_fp16")];
            tensor<fp16, [1, 32, 64, 64]> input_cast_fp16 = silu(x = add_69_cast_fp16)[name = tensor<string, []>("input_cast_fp16")];
            tensor<int32, [2]> var_2160 = const()[name = tensor<string, []>("op_2160"), val = tensor<int32, [2]>([1, 1])];
            tensor<int32, [2]> var_2162 = const()[name = tensor<string, []>("op_2162"), val = tensor<int32, [2]>([1, 1])];
            tensor<string, []> model_output_pad_type_0 = const()[name = tensor<string, []>("model_output_pad_type_0"), val = tensor<string, []>("custom")];
            tensor<int32, [4]> model_output_pad_0 = const()[name = tensor<string, []>("model_output_pad_0"), val = tensor<int32, [4]>([1, 1, 1, 1])];
            tensor<fp16, [4, 32, 3, 3]> inner_model_conv_out_weight_to_fp16 = const()[name = tensor<string, []>("inner_model_conv_out_weight_to_fp16"), val = tensor<fp16, [4, 32, 3, 3]>(BLOBFILE(path = tensor<string, []>("@model_path/weights/weight.bin"), offset = tensor<uint64, []>(41393472)))];
            tensor<fp16, [4]> inner_model_conv_out_bias_to_fp16 = const()[name = tensor<string, []>("inner_model_conv_out_bias_to_fp16"), val = tensor<fp16, [4]>([0x1.bc4p-8, 0x1.b8p-6, -0x1.8ep-6, 0x1.684p-6])];
            tensor<fp16, [1, 4, 64, 64]> model_output_cast_fp16 = conv(bias = inner_model_conv_out_bias_to_fp16, dilations = var_2162, groups = var_85, pad = model_output_pad_0, pad_type = model_output_pad_type_0, strides = var_2160, weight = inner_model_conv_out_weight_to_fp16, x = input_cast_fp16)[name = tensor<string, []>("model_output_cast_fp16")];
            tensor<fp16, [1, 4, 64, 64]> var_2165_cast_fp16 = mul(x = c_skip_cast_fp16, y = noisy_next_obs)[name = tensor<string, []>("op_2165_cast_fp16")];
            tensor<fp16, [1, 4, 64, 64]> var_2166_cast_fp16 = mul(x = c_out_cast_fp16, y = model_output_cast_fp16)[name = tensor<string, []>("op_2166_cast_fp16")];
            tensor<fp16, [1, 4, 64, 64]> d_cast_fp16 = add(x = var_2165_cast_fp16, y = var_2166_cast_fp16)[name = tensor<string, []>("d_cast_fp16")];
            tensor<fp16, []> var_2169_promoted_to_fp16 = const()[name = tensor<string, []>("op_2169_promoted_to_fp16"), val = tensor<fp16, []>(-0x1p+0)];
            tensor<fp16, []> var_2170_promoted_to_fp16 = const()[name = tensor<string, []>("op_2170_promoted_to_fp16"), val = tensor<fp16, []>(0x1p+0)];
            tensor<fp16, [1, 4, 64, 64]> denoised = clip(alpha = var_2169_promoted_to_fp16, beta = var_2170_promoted_to_fp16, x = d_cast_fp16)[name = tensor<string, []>("op_2171_cast_fp16")];
        } -> (denoised);
}