program(1.0)
[buildInfo = dict<tensor<string, []>, tensor<string, []>>({{"coremlc-component-MIL", "3400.43.1"}, {"coremlc-version", "3400.58.2"}, {"coremltools-component-torch", "2.2.2"}, {"coremltools-source-dialect", "TorchScript"}, {"coremltools-version", "7.2"}})]
{
    func main<ios17>(tensor<fp16, [1, 3, 64, 64]> noisy_next_obs, tensor<fp32, [1, 4]> prev_act, tensor<fp16, [1, 12, 64, 64]> prev_obs, tensor<fp16, [1]> sigma) {
            tensor<fp16, [1]> sigma_adj_cast_fp16 = identity(x = sigma)[name = tensor<string, []>("sigma_adj_cast_fp16")];
            tensor<fp16, []> var_12_promoted_to_fp16 = const()[name = tensor<string, []>("op_12_promoted_to_fp16"), val = tensor<fp16, []>(0x1p+1)];
            tensor<fp16, [1]> var_13_cast_fp16 = pow(x = sigma_adj_cast_fp16, y = var_12_promoted_to_fp16)[name = tensor<string, []>("op_13_cast_fp16")];
            tensor<fp16, []> var_15_to_fp16 = const()[name = tensor<string, []>("op_15_to_fp16"), val = tensor<fp16, []>(0x1p-2)];
            tensor<fp16, [1]> var_16_cast_fp16 = add(x = var_13_cast_fp16, y = var_15_to_fp16)[name = tensor<string, []>("op_16_cast_fp16")];
            tensor<fp16, [1]> var_17_cast_fp16 = sqrt(x = var_16_cast_fp16)[name = tensor<string, []>("op_17_cast_fp16")];
            tensor<fp32, []> var_18_epsilon_0 = const()[name = tensor<string, []>("op_18_epsilon_0"), val = tensor<fp32, []>(0x1.a36e2ep-14)];
            tensor<fp16, [1]> var_18_cast_fp16 = inverse(epsilon = var_18_epsilon_0, x = var_17_cast_fp16)[name = tensor<string, []>("op_18_cast_fp16")];
            tensor<fp32, []> var_26_epsilon_0 = const()[name = tensor<string, []>("op_26_epsilon_0"), val = tensor<fp32, []>(0x1.a36e2ep-14)];
            tensor<fp16, [1]> var_26_cast_fp16 = inverse(epsilon = var_26_epsilon_0, x = var_16_cast_fp16)[name = tensor<string, []>("op_26_cast_fp16")];
            tensor<fp16, []> var_27_to_fp16 = const()[name = tensor<string, []>("op_27_to_fp16"), val = tensor<fp16, []>(0x1p-2)];
            tensor<fp16, [1]> c_skip_1_cast_fp16 = mul(x = var_26_cast_fp16, y = var_27_to_fp16)[name = tensor<string, []>("c_skip_1_cast_fp16")];
            tensor<fp16, [1]> var_29_cast_fp16 = sqrt(x = c_skip_1_cast_fp16)[name = tensor<string, []>("op_29_cast_fp16")];
            tensor<fp16, [1]> c_out_1_cast_fp16 = mul(x = sigma_adj_cast_fp16, y = var_29_cast_fp16)[name = tensor<string, []>("c_out_1_cast_fp16")];
            tensor<fp32, []> var_31_epsilon_0 = const()[name = tensor<string, []>("op_31_epsilon_0"), val = tensor<fp32, []>(0x1p-149)];
            tensor<fp16, [1]> var_31_cast_fp16 = log(epsilon = var_31_epsilon_0, x = sigma_adj_cast_fp16)[name = tensor<string, []>("op_31_cast_fp16")];
            tensor<fp16, []> _inversed_c_noise_y_0_to_fp16 = const()[name = tensor<string, []>("_inversed_c_noise_y_0_to_fp16"), val = tensor<fp16, []>(0x1p-2)];
            tensor<fp16, [1]> _inversed_c_noise_cast_fp16 = mul(x = var_31_cast_fp16, y = _inversed_c_noise_y_0_to_fp16)[name = tensor<string, []>("_inversed_c_noise_cast_fp16")];
            tensor<int32, [4]> var_44 = const()[name = tensor<string, []>("op_44"), val = tensor<int32, [4]>([-1, 1, 1, 1])];
            tensor<fp16, [1, 1, 1, 1]> c_in_cast_fp16 = reshape(shape = var_44, x = var_18_cast_fp16)[name = tensor<string, []>("c_in_cast_fp16")];
            tensor<int32, [4]> var_50 = const()[name = tensor<string, []>("op_50"), val = tensor<int32, [4]>([-1, 1, 1, 1])];
            tensor<fp16, [1, 1, 1, 1]> c_skip_cast_fp16 = reshape(shape = var_50, x = c_skip_1_cast_fp16)[name = tensor<string, []>("c_skip_cast_fp16")];
            tensor<int32, [4]> var_56 = const()[name = tensor<string, []>("op_56"), val = tensor<int32, [4]>([-1, 1, 1, 1])];
            tensor<fp16, [1, 1, 1, 1]> c_out_cast_fp16 = reshape(shape = var_56, x = c_out_1_cast_fp16)[name = tensor<string, []>("c_out_cast_fp16")];
            tensor<fp16, []> _inversed_obs_y_0_to_fp16 = const()[name = tensor<string, []>("_inversed_obs_y_0_to_fp16"), val = tensor<fp16, []>(0x1p+1)];
            tensor<fp16, [1, 12, 64, 64]> _inversed_obs_cast_fp16 = mul(x = prev_obs, y = _inversed_obs_y_0_to_fp16)[name = tensor<string, []>("_inversed_obs_cast_fp16")];
            tensor<fp16, [1, 3, 64, 64]> noisy_next_obs_cast_fp16 = mul(x = noisy_next_obs, y = c_in_cast_fp16)[name = tensor<string, []>("noisy_next_obs_cast_fp16")];
            tensor<int32, []> var_76 = const()[name = tensor<string, []>("op_76"), val = tensor<int32, []>(-1)];
            tensor<int32, []> var_77 = const()[name = tensor<string, []>("op_77"), val = tensor<int32, []>(1)];
            tensor<int32, []> input_1_axis_0 = const()[name = tensor<string, []>("input_1_axis_0"), val = tensor<int32, []>(0)];
            tensor<int32, []> input_1_batch_dims_0 = const()[name = tensor<string, []>("input_1_batch_dims_0"), val = tensor<int32, []>(0)];
            tensor<bool, []> input_1_validate_indices_0 = const()[name = tensor<string, []>("input_1_validate_indices_0"), val = tensor<bool, []>(false)];
            tensor<fp16, [3, 64]> inner_model_act_emb_0_weight_to_fp16 = const()[name = tensor<string, []>("inner_model_act_emb_0_weight_to_fp16"), val = tensor<fp16, [3, 64]>(BLOBFILE(path = tensor<string, []>("@model_path/weights/weight.bin"), offset = tensor<uint64, []>(64)))];
            tensor<string, []> cast_10_to_int16_dtype_0 = const()[name = tensor<string, []>("cast_10_to_int16_dtype_0"), val = tensor<string, []>("int16")];
            tensor<int16, [1, 4]> cast_21 = cast(dtype = cast_10_to_int16_dtype_0, x = prev_act)[name = tensor<string, []>("cast_21")];
            tensor<fp16, [1, 4, 64]> input_1_cast_fp16_cast_uint16 = gather(axis = input_1_axis_0, batch_dims = input_1_batch_dims_0, indices = cast_21, validate_indices = input_1_validate_indices_0, x = inner_model_act_emb_0_weight_to_fp16)[name = tensor<string, []>("input_1_cast_fp16_cast_uint16")];
            tensor<int32, [2]> concat_0 = const()[name = tensor<string, []>("concat_0"), val = tensor<int32, [2]>([1, 256])];
            tensor<fp16, [1, 256]> act_emb_1_cast_fp16 = reshape(shape = concat_0, x = input_1_cast_fp16_cast_uint16)[name = tensor<string, []>("act_emb_1_cast_fp16")];
            tensor<int32, [1]> var_91_axes_0 = const()[name = tensor<string, []>("op_91_axes_0"), val = tensor<int32, [1]>([1])];
            tensor<fp16, [1, 1]> var_91_cast_fp16 = expand_dims(axes = var_91_axes_0, x = _inversed_c_noise_cast_fp16)[name = tensor<string, []>("op_91_cast_fp16")];
            tensor<fp16, []> var_92_to_fp16 = const()[name = tensor<string, []>("op_92_to_fp16"), val = tensor<fp16, []>(0x1.92p+2)];
            tensor<fp16, [1, 1]> var_93_cast_fp16 = mul(x = var_91_cast_fp16, y = var_92_to_fp16)[name = tensor<string, []>("op_93_cast_fp16")];
            tensor<fp16, [128, 1]> transpose_0_to_fp16 = const()[name = tensor<string, []>("transpose_0_to_fp16"), val = tensor<fp16, [128, 1]>(BLOBFILE(path = tensor<string, []>("@model_path/weights/weight.bin"), offset = tensor<uint64, []>(512)))];
            tensor<fp16, [128]> f_1_bias_0_to_fp16 = const()[name = tensor<string, []>("f_1_bias_0_to_fp16"), val = tensor<fp16, [128]>(BLOBFILE(path = tensor<string, []>("@model_path/weights/weight.bin"), offset = tensor<uint64, []>(832)))];
            tensor<fp16, [1, 128]> f_1_cast_fp16 = linear(bias = f_1_bias_0_to_fp16, weight = transpose_0_to_fp16, x = var_93_cast_fp16)[name = tensor<string, []>("f_1_cast_fp16")];
            tensor<fp16, [1, 128]> var_95_cast_fp16 = cos(x = f_1_cast_fp16)[name = tensor<string, []>("op_95_cast_fp16")];
            tensor<fp16, [1, 128]> var_96_cast_fp16 = sin(x = f_1_cast_fp16)[name = tensor<string, []>("op_96_cast_fp16")];
            tensor<bool, []> var_98_interleave_0 = const()[name = tensor<string, []>("op_98_interleave_0"), val = tensor<bool, []>(false)];
            tensor<fp16, [1, 256]> var_98_cast_fp16 = concat(axis = var_76, interleave = var_98_interleave_0, values = (var_95_cast_fp16, var_96_cast_fp16))[name = tensor<string, []>("op_98_cast_fp16")];
            tensor<fp16, [1, 256]> var_107_to_fp16 = const()[name = tensor<string, []>("op_107_to_fp16"), val = tensor<fp16, [1, 256]>(BLOBFILE(path = tensor<string, []>("@model_path/weights/weight.bin"), offset = tensor<uint64, []>(1152)))];
            tensor<fp16, [1, 256]> var_108_cast_fp16 = add(x = var_98_cast_fp16, y = var_107_to_fp16)[name = tensor<string, []>("op_108_cast_fp16")];
            tensor<fp16, [1, 256]> input_5_cast_fp16 = add(x = var_108_cast_fp16, y = act_emb_1_cast_fp16)[name = tensor<string, []>("input_5_cast_fp16")];
            tensor<fp16, [256, 256]> inner_model_cond_proj_0_weight_to_fp16 = const()[name = tensor<string, []>("inner_model_cond_proj_0_weight_to_fp16"), val = tensor<fp16, [256, 256]>(BLOBFILE(path = tensor<string, []>("@model_path/weights/weight.bin"), offset = tensor<uint64, []>(1728)))];
            tensor<fp16, [256]> inner_model_cond_proj_0_bias_to_fp16 = const()[name = tensor<string, []>("inner_model_cond_proj_0_bias_to_fp16"), val = tensor<fp16, [256]>(BLOBFILE(path = tensor<string, []>("@model_path/weights/weight.bin"), offset = tensor<uint64, []>(132864)))];
            tensor<fp16, [1, 256]> linear_0_cast_fp16 = linear(bias = inner_model_cond_proj_0_bias_to_fp16, weight = inner_model_cond_proj_0_weight_to_fp16, x = input_5_cast_fp16)[name = tensor<string, []>("linear_0_cast_fp16")];
            tensor<fp16, [1, 256]> input_9_cast_fp16 = silu(x = linear_0_cast_fp16)[name = tensor<string, []>("input_9_cast_fp16")];
            tensor<fp16, [256, 256]> inner_model_cond_proj_2_weight_to_fp16 = const()[name = tensor<string, []>("inner_model_cond_proj_2_weight_to_fp16"), val = tensor<fp16, [256, 256]>(BLOBFILE(path = tensor<string, []>("@model_path/weights/weight.bin"), offset = tensor<uint64, []>(133440)))];
            tensor<fp16, [256]> inner_model_cond_proj_2_bias_to_fp16 = const()[name = tensor<string, []>("inner_model_cond_proj_2_bias_to_fp16"), val = tensor<fp16, [256]>(BLOBFILE(path = tensor<string, []>("@model_path/weights/weight.bin"), offset = tensor<uint64, []>(264576)))];
            tensor<fp16, [1, 256]> linear_1_cast_fp16 = linear(bias = inner_model_cond_proj_2_bias_to_fp16, weight = inner_model_cond_proj_2_weight_to_fp16, x = input_9_cast_fp16)[name = tensor<string, []>("linear_1_cast_fp16")];
            tensor<bool, []> input_11_interleave_0 = const()[name = tensor<string, []>("input_11_interleave_0"), val = tensor<bool, []>(false)];
            tensor<fp16, [1, 15, 64, 64]> input_11_cast_fp16 = concat(axis = var_77, interleave = input_11_interleave_0, values = (_inversed_obs_cast_fp16, noisy_next_obs_cast_fp16))[name = tensor<string, []>("input_11_cast_fp16")];
            tensor<int32, [2]> var_123 = const()[name = tensor<string, []>("op_123"), val = tensor<int32, [2]>([1, 1])];
            tensor<int32, [2]> var_125 = const()[name = tensor<string, []>("op_125"), val = tensor<int32, [2]>([1, 1])];
            tensor<string, []> x_1_pad_type_0 = const()[name = tensor<string, []>("x_1_pad_type_0"), val = tensor<string, []>("custom")];
            tensor<int32, [4]> x_1_pad_0 = const()[name = tensor<string, []>("x_1_pad_0"), val = tensor<int32, [4]>([1, 1, 1, 1])];
            tensor<fp16, [64, 15, 3, 3]> inner_model_conv_in_weight_to_fp16 = const()[name = tensor<string, []>("inner_model_conv_in_weight_to_fp16"), val = tensor<fp16, [64, 15, 3, 3]>(BLOBFILE(path = tensor<string, []>("@model_path/weights/weight.bin"), offset = tensor<uint64, []>(265152)))];
            tensor<fp16, [64]> inner_model_conv_in_bias_to_fp16 = const()[name = tensor<string, []>("inner_model_conv_in_bias_to_fp16"), val = tensor<fp16, [64]>(BLOBFILE(path = tensor<string, []>("@model_path/weights/weight.bin"), offset = tensor<uint64, []>(282496)))];
            tensor<fp16, [1, 64, 64, 64]> x_1_cast_fp16 = conv(bias = inner_model_conv_in_bias_to_fp16, dilations = var_125, groups = var_77, pad = x_1_pad_0, pad_type = x_1_pad_type_0, strides = var_123, weight = inner_model_conv_in_weight_to_fp16, x = input_11_cast_fp16)[name = tensor<string, []>("x_1_cast_fp16")];
            tensor<int32, [5]> reshape_0_shape_0 = const()[name = tensor<string, []>("reshape_0_shape_0"), val = tensor<int32, [5]>([1, 2, 32, 64, 64])];
            tensor<fp16, [1, 2, 32, 64, 64]> reshape_0_cast_fp16 = reshape(shape = reshape_0_shape_0, x = x_1_cast_fp16)[name = tensor<string, []>("reshape_0_cast_fp16")];
            tensor<int32, [3]> reduce_mean_0_axes_0 = const()[name = tensor<string, []>("reduce_mean_0_axes_0"), val = tensor<int32, [3]>([2, 3, 4])];
            tensor<bool, []> reduce_mean_0_keep_dims_0 = const()[name = tensor<string, []>("reduce_mean_0_keep_dims_0"), val = tensor<bool, []>(true)];
            tensor<fp16, [1, 2, 1, 1, 1]> reduce_mean_0_cast_fp16 = reduce_mean(axes = reduce_mean_0_axes_0, keep_dims = reduce_mean_0_keep_dims_0, x = reshape_0_cast_fp16)[name = tensor<string, []>("reduce_mean_0_cast_fp16")];
            tensor<fp16, [1, 2, 32, 64, 64]> sub_0_cast_fp16 = sub(x = reshape_0_cast_fp16, y = reduce_mean_0_cast_fp16)[name = tensor<string, []>("sub_0_cast_fp16")];
            tensor<fp16, [1, 2, 32, 64, 64]> square_0_cast_fp16 = square(x = sub_0_cast_fp16)[name = tensor<string, []>("square_0_cast_fp16")];
            tensor<int32, [3]> reduce_mean_2_axes_0 = const()[name = tensor<string, []>("reduce_mean_2_axes_0"), val = tensor<int32, [3]>([2, 3, 4])];
            tensor<bool, []> reduce_mean_2_keep_dims_0 = const()[name = tensor<string, []>("reduce_mean_2_keep_dims_0"), val = tensor<bool, []>(true)];
            tensor<fp16, [1, 2, 1, 1, 1]> reduce_mean_2_cast_fp16 = reduce_mean(axes = reduce_mean_2_axes_0, keep_dims = reduce_mean_2_keep_dims_0, x = square_0_cast_fp16)[name = tensor<string, []>("reduce_mean_2_cast_fp16")];
            tensor<fp16, []> add_0_y_0_to_fp16 = const()[name = tensor<string, []>("add_0_y_0_to_fp16"), val = tensor<fp16, []>(0x1.5p-17)];
            tensor<fp16, [1, 2, 1, 1, 1]> add_0_cast_fp16 = add(x = reduce_mean_2_cast_fp16, y = add_0_y_0_to_fp16)[name = tensor<string, []>("add_0_cast_fp16")];
            tensor<fp16, [1, 2, 1, 1, 1]> sqrt_0_cast_fp16 = sqrt(x = add_0_cast_fp16)[name = tensor<string, []>("sqrt_0_cast_fp16")];
            tensor<fp16, [1, 2, 32, 64, 64]> real_div_0_cast_fp16 = real_div(x = sub_0_cast_fp16, y = sqrt_0_cast_fp16)[name = tensor<string, []>("real_div_0_cast_fp16")];
            tensor<int32, [4]> reshape_1_shape_0 = const()[name = tensor<string, []>("reshape_1_shape_0"), val = tensor<int32, [4]>([1, 64, 64, 64])];
            tensor<fp16, [1, 64, 64, 64]> reshape_1_cast_fp16 = reshape(shape = reshape_1_shape_0, x = real_div_0_cast_fp16)[name = tensor<string, []>("reshape_1_cast_fp16")];
            tensor<fp16, [128, 256]> inner_model_unet_d_blocks_0_resblocks_0_norm1_linear_weight_to_fp16 = const()[name = tensor<string, []>("inner_model_unet_d_blocks_0_resblocks_0_norm1_linear_weight_to_fp16"), val = tensor<fp16, [128, 256]>(BLOBFILE(path = tensor<string, []>("@model_path/weights/weight.bin"), offset = tensor<uint64, []>(282688)))];
            tensor<fp16, [128]> inner_model_unet_d_blocks_0_resblocks_0_norm1_linear_bias_to_fp16 = const()[name = tensor<string, []>("inner_model_unet_d_blocks_0_resblocks_0_norm1_linear_bias_to_fp16"), val = tensor<fp16, [128]>(BLOBFILE(path = tensor<string, []>("@model_path/weights/weight.bin"), offset = tensor<uint64, []>(348288)))];
            tensor<fp16, [1, 128]> linear_2_cast_fp16 = linear(bias = inner_model_unet_d_blocks_0_resblocks_0_norm1_linear_bias_to_fp16, weight = inner_model_unet_d_blocks_0_resblocks_0_norm1_linear_weight_to_fp16, x = linear_1_cast_fp16)[name = tensor<string, []>("linear_2_cast_fp16")];
            tensor<int32, [1]> var_182_axes_0 = const()[name = tensor<string, []>("op_182_axes_0"), val = tensor<int32, [1]>([2])];
            tensor<fp16, [1, 128, 1]> var_182_cast_fp16 = expand_dims(axes = var_182_axes_0, x = linear_2_cast_fp16)[name = tensor<string, []>("op_182_cast_fp16")];
            tensor<int32, [1]> var_183_axes_0 = const()[name = tensor<string, []>("op_183_axes_0"), val = tensor<int32, [1]>([3])];
            tensor<fp16, [1, 128, 1, 1]> var_183_cast_fp16 = expand_dims(axes = var_183_axes_0, x = var_182_cast_fp16)[name = tensor<string, []>("op_183_cast_fp16")];
            tensor<int32, [2]> var_184_split_sizes_0 = const()[name = tensor<string, []>("op_184_split_sizes_0"), val = tensor<int32, [2]>([64, 64])];
            tensor<int32, []> var_184_axis_0 = const()[name = tensor<string, []>("op_184_axis_0"), val = tensor<int32, []>(1)];
            tensor<fp16, [1, 64, 1, 1]> var_184_cast_fp16_0, tensor<fp16, [1, 64, 1, 1]> var_184_cast_fp16_1 = split(axis = var_184_axis_0, split_sizes = var_184_split_sizes_0, x = var_183_cast_fp16)[name = tensor<string, []>("op_184_cast_fp16")];
            tensor<fp16, []> var_186_promoted_to_fp16 = const()[name = tensor<string, []>("op_186_promoted_to_fp16"), val = tensor<fp16, []>(0x1p+0)];
            tensor<fp16, [1, 64, 1, 1]> var_187_cast_fp16 = add(x = var_184_cast_fp16_0, y = var_186_promoted_to_fp16)[name = tensor<string, []>("op_187_cast_fp16")];
            tensor<fp16, [1, 64, 64, 64]> var_188_cast_fp16 = mul(x = reshape_1_cast_fp16, y = var_187_cast_fp16)[name = tensor<string, []>("op_188_cast_fp16")];
            tensor<fp16, [1, 64, 64, 64]> input_15_cast_fp16 = add(x = var_188_cast_fp16, y = var_184_cast_fp16_1)[name = tensor<string, []>("input_15_cast_fp16")];
            tensor<fp16, [1, 64, 64, 64]> input_17_cast_fp16 = silu(x = input_15_cast_fp16)[name = tensor<string, []>("input_17_cast_fp16")];
            tensor<int32, [2]> var_193 = const()[name = tensor<string, []>("op_193"), val = tensor<int32, [2]>([1, 1])];
            tensor<int32, [2]> var_195 = const()[name = tensor<string, []>("op_195"), val = tensor<int32, [2]>([1, 1])];
            tensor<string, []> x_7_pad_type_0 = const()[name = tensor<string, []>("x_7_pad_type_0"), val = tensor<string, []>("custom")];
            tensor<int32, [4]> x_7_pad_0 = const()[name = tensor<string, []>("x_7_pad_0"), val = tensor<int32, [4]>([1, 1, 1, 1])];
            tensor<fp16, [64, 64, 3, 3]> inner_model_unet_d_blocks_0_resblocks_0_conv1_weight_to_fp16 = const()[name = tensor<string, []>("inner_model_unet_d_blocks_0_resblocks_0_conv1_weight_to_fp16"), val = tensor<fp16, [64, 64, 3, 3]>(BLOBFILE(path = tensor<string, []>("@model_path/weights/weight.bin"), offset = tensor<uint64, []>(348608)))];
            tensor<fp16, [64]> inner_model_unet_d_blocks_0_resblocks_0_conv1_bias_to_fp16 = const()[name = tensor<string, []>("inner_model_unet_d_blocks_0_resblocks_0_conv1_bias_to_fp16"), val = tensor<fp16, [64]>(BLOBFILE(path = tensor<string, []>("@model_path/weights/weight.bin"), offset = tensor<uint64, []>(422400)))];
            tensor<fp16, [1, 64, 64, 64]> x_7_cast_fp16 = conv(bias = inner_model_unet_d_blocks_0_resblocks_0_conv1_bias_to_fp16, dilations = var_195, groups = var_77, pad = x_7_pad_0, pad_type = x_7_pad_type_0, strides = var_193, weight = inner_model_unet_d_blocks_0_resblocks_0_conv1_weight_to_fp16, x = input_17_cast_fp16)[name = tensor<string, []>("x_7_cast_fp16")];
            tensor<int32, [5]> reshape_2_shape_0 = const()[name = tensor<string, []>("reshape_2_shape_0"), val = tensor<int32, [5]>([1, 2, 32, 64, 64])];
            tensor<fp16, [1, 2, 32, 64, 64]> reshape_2_cast_fp16 = reshape(shape = reshape_2_shape_0, x = x_7_cast_fp16)[name = tensor<string, []>("reshape_2_cast_fp16")];
            tensor<int32, [3]> reduce_mean_3_axes_0 = const()[name = tensor<string, []>("reduce_mean_3_axes_0"), val = tensor<int32, [3]>([2, 3, 4])];
            tensor<bool, []> reduce_mean_3_keep_dims_0 = const()[name = tensor<string, []>("reduce_mean_3_keep_dims_0"), val = tensor<bool, []>(true)];
            tensor<fp16, [1, 2, 1, 1, 1]> reduce_mean_3_cast_fp16 = reduce_mean(axes = reduce_mean_3_axes_0, keep_dims = reduce_mean_3_keep_dims_0, x = reshape_2_cast_fp16)[name = tensor<string, []>("reduce_mean_3_cast_fp16")];
            tensor<fp16, [1, 2, 32, 64, 64]> sub_2_cast_fp16 = sub(x = reshape_2_cast_fp16, y = reduce_mean_3_cast_fp16)[name = tensor<string, []>("sub_2_cast_fp16")];
            tensor<fp16, [1, 2, 32, 64, 64]> square_1_cast_fp16 = square(x = sub_2_cast_fp16)[name = tensor<string, []>("square_1_cast_fp16")];
            tensor<int32, [3]> reduce_mean_5_axes_0 = const()[name = tensor<string, []>("reduce_mean_5_axes_0"), val = tensor<int32, [3]>([2, 3, 4])];
            tensor<bool, []> reduce_mean_5_keep_dims_0 = const()[name = tensor<string, []>("reduce_mean_5_keep_dims_0"), val = tensor<bool, []>(true)];
            tensor<fp16, [1, 2, 1, 1, 1]> reduce_mean_5_cast_fp16 = reduce_mean(axes = reduce_mean_5_axes_0, keep_dims = reduce_mean_5_keep_dims_0, x = square_1_cast_fp16)[name = tensor<string, []>("reduce_mean_5_cast_fp16")];
            tensor<fp16, []> add_1_y_0_to_fp16 = const()[name = tensor<string, []>("add_1_y_0_to_fp16"), val = tensor<fp16, []>(0x1.5p-17)];
            tensor<fp16, [1, 2, 1, 1, 1]> add_1_cast_fp16 = add(x = reduce_mean_5_cast_fp16, y = add_1_y_0_to_fp16)[name = tensor<string, []>("add_1_cast_fp16")];
            tensor<fp16, [1, 2, 1, 1, 1]> sqrt_1_cast_fp16 = sqrt(x = add_1_cast_fp16)[name = tensor<string, []>("sqrt_1_cast_fp16")];
            tensor<fp16, [1, 2, 32, 64, 64]> real_div_1_cast_fp16 = real_div(x = sub_2_cast_fp16, y = sqrt_1_cast_fp16)[name = tensor<string, []>("real_div_1_cast_fp16")];
            tensor<int32, [4]> reshape_3_shape_0 = const()[name = tensor<string, []>("reshape_3_shape_0"), val = tensor<int32, [4]>([1, 64, 64, 64])];
            tensor<fp16, [1, 64, 64, 64]> reshape_3_cast_fp16 = reshape(shape = reshape_3_shape_0, x = real_div_1_cast_fp16)[name = tensor<string, []>("reshape_3_cast_fp16")];
            tensor<fp16, [128, 256]> inner_model_unet_d_blocks_0_resblocks_0_norm2_linear_weight_to_fp16 = const()[name = tensor<string, []>("inner_model_unet_d_blocks_0_resblocks_0_norm2_linear_weight_to_fp16"), val = tensor<fp16, [128, 256]>(BLOBFILE(path = tensor<string, []>("@model_path/weights/weight.bin"), offset = tensor<uint64, []>(422592)))];
            tensor<fp16, [128]> inner_model_unet_d_blocks_0_resblocks_0_norm2_linear_bias_to_fp16 = const()[name = tensor<string, []>("inner_model_unet_d_blocks_0_resblocks_0_norm2_linear_bias_to_fp16"), val = tensor<fp16, [128]>(BLOBFILE(path = tensor<string, []>("@model_path/weights/weight.bin"), offset = tensor<uint64, []>(488192)))];
            tensor<fp16, [1, 128]> linear_3_cast_fp16 = linear(bias = inner_model_unet_d_blocks_0_resblocks_0_norm2_linear_bias_to_fp16, weight = inner_model_unet_d_blocks_0_resblocks_0_norm2_linear_weight_to_fp16, x = linear_1_cast_fp16)[name = tensor<string, []>("linear_3_cast_fp16")];
            tensor<int32, [1]> var_205_axes_0 = const()[name = tensor<string, []>("op_205_axes_0"), val = tensor<int32, [1]>([2])];
            tensor<fp16, [1, 128, 1]> var_205_cast_fp16 = expand_dims(axes = var_205_axes_0, x = linear_3_cast_fp16)[name = tensor<string, []>("op_205_cast_fp16")];
            tensor<int32, [1]> var_206_axes_0 = const()[name = tensor<string, []>("op_206_axes_0"), val = tensor<int32, [1]>([3])];
            tensor<fp16, [1, 128, 1, 1]> var_206_cast_fp16 = expand_dims(axes = var_206_axes_0, x = var_205_cast_fp16)[name = tensor<string, []>("op_206_cast_fp16")];
            tensor<int32, [2]> var_207_split_sizes_0 = const()[name = tensor<string, []>("op_207_split_sizes_0"), val = tensor<int32, [2]>([64, 64])];
            tensor<int32, []> var_207_axis_0 = const()[name = tensor<string, []>("op_207_axis_0"), val = tensor<int32, []>(1)];
            tensor<fp16, [1, 64, 1, 1]> var_207_cast_fp16_0, tensor<fp16, [1, 64, 1, 1]> var_207_cast_fp16_1 = split(axis = var_207_axis_0, split_sizes = var_207_split_sizes_0, x = var_206_cast_fp16)[name = tensor<string, []>("op_207_cast_fp16")];
            tensor<fp16, []> var_209_promoted_to_fp16 = const()[name = tensor<string, []>("op_209_promoted_to_fp16"), val = tensor<fp16, []>(0x1p+0)];
            tensor<fp16, [1, 64, 1, 1]> var_210_cast_fp16 = add(x = var_207_cast_fp16_0, y = var_209_promoted_to_fp16)[name = tensor<string, []>("op_210_cast_fp16")];
            tensor<fp16, [1, 64, 64, 64]> var_211_cast_fp16 = mul(x = reshape_3_cast_fp16, y = var_210_cast_fp16)[name = tensor<string, []>("op_211_cast_fp16")];
            tensor<fp16, [1, 64, 64, 64]> input_19_cast_fp16 = add(x = var_211_cast_fp16, y = var_207_cast_fp16_1)[name = tensor<string, []>("input_19_cast_fp16")];
            tensor<fp16, [1, 64, 64, 64]> input_21_cast_fp16 = silu(x = input_19_cast_fp16)[name = tensor<string, []>("input_21_cast_fp16")];
            tensor<int32, [2]> var_216 = const()[name = tensor<string, []>("op_216"), val = tensor<int32, [2]>([1, 1])];
            tensor<int32, [2]> var_218 = const()[name = tensor<string, []>("op_218"), val = tensor<int32, [2]>([1, 1])];
            tensor<string, []> x_11_pad_type_0 = const()[name = tensor<string, []>("x_11_pad_type_0"), val = tensor<string, []>("custom")];
            tensor<int32, [4]> x_11_pad_0 = const()[name = tensor<string, []>("x_11_pad_0"), val = tensor<int32, [4]>([1, 1, 1, 1])];
            tensor<fp16, [64, 64, 3, 3]> inner_model_unet_d_blocks_0_resblocks_0_conv2_weight_to_fp16 = const()[name = tensor<string, []>("inner_model_unet_d_blocks_0_resblocks_0_conv2_weight_to_fp16"), val = tensor<fp16, [64, 64, 3, 3]>(BLOBFILE(path = tensor<string, []>("@model_path/weights/weight.bin"), offset = tensor<uint64, []>(488512)))];
            tensor<fp16, [64]> inner_model_unet_d_blocks_0_resblocks_0_conv2_bias_to_fp16 = const()[name = tensor<string, []>("inner_model_unet_d_blocks_0_resblocks_0_conv2_bias_to_fp16"), val = tensor<fp16, [64]>(BLOBFILE(path = tensor<string, []>("@model_path/weights/weight.bin"), offset = tensor<uint64, []>(562304)))];
            tensor<fp16, [1, 64, 64, 64]> x_11_cast_fp16 = conv(bias = inner_model_unet_d_blocks_0_resblocks_0_conv2_bias_to_fp16, dilations = var_218, groups = var_77, pad = x_11_pad_0, pad_type = x_11_pad_type_0, strides = var_216, weight = inner_model_unet_d_blocks_0_resblocks_0_conv2_weight_to_fp16, x = input_21_cast_fp16)[name = tensor<string, []>("x_11_cast_fp16")];
            tensor<fp16, [1, 64, 64, 64]> x_13_cast_fp16 = add(x = x_11_cast_fp16, y = x_1_cast_fp16)[name = tensor<string, []>("x_13_cast_fp16")];
            tensor<int32, [5]> reshape_4_shape_0 = const()[name = tensor<string, []>("reshape_4_shape_0"), val = tensor<int32, [5]>([1, 2, 32, 64, 64])];
            tensor<fp16, [1, 2, 32, 64, 64]> reshape_4_cast_fp16 = reshape(shape = reshape_4_shape_0, x = x_13_cast_fp16)[name = tensor<string, []>("reshape_4_cast_fp16")];
            tensor<int32, [3]> reduce_mean_6_axes_0 = const()[name = tensor<string, []>("reduce_mean_6_axes_0"), val = tensor<int32, [3]>([2, 3, 4])];
            tensor<bool, []> reduce_mean_6_keep_dims_0 = const()[name = tensor<string, []>("reduce_mean_6_keep_dims_0"), val = tensor<bool, []>(true)];
            tensor<fp16, [1, 2, 1, 1, 1]> reduce_mean_6_cast_fp16 = reduce_mean(axes = reduce_mean_6_axes_0, keep_dims = reduce_mean_6_keep_dims_0, x = reshape_4_cast_fp16)[name = tensor<string, []>("reduce_mean_6_cast_fp16")];
            tensor<fp16, [1, 2, 32, 64, 64]> sub_4_cast_fp16 = sub(x = reshape_4_cast_fp16, y = reduce_mean_6_cast_fp16)[name = tensor<string, []>("sub_4_cast_fp16")];
            tensor<fp16, [1, 2, 32, 64, 64]> square_2_cast_fp16 = square(x = sub_4_cast_fp16)[name = tensor<string, []>("square_2_cast_fp16")];
            tensor<int32, [3]> reduce_mean_8_axes_0 = const()[name = tensor<string, []>("reduce_mean_8_axes_0"), val = tensor<int32, [3]>([2, 3, 4])];
            tensor<bool, []> reduce_mean_8_keep_dims_0 = const()[name = tensor<string, []>("reduce_mean_8_keep_dims_0"), val = tensor<bool, []>(true)];
            tensor<fp16, [1, 2, 1, 1, 1]> reduce_mean_8_cast_fp16 = reduce_mean(axes = reduce_mean_8_axes_0, keep_dims = reduce_mean_8_keep_dims_0, x = square_2_cast_fp16)[name = tensor<string, []>("reduce_mean_8_cast_fp16")];
            tensor<fp16, []> add_2_y_0_to_fp16 = const()[name = tensor<string, []>("add_2_y_0_to_fp16"), val = tensor<fp16, []>(0x1.5p-17)];
            tensor<fp16, [1, 2, 1, 1, 1]> add_2_cast_fp16 = add(x = reduce_mean_8_cast_fp16, y = add_2_y_0_to_fp16)[name = tensor<string, []>("add_2_cast_fp16")];
            tensor<fp16, [1, 2, 1, 1, 1]> sqrt_2_cast_fp16 = sqrt(x = add_2_cast_fp16)[name = tensor<string, []>("sqrt_2_cast_fp16")];
            tensor<fp16, [1, 2, 32, 64, 64]> real_div_2_cast_fp16 = real_div(x = sub_4_cast_fp16, y = sqrt_2_cast_fp16)[name = tensor<string, []>("real_div_2_cast_fp16")];
            tensor<int32, [4]> reshape_5_shape_0 = const()[name = tensor<string, []>("reshape_5_shape_0"), val = tensor<int32, [4]>([1, 64, 64, 64])];
            tensor<fp16, [1, 64, 64, 64]> reshape_5_cast_fp16 = reshape(shape = reshape_5_shape_0, x = real_div_2_cast_fp16)[name = tensor<string, []>("reshape_5_cast_fp16")];
            tensor<fp16, [128, 256]> inner_model_unet_d_blocks_0_resblocks_1_norm1_linear_weight_to_fp16 = const()[name = tensor<string, []>("inner_model_unet_d_blocks_0_resblocks_1_norm1_linear_weight_to_fp16"), val = tensor<fp16, [128, 256]>(BLOBFILE(path = tensor<string, []>("@model_path/weights/weight.bin"), offset = tensor<uint64, []>(562496)))];
            tensor<fp16, [128]> inner_model_unet_d_blocks_0_resblocks_1_norm1_linear_bias_to_fp16 = const()[name = tensor<string, []>("inner_model_unet_d_blocks_0_resblocks_1_norm1_linear_bias_to_fp16"), val = tensor<fp16, [128]>(BLOBFILE(path = tensor<string, []>("@model_path/weights/weight.bin"), offset = tensor<uint64, []>(628096)))];
            tensor<fp16, [1, 128]> linear_4_cast_fp16 = linear(bias = inner_model_unet_d_blocks_0_resblocks_1_norm1_linear_bias_to_fp16, weight = inner_model_unet_d_blocks_0_resblocks_1_norm1_linear_weight_to_fp16, x = linear_1_cast_fp16)[name = tensor<string, []>("linear_4_cast_fp16")];
            tensor<int32, [1]> var_233_axes_0 = const()[name = tensor<string, []>("op_233_axes_0"), val = tensor<int32, [1]>([2])];
            tensor<fp16, [1, 128, 1]> var_233_cast_fp16 = expand_dims(axes = var_233_axes_0, x = linear_4_cast_fp16)[name = tensor<string, []>("op_233_cast_fp16")];
            tensor<int32, [1]> var_234_axes_0 = const()[name = tensor<string, []>("op_234_axes_0"), val = tensor<int32, [1]>([3])];
            tensor<fp16, [1, 128, 1, 1]> var_234_cast_fp16 = expand_dims(axes = var_234_axes_0, x = var_233_cast_fp16)[name = tensor<string, []>("op_234_cast_fp16")];
            tensor<int32, [2]> var_235_split_sizes_0 = const()[name = tensor<string, []>("op_235_split_sizes_0"), val = tensor<int32, [2]>([64, 64])];
            tensor<int32, []> var_235_axis_0 = const()[name = tensor<string, []>("op_235_axis_0"), val = tensor<int32, []>(1)];
            tensor<fp16, [1, 64, 1, 1]> var_235_cast_fp16_0, tensor<fp16, [1, 64, 1, 1]> var_235_cast_fp16_1 = split(axis = var_235_axis_0, split_sizes = var_235_split_sizes_0, x = var_234_cast_fp16)[name = tensor<string, []>("op_235_cast_fp16")];
            tensor<fp16, []> var_237_promoted_to_fp16 = const()[name = tensor<string, []>("op_237_promoted_to_fp16"), val = tensor<fp16, []>(0x1p+0)];
            tensor<fp16, [1, 64, 1, 1]> var_238_cast_fp16 = add(x = var_235_cast_fp16_0, y = var_237_promoted_to_fp16)[name = tensor<string, []>("op_238_cast_fp16")];
            tensor<fp16, [1, 64, 64, 64]> var_239_cast_fp16 = mul(x = reshape_5_cast_fp16, y = var_238_cast_fp16)[name = tensor<string, []>("op_239_cast_fp16")];
            tensor<fp16, [1, 64, 64, 64]> input_23_cast_fp16 = add(x = var_239_cast_fp16, y = var_235_cast_fp16_1)[name = tensor<string, []>("input_23_cast_fp16")];
            tensor<fp16, [1, 64, 64, 64]> input_25_cast_fp16 = silu(x = input_23_cast_fp16)[name = tensor<string, []>("input_25_cast_fp16")];
            tensor<int32, [2]> var_244 = const()[name = tensor<string, []>("op_244"), val = tensor<int32, [2]>([1, 1])];
            tensor<int32, [2]> var_246 = const()[name = tensor<string, []>("op_246"), val = tensor<int32, [2]>([1, 1])];
            tensor<string, []> x_17_pad_type_0 = const()[name = tensor<string, []>("x_17_pad_type_0"), val = tensor<string, []>("custom")];
            tensor<int32, [4]> x_17_pad_0 = const()[name = tensor<string, []>("x_17_pad_0"), val = tensor<int32, [4]>([1, 1, 1, 1])];
            tensor<fp16, [64, 64, 3, 3]> inner_model_unet_d_blocks_0_resblocks_1_conv1_weight_to_fp16 = const()[name = tensor<string, []>("inner_model_unet_d_blocks_0_resblocks_1_conv1_weight_to_fp16"), val = tensor<fp16, [64, 64, 3, 3]>(BLOBFILE(path = tensor<string, []>("@model_path/weights/weight.bin"), offset = tensor<uint64, []>(628416)))];
            tensor<fp16, [64]> inner_model_unet_d_blocks_0_resblocks_1_conv1_bias_to_fp16 = const()[name = tensor<string, []>("inner_model_unet_d_blocks_0_resblocks_1_conv1_bias_to_fp16"), val = tensor<fp16, [64]>(BLOBFILE(path = tensor<string, []>("@model_path/weights/weight.bin"), offset = tensor<uint64, []>(702208)))];
            tensor<fp16, [1, 64, 64, 64]> x_17_cast_fp16 = conv(bias = inner_model_unet_d_blocks_0_resblocks_1_conv1_bias_to_fp16, dilations = var_246, groups = var_77, pad = x_17_pad_0, pad_type = x_17_pad_type_0, strides = var_244, weight = inner_model_unet_d_blocks_0_resblocks_1_conv1_weight_to_fp16, x = input_25_cast_fp16)[name = tensor<string, []>("x_17_cast_fp16")];
            tensor<int32, [5]> reshape_6_shape_0 = const()[name = tensor<string, []>("reshape_6_shape_0"), val = tensor<int32, [5]>([1, 2, 32, 64, 64])];
            tensor<fp16, [1, 2, 32, 64, 64]> reshape_6_cast_fp16 = reshape(shape = reshape_6_shape_0, x = x_17_cast_fp16)[name = tensor<string, []>("reshape_6_cast_fp16")];
            tensor<int32, [3]> reduce_mean_9_axes_0 = const()[name = tensor<string, []>("reduce_mean_9_axes_0"), val = tensor<int32, [3]>([2, 3, 4])];
            tensor<bool, []> reduce_mean_9_keep_dims_0 = const()[name = tensor<string, []>("reduce_mean_9_keep_dims_0"), val = tensor<bool, []>(true)];
            tensor<fp16, [1, 2, 1, 1, 1]> reduce_mean_9_cast_fp16 = reduce_mean(axes = reduce_mean_9_axes_0, keep_dims = reduce_mean_9_keep_dims_0, x = reshape_6_cast_fp16)[name = tensor<string, []>("reduce_mean_9_cast_fp16")];
            tensor<fp16, [1, 2, 32, 64, 64]> sub_6_cast_fp16 = sub(x = reshape_6_cast_fp16, y = reduce_mean_9_cast_fp16)[name = tensor<string, []>("sub_6_cast_fp16")];
            tensor<fp16, [1, 2, 32, 64, 64]> square_3_cast_fp16 = square(x = sub_6_cast_fp16)[name = tensor<string, []>("square_3_cast_fp16")];
            tensor<int32, [3]> reduce_mean_11_axes_0 = const()[name = tensor<string, []>("reduce_mean_11_axes_0"), val = tensor<int32, [3]>([2, 3, 4])];
            tensor<bool, []> reduce_mean_11_keep_dims_0 = const()[name = tensor<string, []>("reduce_mean_11_keep_dims_0"), val = tensor<bool, []>(true)];
            tensor<fp16, [1, 2, 1, 1, 1]> reduce_mean_11_cast_fp16 = reduce_mean(axes = reduce_mean_11_axes_0, keep_dims = reduce_mean_11_keep_dims_0, x = square_3_cast_fp16)[name = tensor<string, []>("reduce_mean_11_cast_fp16")];
            tensor<fp16, []> add_3_y_0_to_fp16 = const()[name = tensor<string, []>("add_3_y_0_to_fp16"), val = tensor<fp16, []>(0x1.5p-17)];
            tensor<fp16, [1, 2, 1, 1, 1]> add_3_cast_fp16 = add(x = reduce_mean_11_cast_fp16, y = add_3_y_0_to_fp16)[name = tensor<string, []>("add_3_cast_fp16")];
            tensor<fp16, [1, 2, 1, 1, 1]> sqrt_3_cast_fp16 = sqrt(x = add_3_cast_fp16)[name = tensor<string, []>("sqrt_3_cast_fp16")];
            tensor<fp16, [1, 2, 32, 64, 64]> real_div_3_cast_fp16 = real_div(x = sub_6_cast_fp16, y = sqrt_3_cast_fp16)[name = tensor<string, []>("real_div_3_cast_fp16")];
            tensor<int32, [4]> reshape_7_shape_0 = const()[name = tensor<string, []>("reshape_7_shape_0"), val = tensor<int32, [4]>([1, 64, 64, 64])];
            tensor<fp16, [1, 64, 64, 64]> reshape_7_cast_fp16 = reshape(shape = reshape_7_shape_0, x = real_div_3_cast_fp16)[name = tensor<string, []>("reshape_7_cast_fp16")];
            tensor<fp16, [128, 256]> inner_model_unet_d_blocks_0_resblocks_1_norm2_linear_weight_to_fp16 = const()[name = tensor<string, []>("inner_model_unet_d_blocks_0_resblocks_1_norm2_linear_weight_to_fp16"), val = tensor<fp16, [128, 256]>(BLOBFILE(path = tensor<string, []>("@model_path/weights/weight.bin"), offset = tensor<uint64, []>(702400)))];
            tensor<fp16, [128]> inner_model_unet_d_blocks_0_resblocks_1_norm2_linear_bias_to_fp16 = const()[name = tensor<string, []>("inner_model_unet_d_blocks_0_resblocks_1_norm2_linear_bias_to_fp16"), val = tensor<fp16, [128]>(BLOBFILE(path = tensor<string, []>("@model_path/weights/weight.bin"), offset = tensor<uint64, []>(768000)))];
            tensor<fp16, [1, 128]> linear_5_cast_fp16 = linear(bias = inner_model_unet_d_blocks_0_resblocks_1_norm2_linear_bias_to_fp16, weight = inner_model_unet_d_blocks_0_resblocks_1_norm2_linear_weight_to_fp16, x = linear_1_cast_fp16)[name = tensor<string, []>("linear_5_cast_fp16")];
            tensor<int32, [1]> var_256_axes_0 = const()[name = tensor<string, []>("op_256_axes_0"), val = tensor<int32, [1]>([2])];
            tensor<fp16, [1, 128, 1]> var_256_cast_fp16 = expand_dims(axes = var_256_axes_0, x = linear_5_cast_fp16)[name = tensor<string, []>("op_256_cast_fp16")];
            tensor<int32, [1]> var_257_axes_0 = const()[name = tensor<string, []>("op_257_axes_0"), val = tensor<int32, [1]>([3])];
            tensor<fp16, [1, 128, 1, 1]> var_257_cast_fp16 = expand_dims(axes = var_257_axes_0, x = var_256_cast_fp16)[name = tensor<string, []>("op_257_cast_fp16")];
            tensor<int32, [2]> var_258_split_sizes_0 = const()[name = tensor<string, []>("op_258_split_sizes_0"), val = tensor<int32, [2]>([64, 64])];
            tensor<int32, []> var_258_axis_0 = const()[name = tensor<string, []>("op_258_axis_0"), val = tensor<int32, []>(1)];
            tensor<fp16, [1, 64, 1, 1]> var_258_cast_fp16_0, tensor<fp16, [1, 64, 1, 1]> var_258_cast_fp16_1 = split(axis = var_258_axis_0, split_sizes = var_258_split_sizes_0, x = var_257_cast_fp16)[name = tensor<string, []>("op_258_cast_fp16")];
            tensor<fp16, []> var_260_promoted_to_fp16 = const()[name = tensor<string, []>("op_260_promoted_to_fp16"), val = tensor<fp16, []>(0x1p+0)];
            tensor<fp16, [1, 64, 1, 1]> var_261_cast_fp16 = add(x = var_258_cast_fp16_0, y = var_260_promoted_to_fp16)[name = tensor<string, []>("op_261_cast_fp16")];
            tensor<fp16, [1, 64, 64, 64]> var_262_cast_fp16 = mul(x = reshape_7_cast_fp16, y = var_261_cast_fp16)[name = tensor<string, []>("op_262_cast_fp16")];
            tensor<fp16, [1, 64, 64, 64]> input_27_cast_fp16 = add(x = var_262_cast_fp16, y = var_258_cast_fp16_1)[name = tensor<string, []>("input_27_cast_fp16")];
            tensor<fp16, [1, 64, 64, 64]> input_29_cast_fp16 = silu(x = input_27_cast_fp16)[name = tensor<string, []>("input_29_cast_fp16")];
            tensor<int32, [2]> var_267 = const()[name = tensor<string, []>("op_267"), val = tensor<int32, [2]>([1, 1])];
            tensor<int32, [2]> var_269 = const()[name = tensor<string, []>("op_269"), val = tensor<int32, [2]>([1, 1])];
            tensor<string, []> x_21_pad_type_0 = const()[name = tensor<string, []>("x_21_pad_type_0"), val = tensor<string, []>("custom")];
            tensor<int32, [4]> x_21_pad_0 = const()[name = tensor<string, []>("x_21_pad_0"), val = tensor<int32, [4]>([1, 1, 1, 1])];
            tensor<fp16, [64, 64, 3, 3]> inner_model_unet_d_blocks_0_resblocks_1_conv2_weight_to_fp16 = const()[name = tensor<string, []>("inner_model_unet_d_blocks_0_resblocks_1_conv2_weight_to_fp16"), val = tensor<fp16, [64, 64, 3, 3]>(BLOBFILE(path = tensor<string, []>("@model_path/weights/weight.bin"), offset = tensor<uint64, []>(768320)))];
            tensor<fp16, [64]> inner_model_unet_d_blocks_0_resblocks_1_conv2_bias_to_fp16 = const()[name = tensor<string, []>("inner_model_unet_d_blocks_0_resblocks_1_conv2_bias_to_fp16"), val = tensor<fp16, [64]>(BLOBFILE(path = tensor<string, []>("@model_path/weights/weight.bin"), offset = tensor<uint64, []>(842112)))];
            tensor<fp16, [1, 64, 64, 64]> x_21_cast_fp16 = conv(bias = inner_model_unet_d_blocks_0_resblocks_1_conv2_bias_to_fp16, dilations = var_269, groups = var_77, pad = x_21_pad_0, pad_type = x_21_pad_type_0, strides = var_267, weight = inner_model_unet_d_blocks_0_resblocks_1_conv2_weight_to_fp16, x = input_29_cast_fp16)[name = tensor<string, []>("x_21_cast_fp16")];
            tensor<fp16, [1, 64, 64, 64]> input_31_cast_fp16 = add(x = x_21_cast_fp16, y = x_13_cast_fp16)[name = tensor<string, []>("input_31_cast_fp16")];
            tensor<int32, [2]> var_279 = const()[name = tensor<string, []>("op_279"), val = tensor<int32, [2]>([2, 2])];
            tensor<int32, [2]> var_281 = const()[name = tensor<string, []>("op_281"), val = tensor<int32, [2]>([1, 1])];
            tensor<string, []> x_23_pad_type_0 = const()[name = tensor<string, []>("x_23_pad_type_0"), val = tensor<string, []>("custom")];
            tensor<int32, [4]> x_23_pad_0 = const()[name = tensor<string, []>("x_23_pad_0"), val = tensor<int32, [4]>([1, 1, 1, 1])];
            tensor<fp16, [64, 64, 3, 3]> inner_model_unet_downsamples_1_conv_weight_to_fp16 = const()[name = tensor<string, []>("inner_model_unet_downsamples_1_conv_weight_to_fp16"), val = tensor<fp16, [64, 64, 3, 3]>(BLOBFILE(path = tensor<string, []>("@model_path/weights/weight.bin"), offset = tensor<uint64, []>(842304)))];
            tensor<fp16, [64]> inner_model_unet_downsamples_1_conv_bias_to_fp16 = const()[name = tensor<string, []>("inner_model_unet_downsamples_1_conv_bias_to_fp16"), val = tensor<fp16, [64]>(BLOBFILE(path = tensor<string, []>("@model_path/weights/weight.bin"), offset = tensor<uint64, []>(916096)))];
            tensor<fp16, [1, 64, 32, 32]> x_23_cast_fp16 = conv(bias = inner_model_unet_downsamples_1_conv_bias_to_fp16, dilations = var_281, groups = var_77, pad = x_23_pad_0, pad_type = x_23_pad_type_0, strides = var_279, weight = inner_model_unet_downsamples_1_conv_weight_to_fp16, x = input_31_cast_fp16)[name = tensor<string, []>("x_23_cast_fp16")];
            tensor<int32, [5]> reshape_8_shape_0 = const()[name = tensor<string, []>("reshape_8_shape_0"), val = tensor<int32, [5]>([1, 2, 32, 32, 32])];
            tensor<fp16, [1, 2, 32, 32, 32]> reshape_8_cast_fp16 = reshape(shape = reshape_8_shape_0, x = x_23_cast_fp16)[name = tensor<string, []>("reshape_8_cast_fp16")];
            tensor<int32, [3]> reduce_mean_12_axes_0 = const()[name = tensor<string, []>("reduce_mean_12_axes_0"), val = tensor<int32, [3]>([2, 3, 4])];
            tensor<bool, []> reduce_mean_12_keep_dims_0 = const()[name = tensor<string, []>("reduce_mean_12_keep_dims_0"), val = tensor<bool, []>(true)];
            tensor<fp16, [1, 2, 1, 1, 1]> reduce_mean_12_cast_fp16 = reduce_mean(axes = reduce_mean_12_axes_0, keep_dims = reduce_mean_12_keep_dims_0, x = reshape_8_cast_fp16)[name = tensor<string, []>("reduce_mean_12_cast_fp16")];
            tensor<fp16, [1, 2, 32, 32, 32]> sub_8_cast_fp16 = sub(x = reshape_8_cast_fp16, y = reduce_mean_12_cast_fp16)[name = tensor<string, []>("sub_8_cast_fp16")];
            tensor<fp16, [1, 2, 32, 32, 32]> square_4_cast_fp16 = square(x = sub_8_cast_fp16)[name = tensor<string, []>("square_4_cast_fp16")];
            tensor<int32, [3]> reduce_mean_14_axes_0 = const()[name = tensor<string, []>("reduce_mean_14_axes_0"), val = tensor<int32, [3]>([2, 3, 4])];
            tensor<bool, []> reduce_mean_14_keep_dims_0 = const()[name = tensor<string, []>("reduce_mean_14_keep_dims_0"), val = tensor<bool, []>(true)];
            tensor<fp16, [1, 2, 1, 1, 1]> reduce_mean_14_cast_fp16 = reduce_mean(axes = reduce_mean_14_axes_0, keep_dims = reduce_mean_14_keep_dims_0, x = square_4_cast_fp16)[name = tensor<string, []>("reduce_mean_14_cast_fp16")];
            tensor<fp16, []> add_4_y_0_to_fp16 = const()[name = tensor<string, []>("add_4_y_0_to_fp16"), val = tensor<fp16, []>(0x1.5p-17)];
            tensor<fp16, [1, 2, 1, 1, 1]> add_4_cast_fp16 = add(x = reduce_mean_14_cast_fp16, y = add_4_y_0_to_fp16)[name = tensor<string, []>("add_4_cast_fp16")];
            tensor<fp16, [1, 2, 1, 1, 1]> sqrt_4_cast_fp16 = sqrt(x = add_4_cast_fp16)[name = tensor<string, []>("sqrt_4_cast_fp16")];
            tensor<fp16, [1, 2, 32, 32, 32]> real_div_4_cast_fp16 = real_div(x = sub_8_cast_fp16, y = sqrt_4_cast_fp16)[name = tensor<string, []>("real_div_4_cast_fp16")];
            tensor<int32, [4]> reshape_9_shape_0 = const()[name = tensor<string, []>("reshape_9_shape_0"), val = tensor<int32, [4]>([1, 64, 32, 32])];
            tensor<fp16, [1, 64, 32, 32]> reshape_9_cast_fp16 = reshape(shape = reshape_9_shape_0, x = real_div_4_cast_fp16)[name = tensor<string, []>("reshape_9_cast_fp16")];
            tensor<fp16, [128, 256]> inner_model_unet_d_blocks_1_resblocks_0_norm1_linear_weight_to_fp16 = const()[name = tensor<string, []>("inner_model_unet_d_blocks_1_resblocks_0_norm1_linear_weight_to_fp16"), val = tensor<fp16, [128, 256]>(BLOBFILE(path = tensor<string, []>("@model_path/weights/weight.bin"), offset = tensor<uint64, []>(916288)))];
            tensor<fp16, [128]> inner_model_unet_d_blocks_1_resblocks_0_norm1_linear_bias_to_fp16 = const()[name = tensor<string, []>("inner_model_unet_d_blocks_1_resblocks_0_norm1_linear_bias_to_fp16"), val = tensor<fp16, [128]>(BLOBFILE(path = tensor<string, []>("@model_path/weights/weight.bin"), offset = tensor<uint64, []>(981888)))];
            tensor<fp16, [1, 128]> linear_6_cast_fp16 = linear(bias = inner_model_unet_d_blocks_1_resblocks_0_norm1_linear_bias_to_fp16, weight = inner_model_unet_d_blocks_1_resblocks_0_norm1_linear_weight_to_fp16, x = linear_1_cast_fp16)[name = tensor<string, []>("linear_6_cast_fp16")];
            tensor<int32, [1]> var_299_axes_0 = const()[name = tensor<string, []>("op_299_axes_0"), val = tensor<int32, [1]>([2])];
            tensor<fp16, [1, 128, 1]> var_299_cast_fp16 = expand_dims(axes = var_299_axes_0, x = linear_6_cast_fp16)[name = tensor<string, []>("op_299_cast_fp16")];
            tensor<int32, [1]> var_300_axes_0 = const()[name = tensor<string, []>("op_300_axes_0"), val = tensor<int32, [1]>([3])];
            tensor<fp16, [1, 128, 1, 1]> var_300_cast_fp16 = expand_dims(axes = var_300_axes_0, x = var_299_cast_fp16)[name = tensor<string, []>("op_300_cast_fp16")];
            tensor<int32, [2]> var_301_split_sizes_0 = const()[name = tensor<string, []>("op_301_split_sizes_0"), val = tensor<int32, [2]>([64, 64])];
            tensor<int32, []> var_301_axis_0 = const()[name = tensor<string, []>("op_301_axis_0"), val = tensor<int32, []>(1)];
            tensor<fp16, [1, 64, 1, 1]> var_301_cast_fp16_0, tensor<fp16, [1, 64, 1, 1]> var_301_cast_fp16_1 = split(axis = var_301_axis_0, split_sizes = var_301_split_sizes_0, x = var_300_cast_fp16)[name = tensor<string, []>("op_301_cast_fp16")];
            tensor<fp16, []> var_303_promoted_to_fp16 = const()[name = tensor<string, []>("op_303_promoted_to_fp16"), val = tensor<fp16, []>(0x1p+0)];
            tensor<fp16, [1, 64, 1, 1]> var_304_cast_fp16 = add(x = var_301_cast_fp16_0, y = var_303_promoted_to_fp16)[name = tensor<string, []>("op_304_cast_fp16")];
            tensor<fp16, [1, 64, 32, 32]> var_305_cast_fp16 = mul(x = reshape_9_cast_fp16, y = var_304_cast_fp16)[name = tensor<string, []>("op_305_cast_fp16")];
            tensor<fp16, [1, 64, 32, 32]> input_33_cast_fp16 = add(x = var_305_cast_fp16, y = var_301_cast_fp16_1)[name = tensor<string, []>("input_33_cast_fp16")];
            tensor<fp16, [1, 64, 32, 32]> input_35_cast_fp16 = silu(x = input_33_cast_fp16)[name = tensor<string, []>("input_35_cast_fp16")];
            tensor<int32, [2]> var_310 = const()[name = tensor<string, []>("op_310"), val = tensor<int32, [2]>([1, 1])];
            tensor<int32, [2]> var_312 = const()[name = tensor<string, []>("op_312"), val = tensor<int32, [2]>([1, 1])];
            tensor<string, []> x_27_pad_type_0 = const()[name = tensor<string, []>("x_27_pad_type_0"), val = tensor<string, []>("custom")];
            tensor<int32, [4]> x_27_pad_0 = const()[name = tensor<string, []>("x_27_pad_0"), val = tensor<int32, [4]>([1, 1, 1, 1])];
            tensor<fp16, [64, 64, 3, 3]> inner_model_unet_d_blocks_1_resblocks_0_conv1_weight_to_fp16 = const()[name = tensor<string, []>("inner_model_unet_d_blocks_1_resblocks_0_conv1_weight_to_fp16"), val = tensor<fp16, [64, 64, 3, 3]>(BLOBFILE(path = tensor<string, []>("@model_path/weights/weight.bin"), offset = tensor<uint64, []>(982208)))];
            tensor<fp16, [64]> inner_model_unet_d_blocks_1_resblocks_0_conv1_bias_to_fp16 = const()[name = tensor<string, []>("inner_model_unet_d_blocks_1_resblocks_0_conv1_bias_to_fp16"), val = tensor<fp16, [64]>(BLOBFILE(path = tensor<string, []>("@model_path/weights/weight.bin"), offset = tensor<uint64, []>(1056000)))];
            tensor<fp16, [1, 64, 32, 32]> x_27_cast_fp16 = conv(bias = inner_model_unet_d_blocks_1_resblocks_0_conv1_bias_to_fp16, dilations = var_312, groups = var_77, pad = x_27_pad_0, pad_type = x_27_pad_type_0, strides = var_310, weight = inner_model_unet_d_blocks_1_resblocks_0_conv1_weight_to_fp16, x = input_35_cast_fp16)[name = tensor<string, []>("x_27_cast_fp16")];
            tensor<int32, [5]> reshape_10_shape_0 = const()[name = tensor<string, []>("reshape_10_shape_0"), val = tensor<int32, [5]>([1, 2, 32, 32, 32])];
            tensor<fp16, [1, 2, 32, 32, 32]> reshape_10_cast_fp16 = reshape(shape = reshape_10_shape_0, x = x_27_cast_fp16)[name = tensor<string, []>("reshape_10_cast_fp16")];
            tensor<int32, [3]> reduce_mean_15_axes_0 = const()[name = tensor<string, []>("reduce_mean_15_axes_0"), val = tensor<int32, [3]>([2, 3, 4])];
            tensor<bool, []> reduce_mean_15_keep_dims_0 = const()[name = tensor<string, []>("reduce_mean_15_keep_dims_0"), val = tensor<bool, []>(true)];
            tensor<fp16, [1, 2, 1, 1, 1]> reduce_mean_15_cast_fp16 = reduce_mean(axes = reduce_mean_15_axes_0, keep_dims = reduce_mean_15_keep_dims_0, x = reshape_10_cast_fp16)[name = tensor<string, []>("reduce_mean_15_cast_fp16")];
            tensor<fp16, [1, 2, 32, 32, 32]> sub_10_cast_fp16 = sub(x = reshape_10_cast_fp16, y = reduce_mean_15_cast_fp16)[name = tensor<string, []>("sub_10_cast_fp16")];
            tensor<fp16, [1, 2, 32, 32, 32]> square_5_cast_fp16 = square(x = sub_10_cast_fp16)[name = tensor<string, []>("square_5_cast_fp16")];
            tensor<int32, [3]> reduce_mean_17_axes_0 = const()[name = tensor<string, []>("reduce_mean_17_axes_0"), val = tensor<int32, [3]>([2, 3, 4])];
            tensor<bool, []> reduce_mean_17_keep_dims_0 = const()[name = tensor<string, []>("reduce_mean_17_keep_dims_0"), val = tensor<bool, []>(true)];
            tensor<fp16, [1, 2, 1, 1, 1]> reduce_mean_17_cast_fp16 = reduce_mean(axes = reduce_mean_17_axes_0, keep_dims = reduce_mean_17_keep_dims_0, x = square_5_cast_fp16)[name = tensor<string, []>("reduce_mean_17_cast_fp16")];
            tensor<fp16, []> add_5_y_0_to_fp16 = const()[name = tensor<string, []>("add_5_y_0_to_fp16"), val = tensor<fp16, []>(0x1.5p-17)];
            tensor<fp16, [1, 2, 1, 1, 1]> add_5_cast_fp16 = add(x = reduce_mean_17_cast_fp16, y = add_5_y_0_to_fp16)[name = tensor<string, []>("add_5_cast_fp16")];
            tensor<fp16, [1, 2, 1, 1, 1]> sqrt_5_cast_fp16 = sqrt(x = add_5_cast_fp16)[name = tensor<string, []>("sqrt_5_cast_fp16")];
            tensor<fp16, [1, 2, 32, 32, 32]> real_div_5_cast_fp16 = real_div(x = sub_10_cast_fp16, y = sqrt_5_cast_fp16)[name = tensor<string, []>("real_div_5_cast_fp16")];
            tensor<int32, [4]> reshape_11_shape_0 = const()[name = tensor<string, []>("reshape_11_shape_0"), val = tensor<int32, [4]>([1, 64, 32, 32])];
            tensor<fp16, [1, 64, 32, 32]> reshape_11_cast_fp16 = reshape(shape = reshape_11_shape_0, x = real_div_5_cast_fp16)[name = tensor<string, []>("reshape_11_cast_fp16")];
            tensor<fp16, [128, 256]> inner_model_unet_d_blocks_1_resblocks_0_norm2_linear_weight_to_fp16 = const()[name = tensor<string, []>("inner_model_unet_d_blocks_1_resblocks_0_norm2_linear_weight_to_fp16"), val = tensor<fp16, [128, 256]>(BLOBFILE(path = tensor<string, []>("@model_path/weights/weight.bin"), offset = tensor<uint64, []>(1056192)))];
            tensor<fp16, [128]> inner_model_unet_d_blocks_1_resblocks_0_norm2_linear_bias_to_fp16 = const()[name = tensor<string, []>("inner_model_unet_d_blocks_1_resblocks_0_norm2_linear_bias_to_fp16"), val = tensor<fp16, [128]>(BLOBFILE(path = tensor<string, []>("@model_path/weights/weight.bin"), offset = tensor<uint64, []>(1121792)))];
            tensor<fp16, [1, 128]> linear_7_cast_fp16 = linear(bias = inner_model_unet_d_blocks_1_resblocks_0_norm2_linear_bias_to_fp16, weight = inner_model_unet_d_blocks_1_resblocks_0_norm2_linear_weight_to_fp16, x = linear_1_cast_fp16)[name = tensor<string, []>("linear_7_cast_fp16")];
            tensor<int32, [1]> var_322_axes_0 = const()[name = tensor<string, []>("op_322_axes_0"), val = tensor<int32, [1]>([2])];
            tensor<fp16, [1, 128, 1]> var_322_cast_fp16 = expand_dims(axes = var_322_axes_0, x = linear_7_cast_fp16)[name = tensor<string, []>("op_322_cast_fp16")];
            tensor<int32, [1]> var_323_axes_0 = const()[name = tensor<string, []>("op_323_axes_0"), val = tensor<int32, [1]>([3])];
            tensor<fp16, [1, 128, 1, 1]> var_323_cast_fp16 = expand_dims(axes = var_323_axes_0, x = var_322_cast_fp16)[name = tensor<string, []>("op_323_cast_fp16")];
            tensor<int32, [2]> var_324_split_sizes_0 = const()[name = tensor<string, []>("op_324_split_sizes_0"), val = tensor<int32, [2]>([64, 64])];
            tensor<int32, []> var_324_axis_0 = const()[name = tensor<string, []>("op_324_axis_0"), val = tensor<int32, []>(1)];
            tensor<fp16, [1, 64, 1, 1]> var_324_cast_fp16_0, tensor<fp16, [1, 64, 1, 1]> var_324_cast_fp16_1 = split(axis = var_324_axis_0, split_sizes = var_324_split_sizes_0, x = var_323_cast_fp16)[name = tensor<string, []>("op_324_cast_fp16")];
            tensor<fp16, []> var_326_promoted_to_fp16 = const()[name = tensor<string, []>("op_326_promoted_to_fp16"), val = tensor<fp16, []>(0x1p+0)];
            tensor<fp16, [1, 64, 1, 1]> var_327_cast_fp16 = add(x = var_324_cast_fp16_0, y = var_326_promoted_to_fp16)[name = tensor<string, []>("op_327_cast_fp16")];
            tensor<fp16, [1, 64, 32, 32]> var_328_cast_fp16 = mul(x = reshape_11_cast_fp16, y = var_327_cast_fp16)[name = tensor<string, []>("op_328_cast_fp16")];
            tensor<fp16, [1, 64, 32, 32]> input_37_cast_fp16 = add(x = var_328_cast_fp16, y = var_324_cast_fp16_1)[name = tensor<string, []>("input_37_cast_fp16")];
            tensor<fp16, [1, 64, 32, 32]> input_39_cast_fp16 = silu(x = input_37_cast_fp16)[name = tensor<string, []>("input_39_cast_fp16")];
            tensor<int32, [2]> var_333 = const()[name = tensor<string, []>("op_333"), val = tensor<int32, [2]>([1, 1])];
            tensor<int32, [2]> var_335 = const()[name = tensor<string, []>("op_335"), val = tensor<int32, [2]>([1, 1])];
            tensor<string, []> x_31_pad_type_0 = const()[name = tensor<string, []>("x_31_pad_type_0"), val = tensor<string, []>("custom")];
            tensor<int32, [4]> x_31_pad_0 = const()[name = tensor<string, []>("x_31_pad_0"), val = tensor<int32, [4]>([1, 1, 1, 1])];
            tensor<fp16, [64, 64, 3, 3]> inner_model_unet_d_blocks_1_resblocks_0_conv2_weight_to_fp16 = const()[name = tensor<string, []>("inner_model_unet_d_blocks_1_resblocks_0_conv2_weight_to_fp16"), val = tensor<fp16, [64, 64, 3, 3]>(BLOBFILE(path = tensor<string, []>("@model_path/weights/weight.bin"), offset = tensor<uint64, []>(1122112)))];
            tensor<fp16, [64]> inner_model_unet_d_blocks_1_resblocks_0_conv2_bias_to_fp16 = const()[name = tensor<string, []>("inner_model_unet_d_blocks_1_resblocks_0_conv2_bias_to_fp16"), val = tensor<fp16, [64]>(BLOBFILE(path = tensor<string, []>("@model_path/weights/weight.bin"), offset = tensor<uint64, []>(1195904)))];
            tensor<fp16, [1, 64, 32, 32]> x_31_cast_fp16 = conv(bias = inner_model_unet_d_blocks_1_resblocks_0_conv2_bias_to_fp16, dilations = var_335, groups = var_77, pad = x_31_pad_0, pad_type = x_31_pad_type_0, strides = var_333, weight = inner_model_unet_d_blocks_1_resblocks_0_conv2_weight_to_fp16, x = input_39_cast_fp16)[name = tensor<string, []>("x_31_cast_fp16")];
            tensor<fp16, [1, 64, 32, 32]> x_33_cast_fp16 = add(x = x_31_cast_fp16, y = x_23_cast_fp16)[name = tensor<string, []>("x_33_cast_fp16")];
            tensor<int32, [5]> reshape_12_shape_0 = const()[name = tensor<string, []>("reshape_12_shape_0"), val = tensor<int32, [5]>([1, 2, 32, 32, 32])];
            tensor<fp16, [1, 2, 32, 32, 32]> reshape_12_cast_fp16 = reshape(shape = reshape_12_shape_0, x = x_33_cast_fp16)[name = tensor<string, []>("reshape_12_cast_fp16")];
            tensor<int32, [3]> reduce_mean_18_axes_0 = const()[name = tensor<string, []>("reduce_mean_18_axes_0"), val = tensor<int32, [3]>([2, 3, 4])];
            tensor<bool, []> reduce_mean_18_keep_dims_0 = const()[name = tensor<string, []>("reduce_mean_18_keep_dims_0"), val = tensor<bool, []>(true)];
            tensor<fp16, [1, 2, 1, 1, 1]> reduce_mean_18_cast_fp16 = reduce_mean(axes = reduce_mean_18_axes_0, keep_dims = reduce_mean_18_keep_dims_0, x = reshape_12_cast_fp16)[name = tensor<string, []>("reduce_mean_18_cast_fp16")];
            tensor<fp16, [1, 2, 32, 32, 32]> sub_12_cast_fp16 = sub(x = reshape_12_cast_fp16, y = reduce_mean_18_cast_fp16)[name = tensor<string, []>("sub_12_cast_fp16")];
            tensor<fp16, [1, 2, 32, 32, 32]> square_6_cast_fp16 = square(x = sub_12_cast_fp16)[name = tensor<string, []>("square_6_cast_fp16")];
            tensor<int32, [3]> reduce_mean_20_axes_0 = const()[name = tensor<string, []>("reduce_mean_20_axes_0"), val = tensor<int32, [3]>([2, 3, 4])];
            tensor<bool, []> reduce_mean_20_keep_dims_0 = const()[name = tensor<string, []>("reduce_mean_20_keep_dims_0"), val = tensor<bool, []>(true)];
            tensor<fp16, [1, 2, 1, 1, 1]> reduce_mean_20_cast_fp16 = reduce_mean(axes = reduce_mean_20_axes_0, keep_dims = reduce_mean_20_keep_dims_0, x = square_6_cast_fp16)[name = tensor<string, []>("reduce_mean_20_cast_fp16")];
            tensor<fp16, []> add_6_y_0_to_fp16 = const()[name = tensor<string, []>("add_6_y_0_to_fp16"), val = tensor<fp16, []>(0x1.5p-17)];
            tensor<fp16, [1, 2, 1, 1, 1]> add_6_cast_fp16 = add(x = reduce_mean_20_cast_fp16, y = add_6_y_0_to_fp16)[name = tensor<string, []>("add_6_cast_fp16")];
            tensor<fp16, [1, 2, 1, 1, 1]> sqrt_6_cast_fp16 = sqrt(x = add_6_cast_fp16)[name = tensor<string, []>("sqrt_6_cast_fp16")];
            tensor<fp16, [1, 2, 32, 32, 32]> real_div_6_cast_fp16 = real_div(x = sub_12_cast_fp16, y = sqrt_6_cast_fp16)[name = tensor<string, []>("real_div_6_cast_fp16")];
            tensor<int32, [4]> reshape_13_shape_0 = const()[name = tensor<string, []>("reshape_13_shape_0"), val = tensor<int32, [4]>([1, 64, 32, 32])];
            tensor<fp16, [1, 64, 32, 32]> reshape_13_cast_fp16 = reshape(shape = reshape_13_shape_0, x = real_div_6_cast_fp16)[name = tensor<string, []>("reshape_13_cast_fp16")];
            tensor<fp16, [128, 256]> inner_model_unet_d_blocks_1_resblocks_1_norm1_linear_weight_to_fp16 = const()[name = tensor<string, []>("inner_model_unet_d_blocks_1_resblocks_1_norm1_linear_weight_to_fp16"), val = tensor<fp16, [128, 256]>(BLOBFILE(path = tensor<string, []>("@model_path/weights/weight.bin"), offset = tensor<uint64, []>(1196096)))];
            tensor<fp16, [128]> inner_model_unet_d_blocks_1_resblocks_1_norm1_linear_bias_to_fp16 = const()[name = tensor<string, []>("inner_model_unet_d_blocks_1_resblocks_1_norm1_linear_bias_to_fp16"), val = tensor<fp16, [128]>(BLOBFILE(path = tensor<string, []>("@model_path/weights/weight.bin"), offset = tensor<uint64, []>(1261696)))];
            tensor<fp16, [1, 128]> linear_8_cast_fp16 = linear(bias = inner_model_unet_d_blocks_1_resblocks_1_norm1_linear_bias_to_fp16, weight = inner_model_unet_d_blocks_1_resblocks_1_norm1_linear_weight_to_fp16, x = linear_1_cast_fp16)[name = tensor<string, []>("linear_8_cast_fp16")];
            tensor<int32, [1]> var_350_axes_0 = const()[name = tensor<string, []>("op_350_axes_0"), val = tensor<int32, [1]>([2])];
            tensor<fp16, [1, 128, 1]> var_350_cast_fp16 = expand_dims(axes = var_350_axes_0, x = linear_8_cast_fp16)[name = tensor<string, []>("op_350_cast_fp16")];
            tensor<int32, [1]> var_351_axes_0 = const()[name = tensor<string, []>("op_351_axes_0"), val = tensor<int32, [1]>([3])];
            tensor<fp16, [1, 128, 1, 1]> var_351_cast_fp16 = expand_dims(axes = var_351_axes_0, x = var_350_cast_fp16)[name = tensor<string, []>("op_351_cast_fp16")];
            tensor<int32, [2]> var_352_split_sizes_0 = const()[name = tensor<string, []>("op_352_split_sizes_0"), val = tensor<int32, [2]>([64, 64])];
            tensor<int32, []> var_352_axis_0 = const()[name = tensor<string, []>("op_352_axis_0"), val = tensor<int32, []>(1)];
            tensor<fp16, [1, 64, 1, 1]> var_352_cast_fp16_0, tensor<fp16, [1, 64, 1, 1]> var_352_cast_fp16_1 = split(axis = var_352_axis_0, split_sizes = var_352_split_sizes_0, x = var_351_cast_fp16)[name = tensor<string, []>("op_352_cast_fp16")];
            tensor<fp16, []> var_354_promoted_to_fp16 = const()[name = tensor<string, []>("op_354_promoted_to_fp16"), val = tensor<fp16, []>(0x1p+0)];
            tensor<fp16, [1, 64, 1, 1]> var_355_cast_fp16 = add(x = var_352_cast_fp16_0, y = var_354_promoted_to_fp16)[name = tensor<string, []>("op_355_cast_fp16")];
            tensor<fp16, [1, 64, 32, 32]> var_356_cast_fp16 = mul(x = reshape_13_cast_fp16, y = var_355_cast_fp16)[name = tensor<string, []>("op_356_cast_fp16")];
            tensor<fp16, [1, 64, 32, 32]> input_41_cast_fp16 = add(x = var_356_cast_fp16, y = var_352_cast_fp16_1)[name = tensor<string, []>("input_41_cast_fp16")];
            tensor<fp16, [1, 64, 32, 32]> input_43_cast_fp16 = silu(x = input_41_cast_fp16)[name = tensor<string, []>("input_43_cast_fp16")];
            tensor<int32, [2]> var_361 = const()[name = tensor<string, []>("op_361"), val = tensor<int32, [2]>([1, 1])];
            tensor<int32, [2]> var_363 = const()[name = tensor<string, []>("op_363"), val = tensor<int32, [2]>([1, 1])];
            tensor<string, []> x_37_pad_type_0 = const()[name = tensor<string, []>("x_37_pad_type_0"), val = tensor<string, []>("custom")];
            tensor<int32, [4]> x_37_pad_0 = const()[name = tensor<string, []>("x_37_pad_0"), val = tensor<int32, [4]>([1, 1, 1, 1])];
            tensor<fp16, [64, 64, 3, 3]> inner_model_unet_d_blocks_1_resblocks_1_conv1_weight_to_fp16 = const()[name = tensor<string, []>("inner_model_unet_d_blocks_1_resblocks_1_conv1_weight_to_fp16"), val = tensor<fp16, [64, 64, 3, 3]>(BLOBFILE(path = tensor<string, []>("@model_path/weights/weight.bin"), offset = tensor<uint64, []>(1262016)))];
            tensor<fp16, [64]> inner_model_unet_d_blocks_1_resblocks_1_conv1_bias_to_fp16 = const()[name = tensor<string, []>("inner_model_unet_d_blocks_1_resblocks_1_conv1_bias_to_fp16"), val = tensor<fp16, [64]>(BLOBFILE(path = tensor<string, []>("@model_path/weights/weight.bin"), offset = tensor<uint64, []>(1335808)))];
            tensor<fp16, [1, 64, 32, 32]> x_37_cast_fp16 = conv(bias = inner_model_unet_d_blocks_1_resblocks_1_conv1_bias_to_fp16, dilations = var_363, groups = var_77, pad = x_37_pad_0, pad_type = x_37_pad_type_0, strides = var_361, weight = inner_model_unet_d_blocks_1_resblocks_1_conv1_weight_to_fp16, x = input_43_cast_fp16)[name = tensor<string, []>("x_37_cast_fp16")];
            tensor<int32, [5]> reshape_14_shape_0 = const()[name = tensor<string, []>("reshape_14_shape_0"), val = tensor<int32, [5]>([1, 2, 32, 32, 32])];
            tensor<fp16, [1, 2, 32, 32, 32]> reshape_14_cast_fp16 = reshape(shape = reshape_14_shape_0, x = x_37_cast_fp16)[name = tensor<string, []>("reshape_14_cast_fp16")];
            tensor<int32, [3]> reduce_mean_21_axes_0 = const()[name = tensor<string, []>("reduce_mean_21_axes_0"), val = tensor<int32, [3]>([2, 3, 4])];
            tensor<bool, []> reduce_mean_21_keep_dims_0 = const()[name = tensor<string, []>("reduce_mean_21_keep_dims_0"), val = tensor<bool, []>(true)];
            tensor<fp16, [1, 2, 1, 1, 1]> reduce_mean_21_cast_fp16 = reduce_mean(axes = reduce_mean_21_axes_0, keep_dims = reduce_mean_21_keep_dims_0, x = reshape_14_cast_fp16)[name = tensor<string, []>("reduce_mean_21_cast_fp16")];
            tensor<fp16, [1, 2, 32, 32, 32]> sub_14_cast_fp16 = sub(x = reshape_14_cast_fp16, y = reduce_mean_21_cast_fp16)[name = tensor<string, []>("sub_14_cast_fp16")];
            tensor<fp16, [1, 2, 32, 32, 32]> square_7_cast_fp16 = square(x = sub_14_cast_fp16)[name = tensor<string, []>("square_7_cast_fp16")];
            tensor<int32, [3]> reduce_mean_23_axes_0 = const()[name = tensor<string, []>("reduce_mean_23_axes_0"), val = tensor<int32, [3]>([2, 3, 4])];
            tensor<bool, []> reduce_mean_23_keep_dims_0 = const()[name = tensor<string, []>("reduce_mean_23_keep_dims_0"), val = tensor<bool, []>(true)];
            tensor<fp16, [1, 2, 1, 1, 1]> reduce_mean_23_cast_fp16 = reduce_mean(axes = reduce_mean_23_axes_0, keep_dims = reduce_mean_23_keep_dims_0, x = square_7_cast_fp16)[name = tensor<string, []>("reduce_mean_23_cast_fp16")];
            tensor<fp16, []> add_7_y_0_to_fp16 = const()[name = tensor<string, []>("add_7_y_0_to_fp16"), val = tensor<fp16, []>(0x1.5p-17)];
            tensor<fp16, [1, 2, 1, 1, 1]> add_7_cast_fp16 = add(x = reduce_mean_23_cast_fp16, y = add_7_y_0_to_fp16)[name = tensor<string, []>("add_7_cast_fp16")];
            tensor<fp16, [1, 2, 1, 1, 1]> sqrt_7_cast_fp16 = sqrt(x = add_7_cast_fp16)[name = tensor<string, []>("sqrt_7_cast_fp16")];
            tensor<fp16, [1, 2, 32, 32, 32]> real_div_7_cast_fp16 = real_div(x = sub_14_cast_fp16, y = sqrt_7_cast_fp16)[name = tensor<string, []>("real_div_7_cast_fp16")];
            tensor<int32, [4]> reshape_15_shape_0 = const()[name = tensor<string, []>("reshape_15_shape_0"), val = tensor<int32, [4]>([1, 64, 32, 32])];
            tensor<fp16, [1, 64, 32, 32]> reshape_15_cast_fp16 = reshape(shape = reshape_15_shape_0, x = real_div_7_cast_fp16)[name = tensor<string, []>("reshape_15_cast_fp16")];
            tensor<fp16, [128, 256]> inner_model_unet_d_blocks_1_resblocks_1_norm2_linear_weight_to_fp16 = const()[name = tensor<string, []>("inner_model_unet_d_blocks_1_resblocks_1_norm2_linear_weight_to_fp16"), val = tensor<fp16, [128, 256]>(BLOBFILE(path = tensor<string, []>("@model_path/weights/weight.bin"), offset = tensor<uint64, []>(1336000)))];
            tensor<fp16, [128]> inner_model_unet_d_blocks_1_resblocks_1_norm2_linear_bias_to_fp16 = const()[name = tensor<string, []>("inner_model_unet_d_blocks_1_resblocks_1_norm2_linear_bias_to_fp16"), val = tensor<fp16, [128]>(BLOBFILE(path = tensor<string, []>("@model_path/weights/weight.bin"), offset = tensor<uint64, []>(1401600)))];
            tensor<fp16, [1, 128]> linear_9_cast_fp16 = linear(bias = inner_model_unet_d_blocks_1_resblocks_1_norm2_linear_bias_to_fp16, weight = inner_model_unet_d_blocks_1_resblocks_1_norm2_linear_weight_to_fp16, x = linear_1_cast_fp16)[name = tensor<string, []>("linear_9_cast_fp16")];
            tensor<int32, [1]> var_373_axes_0 = const()[name = tensor<string, []>("op_373_axes_0"), val = tensor<int32, [1]>([2])];
            tensor<fp16, [1, 128, 1]> var_373_cast_fp16 = expand_dims(axes = var_373_axes_0, x = linear_9_cast_fp16)[name = tensor<string, []>("op_373_cast_fp16")];
            tensor<int32, [1]> var_374_axes_0 = const()[name = tensor<string, []>("op_374_axes_0"), val = tensor<int32, [1]>([3])];
            tensor<fp16, [1, 128, 1, 1]> var_374_cast_fp16 = expand_dims(axes = var_374_axes_0, x = var_373_cast_fp16)[name = tensor<string, []>("op_374_cast_fp16")];
            tensor<int32, [2]> var_375_split_sizes_0 = const()[name = tensor<string, []>("op_375_split_sizes_0"), val = tensor<int32, [2]>([64, 64])];
            tensor<int32, []> var_375_axis_0 = const()[name = tensor<string, []>("op_375_axis_0"), val = tensor<int32, []>(1)];
            tensor<fp16, [1, 64, 1, 1]> var_375_cast_fp16_0, tensor<fp16, [1, 64, 1, 1]> var_375_cast_fp16_1 = split(axis = var_375_axis_0, split_sizes = var_375_split_sizes_0, x = var_374_cast_fp16)[name = tensor<string, []>("op_375_cast_fp16")];
            tensor<fp16, []> var_377_promoted_to_fp16 = const()[name = tensor<string, []>("op_377_promoted_to_fp16"), val = tensor<fp16, []>(0x1p+0)];
            tensor<fp16, [1, 64, 1, 1]> var_378_cast_fp16 = add(x = var_375_cast_fp16_0, y = var_377_promoted_to_fp16)[name = tensor<string, []>("op_378_cast_fp16")];
            tensor<fp16, [1, 64, 32, 32]> var_379_cast_fp16 = mul(x = reshape_15_cast_fp16, y = var_378_cast_fp16)[name = tensor<string, []>("op_379_cast_fp16")];
            tensor<fp16, [1, 64, 32, 32]> input_45_cast_fp16 = add(x = var_379_cast_fp16, y = var_375_cast_fp16_1)[name = tensor<string, []>("input_45_cast_fp16")];
            tensor<fp16, [1, 64, 32, 32]> input_47_cast_fp16 = silu(x = input_45_cast_fp16)[name = tensor<string, []>("input_47_cast_fp16")];
            tensor<int32, [2]> var_384 = const()[name = tensor<string, []>("op_384"), val = tensor<int32, [2]>([1, 1])];
            tensor<int32, [2]> var_386 = const()[name = tensor<string, []>("op_386"), val = tensor<int32, [2]>([1, 1])];
            tensor<string, []> x_41_pad_type_0 = const()[name = tensor<string, []>("x_41_pad_type_0"), val = tensor<string, []>("custom")];
            tensor<int32, [4]> x_41_pad_0 = const()[name = tensor<string, []>("x_41_pad_0"), val = tensor<int32, [4]>([1, 1, 1, 1])];
            tensor<fp16, [64, 64, 3, 3]> inner_model_unet_d_blocks_1_resblocks_1_conv2_weight_to_fp16 = const()[name = tensor<string, []>("inner_model_unet_d_blocks_1_resblocks_1_conv2_weight_to_fp16"), val = tensor<fp16, [64, 64, 3, 3]>(BLOBFILE(path = tensor<string, []>("@model_path/weights/weight.bin"), offset = tensor<uint64, []>(1401920)))];
            tensor<fp16, [64]> inner_model_unet_d_blocks_1_resblocks_1_conv2_bias_to_fp16 = const()[name = tensor<string, []>("inner_model_unet_d_blocks_1_resblocks_1_conv2_bias_to_fp16"), val = tensor<fp16, [64]>(BLOBFILE(path = tensor<string, []>("@model_path/weights/weight.bin"), offset = tensor<uint64, []>(1475712)))];
            tensor<fp16, [1, 64, 32, 32]> x_41_cast_fp16 = conv(bias = inner_model_unet_d_blocks_1_resblocks_1_conv2_bias_to_fp16, dilations = var_386, groups = var_77, pad = x_41_pad_0, pad_type = x_41_pad_type_0, strides = var_384, weight = inner_model_unet_d_blocks_1_resblocks_1_conv2_weight_to_fp16, x = input_47_cast_fp16)[name = tensor<string, []>("x_41_cast_fp16")];
            tensor<fp16, [1, 64, 32, 32]> input_49_cast_fp16 = add(x = x_41_cast_fp16, y = x_33_cast_fp16)[name = tensor<string, []>("input_49_cast_fp16")];
            tensor<int32, [2]> var_396 = const()[name = tensor<string, []>("op_396"), val = tensor<int32, [2]>([2, 2])];
            tensor<int32, [2]> var_398 = const()[name = tensor<string, []>("op_398"), val = tensor<int32, [2]>([1, 1])];
            tensor<string, []> x_43_pad_type_0 = const()[name = tensor<string, []>("x_43_pad_type_0"), val = tensor<string, []>("custom")];
            tensor<int32, [4]> x_43_pad_0 = const()[name = tensor<string, []>("x_43_pad_0"), val = tensor<int32, [4]>([1, 1, 1, 1])];
            tensor<fp16, [64, 64, 3, 3]> inner_model_unet_downsamples_2_conv_weight_to_fp16 = const()[name = tensor<string, []>("inner_model_unet_downsamples_2_conv_weight_to_fp16"), val = tensor<fp16, [64, 64, 3, 3]>(BLOBFILE(path = tensor<string, []>("@model_path/weights/weight.bin"), offset = tensor<uint64, []>(1475904)))];
            tensor<fp16, [64]> inner_model_unet_downsamples_2_conv_bias_to_fp16 = const()[name = tensor<string, []>("inner_model_unet_downsamples_2_conv_bias_to_fp16"), val = tensor<fp16, [64]>(BLOBFILE(path = tensor<string, []>("@model_path/weights/weight.bin"), offset = tensor<uint64, []>(1549696)))];
            tensor<fp16, [1, 64, 16, 16]> x_43_cast_fp16 = conv(bias = inner_model_unet_downsamples_2_conv_bias_to_fp16, dilations = var_398, groups = var_77, pad = x_43_pad_0, pad_type = x_43_pad_type_0, strides = var_396, weight = inner_model_unet_downsamples_2_conv_weight_to_fp16, x = input_49_cast_fp16)[name = tensor<string, []>("x_43_cast_fp16")];
            tensor<int32, [5]> reshape_16_shape_0 = const()[name = tensor<string, []>("reshape_16_shape_0"), val = tensor<int32, [5]>([1, 2, 32, 16, 16])];
            tensor<fp16, [1, 2, 32, 16, 16]> reshape_16_cast_fp16 = reshape(shape = reshape_16_shape_0, x = x_43_cast_fp16)[name = tensor<string, []>("reshape_16_cast_fp16")];
            tensor<int32, [3]> reduce_mean_24_axes_0 = const()[name = tensor<string, []>("reduce_mean_24_axes_0"), val = tensor<int32, [3]>([2, 3, 4])];
            tensor<bool, []> reduce_mean_24_keep_dims_0 = const()[name = tensor<string, []>("reduce_mean_24_keep_dims_0"), val = tensor<bool, []>(true)];
            tensor<fp16, [1, 2, 1, 1, 1]> reduce_mean_24_cast_fp16 = reduce_mean(axes = reduce_mean_24_axes_0, keep_dims = reduce_mean_24_keep_dims_0, x = reshape_16_cast_fp16)[name = tensor<string, []>("reduce_mean_24_cast_fp16")];
            tensor<fp16, [1, 2, 32, 16, 16]> sub_16_cast_fp16 = sub(x = reshape_16_cast_fp16, y = reduce_mean_24_cast_fp16)[name = tensor<string, []>("sub_16_cast_fp16")];
            tensor<fp16, [1, 2, 32, 16, 16]> square_8_cast_fp16 = square(x = sub_16_cast_fp16)[name = tensor<string, []>("square_8_cast_fp16")];
            tensor<int32, [3]> reduce_mean_26_axes_0 = const()[name = tensor<string, []>("reduce_mean_26_axes_0"), val = tensor<int32, [3]>([2, 3, 4])];
            tensor<bool, []> reduce_mean_26_keep_dims_0 = const()[name = tensor<string, []>("reduce_mean_26_keep_dims_0"), val = tensor<bool, []>(true)];
            tensor<fp16, [1, 2, 1, 1, 1]> reduce_mean_26_cast_fp16 = reduce_mean(axes = reduce_mean_26_axes_0, keep_dims = reduce_mean_26_keep_dims_0, x = square_8_cast_fp16)[name = tensor<string, []>("reduce_mean_26_cast_fp16")];
            tensor<fp16, []> add_8_y_0_to_fp16 = const()[name = tensor<string, []>("add_8_y_0_to_fp16"), val = tensor<fp16, []>(0x1.5p-17)];
            tensor<fp16, [1, 2, 1, 1, 1]> add_8_cast_fp16 = add(x = reduce_mean_26_cast_fp16, y = add_8_y_0_to_fp16)[name = tensor<string, []>("add_8_cast_fp16")];
            tensor<fp16, [1, 2, 1, 1, 1]> sqrt_8_cast_fp16 = sqrt(x = add_8_cast_fp16)[name = tensor<string, []>("sqrt_8_cast_fp16")];
            tensor<fp16, [1, 2, 32, 16, 16]> real_div_8_cast_fp16 = real_div(x = sub_16_cast_fp16, y = sqrt_8_cast_fp16)[name = tensor<string, []>("real_div_8_cast_fp16")];
            tensor<int32, [4]> reshape_17_shape_0 = const()[name = tensor<string, []>("reshape_17_shape_0"), val = tensor<int32, [4]>([1, 64, 16, 16])];
            tensor<fp16, [1, 64, 16, 16]> reshape_17_cast_fp16 = reshape(shape = reshape_17_shape_0, x = real_div_8_cast_fp16)[name = tensor<string, []>("reshape_17_cast_fp16")];
            tensor<fp16, [128, 256]> inner_model_unet_d_blocks_2_resblocks_0_norm1_linear_weight_to_fp16 = const()[name = tensor<string, []>("inner_model_unet_d_blocks_2_resblocks_0_norm1_linear_weight_to_fp16"), val = tensor<fp16, [128, 256]>(BLOBFILE(path = tensor<string, []>("@model_path/weights/weight.bin"), offset = tensor<uint64, []>(1549888)))];
            tensor<fp16, [128]> inner_model_unet_d_blocks_2_resblocks_0_norm1_linear_bias_to_fp16 = const()[name = tensor<string, []>("inner_model_unet_d_blocks_2_resblocks_0_norm1_linear_bias_to_fp16"), val = tensor<fp16, [128]>(BLOBFILE(path = tensor<string, []>("@model_path/weights/weight.bin"), offset = tensor<uint64, []>(1615488)))];
            tensor<fp16, [1, 128]> linear_10_cast_fp16 = linear(bias = inner_model_unet_d_blocks_2_resblocks_0_norm1_linear_bias_to_fp16, weight = inner_model_unet_d_blocks_2_resblocks_0_norm1_linear_weight_to_fp16, x = linear_1_cast_fp16)[name = tensor<string, []>("linear_10_cast_fp16")];
            tensor<int32, [1]> var_416_axes_0 = const()[name = tensor<string, []>("op_416_axes_0"), val = tensor<int32, [1]>([2])];
            tensor<fp16, [1, 128, 1]> var_416_cast_fp16 = expand_dims(axes = var_416_axes_0, x = linear_10_cast_fp16)[name = tensor<string, []>("op_416_cast_fp16")];
            tensor<int32, [1]> var_417_axes_0 = const()[name = tensor<string, []>("op_417_axes_0"), val = tensor<int32, [1]>([3])];
            tensor<fp16, [1, 128, 1, 1]> var_417_cast_fp16 = expand_dims(axes = var_417_axes_0, x = var_416_cast_fp16)[name = tensor<string, []>("op_417_cast_fp16")];
            tensor<int32, [2]> var_418_split_sizes_0 = const()[name = tensor<string, []>("op_418_split_sizes_0"), val = tensor<int32, [2]>([64, 64])];
            tensor<int32, []> var_418_axis_0 = const()[name = tensor<string, []>("op_418_axis_0"), val = tensor<int32, []>(1)];
            tensor<fp16, [1, 64, 1, 1]> var_418_cast_fp16_0, tensor<fp16, [1, 64, 1, 1]> var_418_cast_fp16_1 = split(axis = var_418_axis_0, split_sizes = var_418_split_sizes_0, x = var_417_cast_fp16)[name = tensor<string, []>("op_418_cast_fp16")];
            tensor<fp16, []> var_420_promoted_to_fp16 = const()[name = tensor<string, []>("op_420_promoted_to_fp16"), val = tensor<fp16, []>(0x1p+0)];
            tensor<fp16, [1, 64, 1, 1]> var_421_cast_fp16 = add(x = var_418_cast_fp16_0, y = var_420_promoted_to_fp16)[name = tensor<string, []>("op_421_cast_fp16")];
            tensor<fp16, [1, 64, 16, 16]> var_422_cast_fp16 = mul(x = reshape_17_cast_fp16, y = var_421_cast_fp16)[name = tensor<string, []>("op_422_cast_fp16")];
            tensor<fp16, [1, 64, 16, 16]> input_51_cast_fp16 = add(x = var_422_cast_fp16, y = var_418_cast_fp16_1)[name = tensor<string, []>("input_51_cast_fp16")];
            tensor<fp16, [1, 64, 16, 16]> input_53_cast_fp16 = silu(x = input_51_cast_fp16)[name = tensor<string, []>("input_53_cast_fp16")];
            tensor<int32, [2]> var_427 = const()[name = tensor<string, []>("op_427"), val = tensor<int32, [2]>([1, 1])];
            tensor<int32, [2]> var_429 = const()[name = tensor<string, []>("op_429"), val = tensor<int32, [2]>([1, 1])];
            tensor<string, []> x_47_pad_type_0 = const()[name = tensor<string, []>("x_47_pad_type_0"), val = tensor<string, []>("custom")];
            tensor<int32, [4]> x_47_pad_0 = const()[name = tensor<string, []>("x_47_pad_0"), val = tensor<int32, [4]>([1, 1, 1, 1])];
            tensor<fp16, [64, 64, 3, 3]> inner_model_unet_d_blocks_2_resblocks_0_conv1_weight_to_fp16 = const()[name = tensor<string, []>("inner_model_unet_d_blocks_2_resblocks_0_conv1_weight_to_fp16"), val = tensor<fp16, [64, 64, 3, 3]>(BLOBFILE(path = tensor<string, []>("@model_path/weights/weight.bin"), offset = tensor<uint64, []>(1615808)))];
            tensor<fp16, [64]> inner_model_unet_d_blocks_2_resblocks_0_conv1_bias_to_fp16 = const()[name = tensor<string, []>("inner_model_unet_d_blocks_2_resblocks_0_conv1_bias_to_fp16"), val = tensor<fp16, [64]>(BLOBFILE(path = tensor<string, []>("@model_path/weights/weight.bin"), offset = tensor<uint64, []>(1689600)))];
            tensor<fp16, [1, 64, 16, 16]> x_47_cast_fp16 = conv(bias = inner_model_unet_d_blocks_2_resblocks_0_conv1_bias_to_fp16, dilations = var_429, groups = var_77, pad = x_47_pad_0, pad_type = x_47_pad_type_0, strides = var_427, weight = inner_model_unet_d_blocks_2_resblocks_0_conv1_weight_to_fp16, x = input_53_cast_fp16)[name = tensor<string, []>("x_47_cast_fp16")];
            tensor<int32, [5]> reshape_18_shape_0 = const()[name = tensor<string, []>("reshape_18_shape_0"), val = tensor<int32, [5]>([1, 2, 32, 16, 16])];
            tensor<fp16, [1, 2, 32, 16, 16]> reshape_18_cast_fp16 = reshape(shape = reshape_18_shape_0, x = x_47_cast_fp16)[name = tensor<string, []>("reshape_18_cast_fp16")];
            tensor<int32, [3]> reduce_mean_27_axes_0 = const()[name = tensor<string, []>("reduce_mean_27_axes_0"), val = tensor<int32, [3]>([2, 3, 4])];
            tensor<bool, []> reduce_mean_27_keep_dims_0 = const()[name = tensor<string, []>("reduce_mean_27_keep_dims_0"), val = tensor<bool, []>(true)];
            tensor<fp16, [1, 2, 1, 1, 1]> reduce_mean_27_cast_fp16 = reduce_mean(axes = reduce_mean_27_axes_0, keep_dims = reduce_mean_27_keep_dims_0, x = reshape_18_cast_fp16)[name = tensor<string, []>("reduce_mean_27_cast_fp16")];
            tensor<fp16, [1, 2, 32, 16, 16]> sub_18_cast_fp16 = sub(x = reshape_18_cast_fp16, y = reduce_mean_27_cast_fp16)[name = tensor<string, []>("sub_18_cast_fp16")];
            tensor<fp16, [1, 2, 32, 16, 16]> square_9_cast_fp16 = square(x = sub_18_cast_fp16)[name = tensor<string, []>("square_9_cast_fp16")];
            tensor<int32, [3]> reduce_mean_29_axes_0 = const()[name = tensor<string, []>("reduce_mean_29_axes_0"), val = tensor<int32, [3]>([2, 3, 4])];
            tensor<bool, []> reduce_mean_29_keep_dims_0 = const()[name = tensor<string, []>("reduce_mean_29_keep_dims_0"), val = tensor<bool, []>(true)];
            tensor<fp16, [1, 2, 1, 1, 1]> reduce_mean_29_cast_fp16 = reduce_mean(axes = reduce_mean_29_axes_0, keep_dims = reduce_mean_29_keep_dims_0, x = square_9_cast_fp16)[name = tensor<string, []>("reduce_mean_29_cast_fp16")];
            tensor<fp16, []> add_9_y_0_to_fp16 = const()[name = tensor<string, []>("add_9_y_0_to_fp16"), val = tensor<fp16, []>(0x1.5p-17)];
            tensor<fp16, [1, 2, 1, 1, 1]> add_9_cast_fp16 = add(x = reduce_mean_29_cast_fp16, y = add_9_y_0_to_fp16)[name = tensor<string, []>("add_9_cast_fp16")];
            tensor<fp16, [1, 2, 1, 1, 1]> sqrt_9_cast_fp16 = sqrt(x = add_9_cast_fp16)[name = tensor<string, []>("sqrt_9_cast_fp16")];
            tensor<fp16, [1, 2, 32, 16, 16]> real_div_9_cast_fp16 = real_div(x = sub_18_cast_fp16, y = sqrt_9_cast_fp16)[name = tensor<string, []>("real_div_9_cast_fp16")];
            tensor<int32, [4]> reshape_19_shape_0 = const()[name = tensor<string, []>("reshape_19_shape_0"), val = tensor<int32, [4]>([1, 64, 16, 16])];
            tensor<fp16, [1, 64, 16, 16]> reshape_19_cast_fp16 = reshape(shape = reshape_19_shape_0, x = real_div_9_cast_fp16)[name = tensor<string, []>("reshape_19_cast_fp16")];
            tensor<fp16, [128, 256]> inner_model_unet_d_blocks_2_resblocks_0_norm2_linear_weight_to_fp16 = const()[name = tensor<string, []>("inner_model_unet_d_blocks_2_resblocks_0_norm2_linear_weight_to_fp16"), val = tensor<fp16, [128, 256]>(BLOBFILE(path = tensor<string, []>("@model_path/weights/weight.bin"), offset = tensor<uint64, []>(1689792)))];
            tensor<fp16, [128]> inner_model_unet_d_blocks_2_resblocks_0_norm2_linear_bias_to_fp16 = const()[name = tensor<string, []>("inner_model_unet_d_blocks_2_resblocks_0_norm2_linear_bias_to_fp16"), val = tensor<fp16, [128]>(BLOBFILE(path = tensor<string, []>("@model_path/weights/weight.bin"), offset = tensor<uint64, []>(1755392)))];
            tensor<fp16, [1, 128]> linear_11_cast_fp16 = linear(bias = inner_model_unet_d_blocks_2_resblocks_0_norm2_linear_bias_to_fp16, weight = inner_model_unet_d_blocks_2_resblocks_0_norm2_linear_weight_to_fp16, x = linear_1_cast_fp16)[name = tensor<string, []>("linear_11_cast_fp16")];
            tensor<int32, [1]> var_439_axes_0 = const()[name = tensor<string, []>("op_439_axes_0"), val = tensor<int32, [1]>([2])];
            tensor<fp16, [1, 128, 1]> var_439_cast_fp16 = expand_dims(axes = var_439_axes_0, x = linear_11_cast_fp16)[name = tensor<string, []>("op_439_cast_fp16")];
            tensor<int32, [1]> var_440_axes_0 = const()[name = tensor<string, []>("op_440_axes_0"), val = tensor<int32, [1]>([3])];
            tensor<fp16, [1, 128, 1, 1]> var_440_cast_fp16 = expand_dims(axes = var_440_axes_0, x = var_439_cast_fp16)[name = tensor<string, []>("op_440_cast_fp16")];
            tensor<int32, [2]> var_441_split_sizes_0 = const()[name = tensor<string, []>("op_441_split_sizes_0"), val = tensor<int32, [2]>([64, 64])];
            tensor<int32, []> var_441_axis_0 = const()[name = tensor<string, []>("op_441_axis_0"), val = tensor<int32, []>(1)];
            tensor<fp16, [1, 64, 1, 1]> var_441_cast_fp16_0, tensor<fp16, [1, 64, 1, 1]> var_441_cast_fp16_1 = split(axis = var_441_axis_0, split_sizes = var_441_split_sizes_0, x = var_440_cast_fp16)[name = tensor<string, []>("op_441_cast_fp16")];
            tensor<fp16, []> var_443_promoted_to_fp16 = const()[name = tensor<string, []>("op_443_promoted_to_fp16"), val = tensor<fp16, []>(0x1p+0)];
            tensor<fp16, [1, 64, 1, 1]> var_444_cast_fp16 = add(x = var_441_cast_fp16_0, y = var_443_promoted_to_fp16)[name = tensor<string, []>("op_444_cast_fp16")];
            tensor<fp16, [1, 64, 16, 16]> var_445_cast_fp16 = mul(x = reshape_19_cast_fp16, y = var_444_cast_fp16)[name = tensor<string, []>("op_445_cast_fp16")];
            tensor<fp16, [1, 64, 16, 16]> input_55_cast_fp16 = add(x = var_445_cast_fp16, y = var_441_cast_fp16_1)[name = tensor<string, []>("input_55_cast_fp16")];
            tensor<fp16, [1, 64, 16, 16]> input_57_cast_fp16 = silu(x = input_55_cast_fp16)[name = tensor<string, []>("input_57_cast_fp16")];
            tensor<int32, [2]> var_450 = const()[name = tensor<string, []>("op_450"), val = tensor<int32, [2]>([1, 1])];
            tensor<int32, [2]> var_452 = const()[name = tensor<string, []>("op_452"), val = tensor<int32, [2]>([1, 1])];
            tensor<string, []> x_51_pad_type_0 = const()[name = tensor<string, []>("x_51_pad_type_0"), val = tensor<string, []>("custom")];
            tensor<int32, [4]> x_51_pad_0 = const()[name = tensor<string, []>("x_51_pad_0"), val = tensor<int32, [4]>([1, 1, 1, 1])];
            tensor<fp16, [64, 64, 3, 3]> inner_model_unet_d_blocks_2_resblocks_0_conv2_weight_to_fp16 = const()[name = tensor<string, []>("inner_model_unet_d_blocks_2_resblocks_0_conv2_weight_to_fp16"), val = tensor<fp16, [64, 64, 3, 3]>(BLOBFILE(path = tensor<string, []>("@model_path/weights/weight.bin"), offset = tensor<uint64, []>(1755712)))];
            tensor<fp16, [64]> inner_model_unet_d_blocks_2_resblocks_0_conv2_bias_to_fp16 = const()[name = tensor<string, []>("inner_model_unet_d_blocks_2_resblocks_0_conv2_bias_to_fp16"), val = tensor<fp16, [64]>(BLOBFILE(path = tensor<string, []>("@model_path/weights/weight.bin"), offset = tensor<uint64, []>(1829504)))];
            tensor<fp16, [1, 64, 16, 16]> x_51_cast_fp16 = conv(bias = inner_model_unet_d_blocks_2_resblocks_0_conv2_bias_to_fp16, dilations = var_452, groups = var_77, pad = x_51_pad_0, pad_type = x_51_pad_type_0, strides = var_450, weight = inner_model_unet_d_blocks_2_resblocks_0_conv2_weight_to_fp16, x = input_57_cast_fp16)[name = tensor<string, []>("x_51_cast_fp16")];
            tensor<fp16, [1, 64, 16, 16]> x_53_cast_fp16 = add(x = x_51_cast_fp16, y = x_43_cast_fp16)[name = tensor<string, []>("x_53_cast_fp16")];
            tensor<int32, [5]> reshape_20_shape_0 = const()[name = tensor<string, []>("reshape_20_shape_0"), val = tensor<int32, [5]>([1, 2, 32, 16, 16])];
            tensor<fp16, [1, 2, 32, 16, 16]> reshape_20_cast_fp16 = reshape(shape = reshape_20_shape_0, x = x_53_cast_fp16)[name = tensor<string, []>("reshape_20_cast_fp16")];
            tensor<int32, [3]> reduce_mean_30_axes_0 = const()[name = tensor<string, []>("reduce_mean_30_axes_0"), val = tensor<int32, [3]>([2, 3, 4])];
            tensor<bool, []> reduce_mean_30_keep_dims_0 = const()[name = tensor<string, []>("reduce_mean_30_keep_dims_0"), val = tensor<bool, []>(true)];
            tensor<fp16, [1, 2, 1, 1, 1]> reduce_mean_30_cast_fp16 = reduce_mean(axes = reduce_mean_30_axes_0, keep_dims = reduce_mean_30_keep_dims_0, x = reshape_20_cast_fp16)[name = tensor<string, []>("reduce_mean_30_cast_fp16")];
            tensor<fp16, [1, 2, 32, 16, 16]> sub_20_cast_fp16 = sub(x = reshape_20_cast_fp16, y = reduce_mean_30_cast_fp16)[name = tensor<string, []>("sub_20_cast_fp16")];
            tensor<fp16, [1, 2, 32, 16, 16]> square_10_cast_fp16 = square(x = sub_20_cast_fp16)[name = tensor<string, []>("square_10_cast_fp16")];
            tensor<int32, [3]> reduce_mean_32_axes_0 = const()[name = tensor<string, []>("reduce_mean_32_axes_0"), val = tensor<int32, [3]>([2, 3, 4])];
            tensor<bool, []> reduce_mean_32_keep_dims_0 = const()[name = tensor<string, []>("reduce_mean_32_keep_dims_0"), val = tensor<bool, []>(true)];
            tensor<fp16, [1, 2, 1, 1, 1]> reduce_mean_32_cast_fp16 = reduce_mean(axes = reduce_mean_32_axes_0, keep_dims = reduce_mean_32_keep_dims_0, x = square_10_cast_fp16)[name = tensor<string, []>("reduce_mean_32_cast_fp16")];
            tensor<fp16, []> add_10_y_0_to_fp16 = const()[name = tensor<string, []>("add_10_y_0_to_fp16"), val = tensor<fp16, []>(0x1.5p-17)];
            tensor<fp16, [1, 2, 1, 1, 1]> add_10_cast_fp16 = add(x = reduce_mean_32_cast_fp16, y = add_10_y_0_to_fp16)[name = tensor<string, []>("add_10_cast_fp16")];
            tensor<fp16, [1, 2, 1, 1, 1]> sqrt_10_cast_fp16 = sqrt(x = add_10_cast_fp16)[name = tensor<string, []>("sqrt_10_cast_fp16")];
            tensor<fp16, [1, 2, 32, 16, 16]> real_div_10_cast_fp16 = real_div(x = sub_20_cast_fp16, y = sqrt_10_cast_fp16)[name = tensor<string, []>("real_div_10_cast_fp16")];
            tensor<int32, [4]> reshape_21_shape_0 = const()[name = tensor<string, []>("reshape_21_shape_0"), val = tensor<int32, [4]>([1, 64, 16, 16])];
            tensor<fp16, [1, 64, 16, 16]> reshape_21_cast_fp16 = reshape(shape = reshape_21_shape_0, x = real_div_10_cast_fp16)[name = tensor<string, []>("reshape_21_cast_fp16")];
            tensor<fp16, [128, 256]> inner_model_unet_d_blocks_2_resblocks_1_norm1_linear_weight_to_fp16 = const()[name = tensor<string, []>("inner_model_unet_d_blocks_2_resblocks_1_norm1_linear_weight_to_fp16"), val = tensor<fp16, [128, 256]>(BLOBFILE(path = tensor<string, []>("@model_path/weights/weight.bin"), offset = tensor<uint64, []>(1829696)))];
            tensor<fp16, [128]> inner_model_unet_d_blocks_2_resblocks_1_norm1_linear_bias_to_fp16 = const()[name = tensor<string, []>("inner_model_unet_d_blocks_2_resblocks_1_norm1_linear_bias_to_fp16"), val = tensor<fp16, [128]>(BLOBFILE(path = tensor<string, []>("@model_path/weights/weight.bin"), offset = tensor<uint64, []>(1895296)))];
            tensor<fp16, [1, 128]> linear_12_cast_fp16 = linear(bias = inner_model_unet_d_blocks_2_resblocks_1_norm1_linear_bias_to_fp16, weight = inner_model_unet_d_blocks_2_resblocks_1_norm1_linear_weight_to_fp16, x = linear_1_cast_fp16)[name = tensor<string, []>("linear_12_cast_fp16")];
            tensor<int32, [1]> var_467_axes_0 = const()[name = tensor<string, []>("op_467_axes_0"), val = tensor<int32, [1]>([2])];
            tensor<fp16, [1, 128, 1]> var_467_cast_fp16 = expand_dims(axes = var_467_axes_0, x = linear_12_cast_fp16)[name = tensor<string, []>("op_467_cast_fp16")];
            tensor<int32, [1]> var_468_axes_0 = const()[name = tensor<string, []>("op_468_axes_0"), val = tensor<int32, [1]>([3])];
            tensor<fp16, [1, 128, 1, 1]> var_468_cast_fp16 = expand_dims(axes = var_468_axes_0, x = var_467_cast_fp16)[name = tensor<string, []>("op_468_cast_fp16")];
            tensor<int32, [2]> var_469_split_sizes_0 = const()[name = tensor<string, []>("op_469_split_sizes_0"), val = tensor<int32, [2]>([64, 64])];
            tensor<int32, []> var_469_axis_0 = const()[name = tensor<string, []>("op_469_axis_0"), val = tensor<int32, []>(1)];
            tensor<fp16, [1, 64, 1, 1]> var_469_cast_fp16_0, tensor<fp16, [1, 64, 1, 1]> var_469_cast_fp16_1 = split(axis = var_469_axis_0, split_sizes = var_469_split_sizes_0, x = var_468_cast_fp16)[name = tensor<string, []>("op_469_cast_fp16")];
            tensor<fp16, []> var_471_promoted_to_fp16 = const()[name = tensor<string, []>("op_471_promoted_to_fp16"), val = tensor<fp16, []>(0x1p+0)];
            tensor<fp16, [1, 64, 1, 1]> var_472_cast_fp16 = add(x = var_469_cast_fp16_0, y = var_471_promoted_to_fp16)[name = tensor<string, []>("op_472_cast_fp16")];
            tensor<fp16, [1, 64, 16, 16]> var_473_cast_fp16 = mul(x = reshape_21_cast_fp16, y = var_472_cast_fp16)[name = tensor<string, []>("op_473_cast_fp16")];
            tensor<fp16, [1, 64, 16, 16]> input_59_cast_fp16 = add(x = var_473_cast_fp16, y = var_469_cast_fp16_1)[name = tensor<string, []>("input_59_cast_fp16")];
            tensor<fp16, [1, 64, 16, 16]> input_61_cast_fp16 = silu(x = input_59_cast_fp16)[name = tensor<string, []>("input_61_cast_fp16")];
            tensor<int32, [2]> var_478 = const()[name = tensor<string, []>("op_478"), val = tensor<int32, [2]>([1, 1])];
            tensor<int32, [2]> var_480 = const()[name = tensor<string, []>("op_480"), val = tensor<int32, [2]>([1, 1])];
            tensor<string, []> x_57_pad_type_0 = const()[name = tensor<string, []>("x_57_pad_type_0"), val = tensor<string, []>("custom")];
            tensor<int32, [4]> x_57_pad_0 = const()[name = tensor<string, []>("x_57_pad_0"), val = tensor<int32, [4]>([1, 1, 1, 1])];
            tensor<fp16, [64, 64, 3, 3]> inner_model_unet_d_blocks_2_resblocks_1_conv1_weight_to_fp16 = const()[name = tensor<string, []>("inner_model_unet_d_blocks_2_resblocks_1_conv1_weight_to_fp16"), val = tensor<fp16, [64, 64, 3, 3]>(BLOBFILE(path = tensor<string, []>("@model_path/weights/weight.bin"), offset = tensor<uint64, []>(1895616)))];
            tensor<fp16, [64]> inner_model_unet_d_blocks_2_resblocks_1_conv1_bias_to_fp16 = const()[name = tensor<string, []>("inner_model_unet_d_blocks_2_resblocks_1_conv1_bias_to_fp16"), val = tensor<fp16, [64]>(BLOBFILE(path = tensor<string, []>("@model_path/weights/weight.bin"), offset = tensor<uint64, []>(1969408)))];
            tensor<fp16, [1, 64, 16, 16]> x_57_cast_fp16 = conv(bias = inner_model_unet_d_blocks_2_resblocks_1_conv1_bias_to_fp16, dilations = var_480, groups = var_77, pad = x_57_pad_0, pad_type = x_57_pad_type_0, strides = var_478, weight = inner_model_unet_d_blocks_2_resblocks_1_conv1_weight_to_fp16, x = input_61_cast_fp16)[name = tensor<string, []>("x_57_cast_fp16")];
            tensor<int32, [5]> reshape_22_shape_0 = const()[name = tensor<string, []>("reshape_22_shape_0"), val = tensor<int32, [5]>([1, 2, 32, 16, 16])];
            tensor<fp16, [1, 2, 32, 16, 16]> reshape_22_cast_fp16 = reshape(shape = reshape_22_shape_0, x = x_57_cast_fp16)[name = tensor<string, []>("reshape_22_cast_fp16")];
            tensor<int32, [3]> reduce_mean_33_axes_0 = const()[name = tensor<string, []>("reduce_mean_33_axes_0"), val = tensor<int32, [3]>([2, 3, 4])];
            tensor<bool, []> reduce_mean_33_keep_dims_0 = const()[name = tensor<string, []>("reduce_mean_33_keep_dims_0"), val = tensor<bool, []>(true)];
            tensor<fp16, [1, 2, 1, 1, 1]> reduce_mean_33_cast_fp16 = reduce_mean(axes = reduce_mean_33_axes_0, keep_dims = reduce_mean_33_keep_dims_0, x = reshape_22_cast_fp16)[name = tensor<string, []>("reduce_mean_33_cast_fp16")];
            tensor<fp16, [1, 2, 32, 16, 16]> sub_22_cast_fp16 = sub(x = reshape_22_cast_fp16, y = reduce_mean_33_cast_fp16)[name = tensor<string, []>("sub_22_cast_fp16")];
            tensor<fp16, [1, 2, 32, 16, 16]> square_11_cast_fp16 = square(x = sub_22_cast_fp16)[name = tensor<string, []>("square_11_cast_fp16")];
            tensor<int32, [3]> reduce_mean_35_axes_0 = const()[name = tensor<string, []>("reduce_mean_35_axes_0"), val = tensor<int32, [3]>([2, 3, 4])];
            tensor<bool, []> reduce_mean_35_keep_dims_0 = const()[name = tensor<string, []>("reduce_mean_35_keep_dims_0"), val = tensor<bool, []>(true)];
            tensor<fp16, [1, 2, 1, 1, 1]> reduce_mean_35_cast_fp16 = reduce_mean(axes = reduce_mean_35_axes_0, keep_dims = reduce_mean_35_keep_dims_0, x = square_11_cast_fp16)[name = tensor<string, []>("reduce_mean_35_cast_fp16")];
            tensor<fp16, []> add_11_y_0_to_fp16 = const()[name = tensor<string, []>("add_11_y_0_to_fp16"), val = tensor<fp16, []>(0x1.5p-17)];
            tensor<fp16, [1, 2, 1, 1, 1]> add_11_cast_fp16 = add(x = reduce_mean_35_cast_fp16, y = add_11_y_0_to_fp16)[name = tensor<string, []>("add_11_cast_fp16")];
            tensor<fp16, [1, 2, 1, 1, 1]> sqrt_11_cast_fp16 = sqrt(x = add_11_cast_fp16)[name = tensor<string, []>("sqrt_11_cast_fp16")];
            tensor<fp16, [1, 2, 32, 16, 16]> real_div_11_cast_fp16 = real_div(x = sub_22_cast_fp16, y = sqrt_11_cast_fp16)[name = tensor<string, []>("real_div_11_cast_fp16")];
            tensor<int32, [4]> reshape_23_shape_0 = const()[name = tensor<string, []>("reshape_23_shape_0"), val = tensor<int32, [4]>([1, 64, 16, 16])];
            tensor<fp16, [1, 64, 16, 16]> reshape_23_cast_fp16 = reshape(shape = reshape_23_shape_0, x = real_div_11_cast_fp16)[name = tensor<string, []>("reshape_23_cast_fp16")];
            tensor<fp16, [128, 256]> inner_model_unet_d_blocks_2_resblocks_1_norm2_linear_weight_to_fp16 = const()[name = tensor<string, []>("inner_model_unet_d_blocks_2_resblocks_1_norm2_linear_weight_to_fp16"), val = tensor<fp16, [128, 256]>(BLOBFILE(path = tensor<string, []>("@model_path/weights/weight.bin"), offset = tensor<uint64, []>(1969600)))];
            tensor<fp16, [128]> inner_model_unet_d_blocks_2_resblocks_1_norm2_linear_bias_to_fp16 = const()[name = tensor<string, []>("inner_model_unet_d_blocks_2_resblocks_1_norm2_linear_bias_to_fp16"), val = tensor<fp16, [128]>(BLOBFILE(path = tensor<string, []>("@model_path/weights/weight.bin"), offset = tensor<uint64, []>(2035200)))];
            tensor<fp16, [1, 128]> linear_13_cast_fp16 = linear(bias = inner_model_unet_d_blocks_2_resblocks_1_norm2_linear_bias_to_fp16, weight = inner_model_unet_d_blocks_2_resblocks_1_norm2_linear_weight_to_fp16, x = linear_1_cast_fp16)[name = tensor<string, []>("linear_13_cast_fp16")];
            tensor<int32, [1]> var_490_axes_0 = const()[name = tensor<string, []>("op_490_axes_0"), val = tensor<int32, [1]>([2])];
            tensor<fp16, [1, 128, 1]> var_490_cast_fp16 = expand_dims(axes = var_490_axes_0, x = linear_13_cast_fp16)[name = tensor<string, []>("op_490_cast_fp16")];
            tensor<int32, [1]> var_491_axes_0 = const()[name = tensor<string, []>("op_491_axes_0"), val = tensor<int32, [1]>([3])];
            tensor<fp16, [1, 128, 1, 1]> var_491_cast_fp16 = expand_dims(axes = var_491_axes_0, x = var_490_cast_fp16)[name = tensor<string, []>("op_491_cast_fp16")];
            tensor<int32, [2]> var_492_split_sizes_0 = const()[name = tensor<string, []>("op_492_split_sizes_0"), val = tensor<int32, [2]>([64, 64])];
            tensor<int32, []> var_492_axis_0 = const()[name = tensor<string, []>("op_492_axis_0"), val = tensor<int32, []>(1)];
            tensor<fp16, [1, 64, 1, 1]> var_492_cast_fp16_0, tensor<fp16, [1, 64, 1, 1]> var_492_cast_fp16_1 = split(axis = var_492_axis_0, split_sizes = var_492_split_sizes_0, x = var_491_cast_fp16)[name = tensor<string, []>("op_492_cast_fp16")];
            tensor<fp16, []> var_494_promoted_to_fp16 = const()[name = tensor<string, []>("op_494_promoted_to_fp16"), val = tensor<fp16, []>(0x1p+0)];
            tensor<fp16, [1, 64, 1, 1]> var_495_cast_fp16 = add(x = var_492_cast_fp16_0, y = var_494_promoted_to_fp16)[name = tensor<string, []>("op_495_cast_fp16")];
            tensor<fp16, [1, 64, 16, 16]> var_496_cast_fp16 = mul(x = reshape_23_cast_fp16, y = var_495_cast_fp16)[name = tensor<string, []>("op_496_cast_fp16")];
            tensor<fp16, [1, 64, 16, 16]> input_63_cast_fp16 = add(x = var_496_cast_fp16, y = var_492_cast_fp16_1)[name = tensor<string, []>("input_63_cast_fp16")];
            tensor<fp16, [1, 64, 16, 16]> input_65_cast_fp16 = silu(x = input_63_cast_fp16)[name = tensor<string, []>("input_65_cast_fp16")];
            tensor<int32, [2]> var_501 = const()[name = tensor<string, []>("op_501"), val = tensor<int32, [2]>([1, 1])];
            tensor<int32, [2]> var_503 = const()[name = tensor<string, []>("op_503"), val = tensor<int32, [2]>([1, 1])];
            tensor<string, []> x_61_pad_type_0 = const()[name = tensor<string, []>("x_61_pad_type_0"), val = tensor<string, []>("custom")];
            tensor<int32, [4]> x_61_pad_0 = const()[name = tensor<string, []>("x_61_pad_0"), val = tensor<int32, [4]>([1, 1, 1, 1])];
            tensor<fp16, [64, 64, 3, 3]> inner_model_unet_d_blocks_2_resblocks_1_conv2_weight_to_fp16 = const()[name = tensor<string, []>("inner_model_unet_d_blocks_2_resblocks_1_conv2_weight_to_fp16"), val = tensor<fp16, [64, 64, 3, 3]>(BLOBFILE(path = tensor<string, []>("@model_path/weights/weight.bin"), offset = tensor<uint64, []>(2035520)))];
            tensor<fp16, [64]> inner_model_unet_d_blocks_2_resblocks_1_conv2_bias_to_fp16 = const()[name = tensor<string, []>("inner_model_unet_d_blocks_2_resblocks_1_conv2_bias_to_fp16"), val = tensor<fp16, [64]>(BLOBFILE(path = tensor<string, []>("@model_path/weights/weight.bin"), offset = tensor<uint64, []>(2109312)))];
            tensor<fp16, [1, 64, 16, 16]> x_61_cast_fp16 = conv(bias = inner_model_unet_d_blocks_2_resblocks_1_conv2_bias_to_fp16, dilations = var_503, groups = var_77, pad = x_61_pad_0, pad_type = x_61_pad_type_0, strides = var_501, weight = inner_model_unet_d_blocks_2_resblocks_1_conv2_weight_to_fp16, x = input_65_cast_fp16)[name = tensor<string, []>("x_61_cast_fp16")];
            tensor<fp16, [1, 64, 16, 16]> input_67_cast_fp16 = add(x = x_61_cast_fp16, y = x_53_cast_fp16)[name = tensor<string, []>("input_67_cast_fp16")];
            tensor<int32, [2]> var_513 = const()[name = tensor<string, []>("op_513"), val = tensor<int32, [2]>([2, 2])];
            tensor<int32, [2]> var_515 = const()[name = tensor<string, []>("op_515"), val = tensor<int32, [2]>([1, 1])];
            tensor<string, []> x_63_pad_type_0 = const()[name = tensor<string, []>("x_63_pad_type_0"), val = tensor<string, []>("custom")];
            tensor<int32, [4]> x_63_pad_0 = const()[name = tensor<string, []>("x_63_pad_0"), val = tensor<int32, [4]>([1, 1, 1, 1])];
            tensor<fp16, [64, 64, 3, 3]> inner_model_unet_downsamples_3_conv_weight_to_fp16 = const()[name = tensor<string, []>("inner_model_unet_downsamples_3_conv_weight_to_fp16"), val = tensor<fp16, [64, 64, 3, 3]>(BLOBFILE(path = tensor<string, []>("@model_path/weights/weight.bin"), offset = tensor<uint64, []>(2109504)))];
            tensor<fp16, [64]> inner_model_unet_downsamples_3_conv_bias_to_fp16 = const()[name = tensor<string, []>("inner_model_unet_downsamples_3_conv_bias_to_fp16"), val = tensor<fp16, [64]>(BLOBFILE(path = tensor<string, []>("@model_path/weights/weight.bin"), offset = tensor<uint64, []>(2183296)))];
            tensor<fp16, [1, 64, 8, 8]> x_63_cast_fp16 = conv(bias = inner_model_unet_downsamples_3_conv_bias_to_fp16, dilations = var_515, groups = var_77, pad = x_63_pad_0, pad_type = x_63_pad_type_0, strides = var_513, weight = inner_model_unet_downsamples_3_conv_weight_to_fp16, x = input_67_cast_fp16)[name = tensor<string, []>("x_63_cast_fp16")];
            tensor<int32, [5]> reshape_24_shape_0 = const()[name = tensor<string, []>("reshape_24_shape_0"), val = tensor<int32, [5]>([1, 2, 32, 8, 8])];
            tensor<fp16, [1, 2, 32, 8, 8]> reshape_24_cast_fp16 = reshape(shape = reshape_24_shape_0, x = x_63_cast_fp16)[name = tensor<string, []>("reshape_24_cast_fp16")];
            tensor<int32, [3]> reduce_mean_36_axes_0 = const()[name = tensor<string, []>("reduce_mean_36_axes_0"), val = tensor<int32, [3]>([2, 3, 4])];
            tensor<bool, []> reduce_mean_36_keep_dims_0 = const()[name = tensor<string, []>("reduce_mean_36_keep_dims_0"), val = tensor<bool, []>(true)];
            tensor<fp16, [1, 2, 1, 1, 1]> reduce_mean_36_cast_fp16 = reduce_mean(axes = reduce_mean_36_axes_0, keep_dims = reduce_mean_36_keep_dims_0, x = reshape_24_cast_fp16)[name = tensor<string, []>("reduce_mean_36_cast_fp16")];
            tensor<fp16, [1, 2, 32, 8, 8]> sub_24_cast_fp16 = sub(x = reshape_24_cast_fp16, y = reduce_mean_36_cast_fp16)[name = tensor<string, []>("sub_24_cast_fp16")];
            tensor<fp16, [1, 2, 32, 8, 8]> square_12_cast_fp16 = square(x = sub_24_cast_fp16)[name = tensor<string, []>("square_12_cast_fp16")];
            tensor<int32, [3]> reduce_mean_38_axes_0 = const()[name = tensor<string, []>("reduce_mean_38_axes_0"), val = tensor<int32, [3]>([2, 3, 4])];
            tensor<bool, []> reduce_mean_38_keep_dims_0 = const()[name = tensor<string, []>("reduce_mean_38_keep_dims_0"), val = tensor<bool, []>(true)];
            tensor<fp16, [1, 2, 1, 1, 1]> reduce_mean_38_cast_fp16 = reduce_mean(axes = reduce_mean_38_axes_0, keep_dims = reduce_mean_38_keep_dims_0, x = square_12_cast_fp16)[name = tensor<string, []>("reduce_mean_38_cast_fp16")];
            tensor<fp16, []> add_12_y_0_to_fp16 = const()[name = tensor<string, []>("add_12_y_0_to_fp16"), val = tensor<fp16, []>(0x1.5p-17)];
            tensor<fp16, [1, 2, 1, 1, 1]> add_12_cast_fp16 = add(x = reduce_mean_38_cast_fp16, y = add_12_y_0_to_fp16)[name = tensor<string, []>("add_12_cast_fp16")];
            tensor<fp16, [1, 2, 1, 1, 1]> sqrt_12_cast_fp16 = sqrt(x = add_12_cast_fp16)[name = tensor<string, []>("sqrt_12_cast_fp16")];
            tensor<fp16, [1, 2, 32, 8, 8]> real_div_12_cast_fp16 = real_div(x = sub_24_cast_fp16, y = sqrt_12_cast_fp16)[name = tensor<string, []>("real_div_12_cast_fp16")];
            tensor<int32, [4]> reshape_25_shape_0 = const()[name = tensor<string, []>("reshape_25_shape_0"), val = tensor<int32, [4]>([1, 64, 8, 8])];
            tensor<fp16, [1, 64, 8, 8]> reshape_25_cast_fp16 = reshape(shape = reshape_25_shape_0, x = real_div_12_cast_fp16)[name = tensor<string, []>("reshape_25_cast_fp16")];
            tensor<fp16, [128, 256]> inner_model_unet_d_blocks_3_resblocks_0_norm1_linear_weight_to_fp16 = const()[name = tensor<string, []>("inner_model_unet_d_blocks_3_resblocks_0_norm1_linear_weight_to_fp16"), val = tensor<fp16, [128, 256]>(BLOBFILE(path = tensor<string, []>("@model_path/weights/weight.bin"), offset = tensor<uint64, []>(2183488)))];
            tensor<fp16, [128]> inner_model_unet_d_blocks_3_resblocks_0_norm1_linear_bias_to_fp16 = const()[name = tensor<string, []>("inner_model_unet_d_blocks_3_resblocks_0_norm1_linear_bias_to_fp16"), val = tensor<fp16, [128]>(BLOBFILE(path = tensor<string, []>("@model_path/weights/weight.bin"), offset = tensor<uint64, []>(2249088)))];
            tensor<fp16, [1, 128]> linear_14_cast_fp16 = linear(bias = inner_model_unet_d_blocks_3_resblocks_0_norm1_linear_bias_to_fp16, weight = inner_model_unet_d_blocks_3_resblocks_0_norm1_linear_weight_to_fp16, x = linear_1_cast_fp16)[name = tensor<string, []>("linear_14_cast_fp16")];
            tensor<int32, [1]> var_533_axes_0 = const()[name = tensor<string, []>("op_533_axes_0"), val = tensor<int32, [1]>([2])];
            tensor<fp16, [1, 128, 1]> var_533_cast_fp16 = expand_dims(axes = var_533_axes_0, x = linear_14_cast_fp16)[name = tensor<string, []>("op_533_cast_fp16")];
            tensor<int32, [1]> var_534_axes_0 = const()[name = tensor<string, []>("op_534_axes_0"), val = tensor<int32, [1]>([3])];
            tensor<fp16, [1, 128, 1, 1]> var_534_cast_fp16 = expand_dims(axes = var_534_axes_0, x = var_533_cast_fp16)[name = tensor<string, []>("op_534_cast_fp16")];
            tensor<int32, [2]> var_535_split_sizes_0 = const()[name = tensor<string, []>("op_535_split_sizes_0"), val = tensor<int32, [2]>([64, 64])];
            tensor<int32, []> var_535_axis_0 = const()[name = tensor<string, []>("op_535_axis_0"), val = tensor<int32, []>(1)];
            tensor<fp16, [1, 64, 1, 1]> var_535_cast_fp16_0, tensor<fp16, [1, 64, 1, 1]> var_535_cast_fp16_1 = split(axis = var_535_axis_0, split_sizes = var_535_split_sizes_0, x = var_534_cast_fp16)[name = tensor<string, []>("op_535_cast_fp16")];
            tensor<fp16, []> var_537_promoted_to_fp16 = const()[name = tensor<string, []>("op_537_promoted_to_fp16"), val = tensor<fp16, []>(0x1p+0)];
            tensor<fp16, [1, 64, 1, 1]> var_538_cast_fp16 = add(x = var_535_cast_fp16_0, y = var_537_promoted_to_fp16)[name = tensor<string, []>("op_538_cast_fp16")];
            tensor<fp16, [1, 64, 8, 8]> var_539_cast_fp16 = mul(x = reshape_25_cast_fp16, y = var_538_cast_fp16)[name = tensor<string, []>("op_539_cast_fp16")];
            tensor<fp16, [1, 64, 8, 8]> input_69_cast_fp16 = add(x = var_539_cast_fp16, y = var_535_cast_fp16_1)[name = tensor<string, []>("input_69_cast_fp16")];
            tensor<fp16, [1, 64, 8, 8]> input_71_cast_fp16 = silu(x = input_69_cast_fp16)[name = tensor<string, []>("input_71_cast_fp16")];
            tensor<int32, [2]> var_544 = const()[name = tensor<string, []>("op_544"), val = tensor<int32, [2]>([1, 1])];
            tensor<int32, [2]> var_546 = const()[name = tensor<string, []>("op_546"), val = tensor<int32, [2]>([1, 1])];
            tensor<string, []> x_67_pad_type_0 = const()[name = tensor<string, []>("x_67_pad_type_0"), val = tensor<string, []>("custom")];
            tensor<int32, [4]> x_67_pad_0 = const()[name = tensor<string, []>("x_67_pad_0"), val = tensor<int32, [4]>([1, 1, 1, 1])];
            tensor<fp16, [64, 64, 3, 3]> inner_model_unet_d_blocks_3_resblocks_0_conv1_weight_to_fp16 = const()[name = tensor<string, []>("inner_model_unet_d_blocks_3_resblocks_0_conv1_weight_to_fp16"), val = tensor<fp16, [64, 64, 3, 3]>(BLOBFILE(path = tensor<string, []>("@model_path/weights/weight.bin"), offset = tensor<uint64, []>(2249408)))];
            tensor<fp16, [64]> inner_model_unet_d_blocks_3_resblocks_0_conv1_bias_to_fp16 = const()[name = tensor<string, []>("inner_model_unet_d_blocks_3_resblocks_0_conv1_bias_to_fp16"), val = tensor<fp16, [64]>(BLOBFILE(path = tensor<string, []>("@model_path/weights/weight.bin"), offset = tensor<uint64, []>(2323200)))];
            tensor<fp16, [1, 64, 8, 8]> x_67_cast_fp16 = conv(bias = inner_model_unet_d_blocks_3_resblocks_0_conv1_bias_to_fp16, dilations = var_546, groups = var_77, pad = x_67_pad_0, pad_type = x_67_pad_type_0, strides = var_544, weight = inner_model_unet_d_blocks_3_resblocks_0_conv1_weight_to_fp16, x = input_71_cast_fp16)[name = tensor<string, []>("x_67_cast_fp16")];
            tensor<int32, [5]> reshape_26_shape_0 = const()[name = tensor<string, []>("reshape_26_shape_0"), val = tensor<int32, [5]>([1, 2, 32, 8, 8])];
            tensor<fp16, [1, 2, 32, 8, 8]> reshape_26_cast_fp16 = reshape(shape = reshape_26_shape_0, x = x_67_cast_fp16)[name = tensor<string, []>("reshape_26_cast_fp16")];
            tensor<int32, [3]> reduce_mean_39_axes_0 = const()[name = tensor<string, []>("reduce_mean_39_axes_0"), val = tensor<int32, [3]>([2, 3, 4])];
            tensor<bool, []> reduce_mean_39_keep_dims_0 = const()[name = tensor<string, []>("reduce_mean_39_keep_dims_0"), val = tensor<bool, []>(true)];
            tensor<fp16, [1, 2, 1, 1, 1]> reduce_mean_39_cast_fp16 = reduce_mean(axes = reduce_mean_39_axes_0, keep_dims = reduce_mean_39_keep_dims_0, x = reshape_26_cast_fp16)[name = tensor<string, []>("reduce_mean_39_cast_fp16")];
            tensor<fp16, [1, 2, 32, 8, 8]> sub_26_cast_fp16 = sub(x = reshape_26_cast_fp16, y = reduce_mean_39_cast_fp16)[name = tensor<string, []>("sub_26_cast_fp16")];
            tensor<fp16, [1, 2, 32, 8, 8]> square_13_cast_fp16 = square(x = sub_26_cast_fp16)[name = tensor<string, []>("square_13_cast_fp16")];
            tensor<int32, [3]> reduce_mean_41_axes_0 = const()[name = tensor<string, []>("reduce_mean_41_axes_0"), val = tensor<int32, [3]>([2, 3, 4])];
            tensor<bool, []> reduce_mean_41_keep_dims_0 = const()[name = tensor<string, []>("reduce_mean_41_keep_dims_0"), val = tensor<bool, []>(true)];
            tensor<fp16, [1, 2, 1, 1, 1]> reduce_mean_41_cast_fp16 = reduce_mean(axes = reduce_mean_41_axes_0, keep_dims = reduce_mean_41_keep_dims_0, x = square_13_cast_fp16)[name = tensor<string, []>("reduce_mean_41_cast_fp16")];
            tensor<fp16, []> add_13_y_0_to_fp16 = const()[name = tensor<string, []>("add_13_y_0_to_fp16"), val = tensor<fp16, []>(0x1.5p-17)];
            tensor<fp16, [1, 2, 1, 1, 1]> add_13_cast_fp16 = add(x = reduce_mean_41_cast_fp16, y = add_13_y_0_to_fp16)[name = tensor<string, []>("add_13_cast_fp16")];
            tensor<fp16, [1, 2, 1, 1, 1]> sqrt_13_cast_fp16 = sqrt(x = add_13_cast_fp16)[name = tensor<string, []>("sqrt_13_cast_fp16")];
            tensor<fp16, [1, 2, 32, 8, 8]> real_div_13_cast_fp16 = real_div(x = sub_26_cast_fp16, y = sqrt_13_cast_fp16)[name = tensor<string, []>("real_div_13_cast_fp16")];
            tensor<int32, [4]> reshape_27_shape_0 = const()[name = tensor<string, []>("reshape_27_shape_0"), val = tensor<int32, [4]>([1, 64, 8, 8])];
            tensor<fp16, [1, 64, 8, 8]> reshape_27_cast_fp16 = reshape(shape = reshape_27_shape_0, x = real_div_13_cast_fp16)[name = tensor<string, []>("reshape_27_cast_fp16")];
            tensor<fp16, [128, 256]> inner_model_unet_d_blocks_3_resblocks_0_norm2_linear_weight_to_fp16 = const()[name = tensor<string, []>("inner_model_unet_d_blocks_3_resblocks_0_norm2_linear_weight_to_fp16"), val = tensor<fp16, [128, 256]>(BLOBFILE(path = tensor<string, []>("@model_path/weights/weight.bin"), offset = tensor<uint64, []>(2323392)))];
            tensor<fp16, [128]> inner_model_unet_d_blocks_3_resblocks_0_norm2_linear_bias_to_fp16 = const()[name = tensor<string, []>("inner_model_unet_d_blocks_3_resblocks_0_norm2_linear_bias_to_fp16"), val = tensor<fp16, [128]>(BLOBFILE(path = tensor<string, []>("@model_path/weights/weight.bin"), offset = tensor<uint64, []>(2388992)))];
            tensor<fp16, [1, 128]> linear_15_cast_fp16 = linear(bias = inner_model_unet_d_blocks_3_resblocks_0_norm2_linear_bias_to_fp16, weight = inner_model_unet_d_blocks_3_resblocks_0_norm2_linear_weight_to_fp16, x = linear_1_cast_fp16)[name = tensor<string, []>("linear_15_cast_fp16")];
            tensor<int32, [1]> var_556_axes_0 = const()[name = tensor<string, []>("op_556_axes_0"), val = tensor<int32, [1]>([2])];
            tensor<fp16, [1, 128, 1]> var_556_cast_fp16 = expand_dims(axes = var_556_axes_0, x = linear_15_cast_fp16)[name = tensor<string, []>("op_556_cast_fp16")];
            tensor<int32, [1]> var_557_axes_0 = const()[name = tensor<string, []>("op_557_axes_0"), val = tensor<int32, [1]>([3])];
            tensor<fp16, [1, 128, 1, 1]> var_557_cast_fp16 = expand_dims(axes = var_557_axes_0, x = var_556_cast_fp16)[name = tensor<string, []>("op_557_cast_fp16")];
            tensor<int32, [2]> var_558_split_sizes_0 = const()[name = tensor<string, []>("op_558_split_sizes_0"), val = tensor<int32, [2]>([64, 64])];
            tensor<int32, []> var_558_axis_0 = const()[name = tensor<string, []>("op_558_axis_0"), val = tensor<int32, []>(1)];
            tensor<fp16, [1, 64, 1, 1]> var_558_cast_fp16_0, tensor<fp16, [1, 64, 1, 1]> var_558_cast_fp16_1 = split(axis = var_558_axis_0, split_sizes = var_558_split_sizes_0, x = var_557_cast_fp16)[name = tensor<string, []>("op_558_cast_fp16")];
            tensor<fp16, []> var_560_promoted_to_fp16 = const()[name = tensor<string, []>("op_560_promoted_to_fp16"), val = tensor<fp16, []>(0x1p+0)];
            tensor<fp16, [1, 64, 1, 1]> var_561_cast_fp16 = add(x = var_558_cast_fp16_0, y = var_560_promoted_to_fp16)[name = tensor<string, []>("op_561_cast_fp16")];
            tensor<fp16, [1, 64, 8, 8]> var_562_cast_fp16 = mul(x = reshape_27_cast_fp16, y = var_561_cast_fp16)[name = tensor<string, []>("op_562_cast_fp16")];
            tensor<fp16, [1, 64, 8, 8]> input_73_cast_fp16 = add(x = var_562_cast_fp16, y = var_558_cast_fp16_1)[name = tensor<string, []>("input_73_cast_fp16")];
            tensor<fp16, [1, 64, 8, 8]> input_75_cast_fp16 = silu(x = input_73_cast_fp16)[name = tensor<string, []>("input_75_cast_fp16")];
            tensor<int32, [2]> var_567 = const()[name = tensor<string, []>("op_567"), val = tensor<int32, [2]>([1, 1])];
            tensor<int32, [2]> var_569 = const()[name = tensor<string, []>("op_569"), val = tensor<int32, [2]>([1, 1])];
            tensor<string, []> x_71_pad_type_0 = const()[name = tensor<string, []>("x_71_pad_type_0"), val = tensor<string, []>("custom")];
            tensor<int32, [4]> x_71_pad_0 = const()[name = tensor<string, []>("x_71_pad_0"), val = tensor<int32, [4]>([1, 1, 1, 1])];
            tensor<fp16, [64, 64, 3, 3]> inner_model_unet_d_blocks_3_resblocks_0_conv2_weight_to_fp16 = const()[name = tensor<string, []>("inner_model_unet_d_blocks_3_resblocks_0_conv2_weight_to_fp16"), val = tensor<fp16, [64, 64, 3, 3]>(BLOBFILE(path = tensor<string, []>("@model_path/weights/weight.bin"), offset = tensor<uint64, []>(2389312)))];
            tensor<fp16, [64]> inner_model_unet_d_blocks_3_resblocks_0_conv2_bias_to_fp16 = const()[name = tensor<string, []>("inner_model_unet_d_blocks_3_resblocks_0_conv2_bias_to_fp16"), val = tensor<fp16, [64]>(BLOBFILE(path = tensor<string, []>("@model_path/weights/weight.bin"), offset = tensor<uint64, []>(2463104)))];
            tensor<fp16, [1, 64, 8, 8]> x_71_cast_fp16 = conv(bias = inner_model_unet_d_blocks_3_resblocks_0_conv2_bias_to_fp16, dilations = var_569, groups = var_77, pad = x_71_pad_0, pad_type = x_71_pad_type_0, strides = var_567, weight = inner_model_unet_d_blocks_3_resblocks_0_conv2_weight_to_fp16, x = input_75_cast_fp16)[name = tensor<string, []>("x_71_cast_fp16")];
            tensor<fp16, [1, 64, 8, 8]> x_73_cast_fp16 = add(x = x_71_cast_fp16, y = x_63_cast_fp16)[name = tensor<string, []>("x_73_cast_fp16")];
            tensor<int32, [5]> reshape_28_shape_0 = const()[name = tensor<string, []>("reshape_28_shape_0"), val = tensor<int32, [5]>([1, 2, 32, 8, 8])];
            tensor<fp16, [1, 2, 32, 8, 8]> reshape_28_cast_fp16 = reshape(shape = reshape_28_shape_0, x = x_73_cast_fp16)[name = tensor<string, []>("reshape_28_cast_fp16")];
            tensor<int32, [3]> reduce_mean_42_axes_0 = const()[name = tensor<string, []>("reduce_mean_42_axes_0"), val = tensor<int32, [3]>([2, 3, 4])];
            tensor<bool, []> reduce_mean_42_keep_dims_0 = const()[name = tensor<string, []>("reduce_mean_42_keep_dims_0"), val = tensor<bool, []>(true)];
            tensor<fp16, [1, 2, 1, 1, 1]> reduce_mean_42_cast_fp16 = reduce_mean(axes = reduce_mean_42_axes_0, keep_dims = reduce_mean_42_keep_dims_0, x = reshape_28_cast_fp16)[name = tensor<string, []>("reduce_mean_42_cast_fp16")];
            tensor<fp16, [1, 2, 32, 8, 8]> sub_28_cast_fp16 = sub(x = reshape_28_cast_fp16, y = reduce_mean_42_cast_fp16)[name = tensor<string, []>("sub_28_cast_fp16")];
            tensor<fp16, [1, 2, 32, 8, 8]> square_14_cast_fp16 = square(x = sub_28_cast_fp16)[name = tensor<string, []>("square_14_cast_fp16")];
            tensor<int32, [3]> reduce_mean_44_axes_0 = const()[name = tensor<string, []>("reduce_mean_44_axes_0"), val = tensor<int32, [3]>([2, 3, 4])];
            tensor<bool, []> reduce_mean_44_keep_dims_0 = const()[name = tensor<string, []>("reduce_mean_44_keep_dims_0"), val = tensor<bool, []>(true)];
            tensor<fp16, [1, 2, 1, 1, 1]> reduce_mean_44_cast_fp16 = reduce_mean(axes = reduce_mean_44_axes_0, keep_dims = reduce_mean_44_keep_dims_0, x = square_14_cast_fp16)[name = tensor<string, []>("reduce_mean_44_cast_fp16")];
            tensor<fp16, []> add_14_y_0_to_fp16 = const()[name = tensor<string, []>("add_14_y_0_to_fp16"), val = tensor<fp16, []>(0x1.5p-17)];
            tensor<fp16, [1, 2, 1, 1, 1]> add_14_cast_fp16 = add(x = reduce_mean_44_cast_fp16, y = add_14_y_0_to_fp16)[name = tensor<string, []>("add_14_cast_fp16")];
            tensor<fp16, [1, 2, 1, 1, 1]> sqrt_14_cast_fp16 = sqrt(x = add_14_cast_fp16)[name = tensor<string, []>("sqrt_14_cast_fp16")];
            tensor<fp16, [1, 2, 32, 8, 8]> real_div_14_cast_fp16 = real_div(x = sub_28_cast_fp16, y = sqrt_14_cast_fp16)[name = tensor<string, []>("real_div_14_cast_fp16")];
            tensor<int32, [4]> reshape_29_shape_0 = const()[name = tensor<string, []>("reshape_29_shape_0"), val = tensor<int32, [4]>([1, 64, 8, 8])];
            tensor<fp16, [1, 64, 8, 8]> reshape_29_cast_fp16 = reshape(shape = reshape_29_shape_0, x = real_div_14_cast_fp16)[name = tensor<string, []>("reshape_29_cast_fp16")];
            tensor<fp16, [128, 256]> inner_model_unet_d_blocks_3_resblocks_1_norm1_linear_weight_to_fp16 = const()[name = tensor<string, []>("inner_model_unet_d_blocks_3_resblocks_1_norm1_linear_weight_to_fp16"), val = tensor<fp16, [128, 256]>(BLOBFILE(path = tensor<string, []>("@model_path/weights/weight.bin"), offset = tensor<uint64, []>(2463296)))];
            tensor<fp16, [128]> inner_model_unet_d_blocks_3_resblocks_1_norm1_linear_bias_to_fp16 = const()[name = tensor<string, []>("inner_model_unet_d_blocks_3_resblocks_1_norm1_linear_bias_to_fp16"), val = tensor<fp16, [128]>(BLOBFILE(path = tensor<string, []>("@model_path/weights/weight.bin"), offset = tensor<uint64, []>(2528896)))];
            tensor<fp16, [1, 128]> linear_16_cast_fp16 = linear(bias = inner_model_unet_d_blocks_3_resblocks_1_norm1_linear_bias_to_fp16, weight = inner_model_unet_d_blocks_3_resblocks_1_norm1_linear_weight_to_fp16, x = linear_1_cast_fp16)[name = tensor<string, []>("linear_16_cast_fp16")];
            tensor<int32, [1]> var_584_axes_0 = const()[name = tensor<string, []>("op_584_axes_0"), val = tensor<int32, [1]>([2])];
            tensor<fp16, [1, 128, 1]> var_584_cast_fp16 = expand_dims(axes = var_584_axes_0, x = linear_16_cast_fp16)[name = tensor<string, []>("op_584_cast_fp16")];
            tensor<int32, [1]> var_585_axes_0 = const()[name = tensor<string, []>("op_585_axes_0"), val = tensor<int32, [1]>([3])];
            tensor<fp16, [1, 128, 1, 1]> var_585_cast_fp16 = expand_dims(axes = var_585_axes_0, x = var_584_cast_fp16)[name = tensor<string, []>("op_585_cast_fp16")];
            tensor<int32, [2]> var_586_split_sizes_0 = const()[name = tensor<string, []>("op_586_split_sizes_0"), val = tensor<int32, [2]>([64, 64])];
            tensor<int32, []> var_586_axis_0 = const()[name = tensor<string, []>("op_586_axis_0"), val = tensor<int32, []>(1)];
            tensor<fp16, [1, 64, 1, 1]> var_586_cast_fp16_0, tensor<fp16, [1, 64, 1, 1]> var_586_cast_fp16_1 = split(axis = var_586_axis_0, split_sizes = var_586_split_sizes_0, x = var_585_cast_fp16)[name = tensor<string, []>("op_586_cast_fp16")];
            tensor<fp16, []> var_588_promoted_to_fp16 = const()[name = tensor<string, []>("op_588_promoted_to_fp16"), val = tensor<fp16, []>(0x1p+0)];
            tensor<fp16, [1, 64, 1, 1]> var_589_cast_fp16 = add(x = var_586_cast_fp16_0, y = var_588_promoted_to_fp16)[name = tensor<string, []>("op_589_cast_fp16")];
            tensor<fp16, [1, 64, 8, 8]> var_590_cast_fp16 = mul(x = reshape_29_cast_fp16, y = var_589_cast_fp16)[name = tensor<string, []>("op_590_cast_fp16")];
            tensor<fp16, [1, 64, 8, 8]> input_77_cast_fp16 = add(x = var_590_cast_fp16, y = var_586_cast_fp16_1)[name = tensor<string, []>("input_77_cast_fp16")];
            tensor<fp16, [1, 64, 8, 8]> input_79_cast_fp16 = silu(x = input_77_cast_fp16)[name = tensor<string, []>("input_79_cast_fp16")];
            tensor<int32, [2]> var_595 = const()[name = tensor<string, []>("op_595"), val = tensor<int32, [2]>([1, 1])];
            tensor<int32, [2]> var_597 = const()[name = tensor<string, []>("op_597"), val = tensor<int32, [2]>([1, 1])];
            tensor<string, []> x_77_pad_type_0 = const()[name = tensor<string, []>("x_77_pad_type_0"), val = tensor<string, []>("custom")];
            tensor<int32, [4]> x_77_pad_0 = const()[name = tensor<string, []>("x_77_pad_0"), val = tensor<int32, [4]>([1, 1, 1, 1])];
            tensor<fp16, [64, 64, 3, 3]> inner_model_unet_d_blocks_3_resblocks_1_conv1_weight_to_fp16 = const()[name = tensor<string, []>("inner_model_unet_d_blocks_3_resblocks_1_conv1_weight_to_fp16"), val = tensor<fp16, [64, 64, 3, 3]>(BLOBFILE(path = tensor<string, []>("@model_path/weights/weight.bin"), offset = tensor<uint64, []>(2529216)))];
            tensor<fp16, [64]> inner_model_unet_d_blocks_3_resblocks_1_conv1_bias_to_fp16 = const()[name = tensor<string, []>("inner_model_unet_d_blocks_3_resblocks_1_conv1_bias_to_fp16"), val = tensor<fp16, [64]>(BLOBFILE(path = tensor<string, []>("@model_path/weights/weight.bin"), offset = tensor<uint64, []>(2603008)))];
            tensor<fp16, [1, 64, 8, 8]> x_77_cast_fp16 = conv(bias = inner_model_unet_d_blocks_3_resblocks_1_conv1_bias_to_fp16, dilations = var_597, groups = var_77, pad = x_77_pad_0, pad_type = x_77_pad_type_0, strides = var_595, weight = inner_model_unet_d_blocks_3_resblocks_1_conv1_weight_to_fp16, x = input_79_cast_fp16)[name = tensor<string, []>("x_77_cast_fp16")];
            tensor<int32, [5]> reshape_30_shape_0 = const()[name = tensor<string, []>("reshape_30_shape_0"), val = tensor<int32, [5]>([1, 2, 32, 8, 8])];
            tensor<fp16, [1, 2, 32, 8, 8]> reshape_30_cast_fp16 = reshape(shape = reshape_30_shape_0, x = x_77_cast_fp16)[name = tensor<string, []>("reshape_30_cast_fp16")];
            tensor<int32, [3]> reduce_mean_45_axes_0 = const()[name = tensor<string, []>("reduce_mean_45_axes_0"), val = tensor<int32, [3]>([2, 3, 4])];
            tensor<bool, []> reduce_mean_45_keep_dims_0 = const()[name = tensor<string, []>("reduce_mean_45_keep_dims_0"), val = tensor<bool, []>(true)];
            tensor<fp16, [1, 2, 1, 1, 1]> reduce_mean_45_cast_fp16 = reduce_mean(axes = reduce_mean_45_axes_0, keep_dims = reduce_mean_45_keep_dims_0, x = reshape_30_cast_fp16)[name = tensor<string, []>("reduce_mean_45_cast_fp16")];
            tensor<fp16, [1, 2, 32, 8, 8]> sub_30_cast_fp16 = sub(x = reshape_30_cast_fp16, y = reduce_mean_45_cast_fp16)[name = tensor<string, []>("sub_30_cast_fp16")];
            tensor<fp16, [1, 2, 32, 8, 8]> square_15_cast_fp16 = square(x = sub_30_cast_fp16)[name = tensor<string, []>("square_15_cast_fp16")];
            tensor<int32, [3]> reduce_mean_47_axes_0 = const()[name = tensor<string, []>("reduce_mean_47_axes_0"), val = tensor<int32, [3]>([2, 3, 4])];
            tensor<bool, []> reduce_mean_47_keep_dims_0 = const()[name = tensor<string, []>("reduce_mean_47_keep_dims_0"), val = tensor<bool, []>(true)];
            tensor<fp16, [1, 2, 1, 1, 1]> reduce_mean_47_cast_fp16 = reduce_mean(axes = reduce_mean_47_axes_0, keep_dims = reduce_mean_47_keep_dims_0, x = square_15_cast_fp16)[name = tensor<string, []>("reduce_mean_47_cast_fp16")];
            tensor<fp16, []> add_15_y_0_to_fp16 = const()[name = tensor<string, []>("add_15_y_0_to_fp16"), val = tensor<fp16, []>(0x1.5p-17)];
            tensor<fp16, [1, 2, 1, 1, 1]> add_15_cast_fp16 = add(x = reduce_mean_47_cast_fp16, y = add_15_y_0_to_fp16)[name = tensor<string, []>("add_15_cast_fp16")];
            tensor<fp16, [1, 2, 1, 1, 1]> sqrt_15_cast_fp16 = sqrt(x = add_15_cast_fp16)[name = tensor<string, []>("sqrt_15_cast_fp16")];
            tensor<fp16, [1, 2, 32, 8, 8]> real_div_15_cast_fp16 = real_div(x = sub_30_cast_fp16, y = sqrt_15_cast_fp16)[name = tensor<string, []>("real_div_15_cast_fp16")];
            tensor<int32, [4]> reshape_31_shape_0 = const()[name = tensor<string, []>("reshape_31_shape_0"), val = tensor<int32, [4]>([1, 64, 8, 8])];
            tensor<fp16, [1, 64, 8, 8]> reshape_31_cast_fp16 = reshape(shape = reshape_31_shape_0, x = real_div_15_cast_fp16)[name = tensor<string, []>("reshape_31_cast_fp16")];
            tensor<fp16, [128, 256]> inner_model_unet_d_blocks_3_resblocks_1_norm2_linear_weight_to_fp16 = const()[name = tensor<string, []>("inner_model_unet_d_blocks_3_resblocks_1_norm2_linear_weight_to_fp16"), val = tensor<fp16, [128, 256]>(BLOBFILE(path = tensor<string, []>("@model_path/weights/weight.bin"), offset = tensor<uint64, []>(2603200)))];
            tensor<fp16, [128]> inner_model_unet_d_blocks_3_resblocks_1_norm2_linear_bias_to_fp16 = const()[name = tensor<string, []>("inner_model_unet_d_blocks_3_resblocks_1_norm2_linear_bias_to_fp16"), val = tensor<fp16, [128]>(BLOBFILE(path = tensor<string, []>("@model_path/weights/weight.bin"), offset = tensor<uint64, []>(2668800)))];
            tensor<fp16, [1, 128]> linear_17_cast_fp16 = linear(bias = inner_model_unet_d_blocks_3_resblocks_1_norm2_linear_bias_to_fp16, weight = inner_model_unet_d_blocks_3_resblocks_1_norm2_linear_weight_to_fp16, x = linear_1_cast_fp16)[name = tensor<string, []>("linear_17_cast_fp16")];
            tensor<int32, [1]> var_607_axes_0 = const()[name = tensor<string, []>("op_607_axes_0"), val = tensor<int32, [1]>([2])];
            tensor<fp16, [1, 128, 1]> var_607_cast_fp16 = expand_dims(axes = var_607_axes_0, x = linear_17_cast_fp16)[name = tensor<string, []>("op_607_cast_fp16")];
            tensor<int32, [1]> var_608_axes_0 = const()[name = tensor<string, []>("op_608_axes_0"), val = tensor<int32, [1]>([3])];
            tensor<fp16, [1, 128, 1, 1]> var_608_cast_fp16 = expand_dims(axes = var_608_axes_0, x = var_607_cast_fp16)[name = tensor<string, []>("op_608_cast_fp16")];
            tensor<int32, [2]> var_609_split_sizes_0 = const()[name = tensor<string, []>("op_609_split_sizes_0"), val = tensor<int32, [2]>([64, 64])];
            tensor<int32, []> var_609_axis_0 = const()[name = tensor<string, []>("op_609_axis_0"), val = tensor<int32, []>(1)];
            tensor<fp16, [1, 64, 1, 1]> var_609_cast_fp16_0, tensor<fp16, [1, 64, 1, 1]> var_609_cast_fp16_1 = split(axis = var_609_axis_0, split_sizes = var_609_split_sizes_0, x = var_608_cast_fp16)[name = tensor<string, []>("op_609_cast_fp16")];
            tensor<fp16, []> var_611_promoted_to_fp16 = const()[name = tensor<string, []>("op_611_promoted_to_fp16"), val = tensor<fp16, []>(0x1p+0)];
            tensor<fp16, [1, 64, 1, 1]> var_612_cast_fp16 = add(x = var_609_cast_fp16_0, y = var_611_promoted_to_fp16)[name = tensor<string, []>("op_612_cast_fp16")];
            tensor<fp16, [1, 64, 8, 8]> var_613_cast_fp16 = mul(x = reshape_31_cast_fp16, y = var_612_cast_fp16)[name = tensor<string, []>("op_613_cast_fp16")];
            tensor<fp16, [1, 64, 8, 8]> input_81_cast_fp16 = add(x = var_613_cast_fp16, y = var_609_cast_fp16_1)[name = tensor<string, []>("input_81_cast_fp16")];
            tensor<fp16, [1, 64, 8, 8]> input_83_cast_fp16 = silu(x = input_81_cast_fp16)[name = tensor<string, []>("input_83_cast_fp16")];
            tensor<int32, [2]> var_618 = const()[name = tensor<string, []>("op_618"), val = tensor<int32, [2]>([1, 1])];
            tensor<int32, [2]> var_620 = const()[name = tensor<string, []>("op_620"), val = tensor<int32, [2]>([1, 1])];
            tensor<string, []> x_81_pad_type_0 = const()[name = tensor<string, []>("x_81_pad_type_0"), val = tensor<string, []>("custom")];
            tensor<int32, [4]> x_81_pad_0 = const()[name = tensor<string, []>("x_81_pad_0"), val = tensor<int32, [4]>([1, 1, 1, 1])];
            tensor<fp16, [64, 64, 3, 3]> inner_model_unet_d_blocks_3_resblocks_1_conv2_weight_to_fp16 = const()[name = tensor<string, []>("inner_model_unet_d_blocks_3_resblocks_1_conv2_weight_to_fp16"), val = tensor<fp16, [64, 64, 3, 3]>(BLOBFILE(path = tensor<string, []>("@model_path/weights/weight.bin"), offset = tensor<uint64, []>(2669120)))];
            tensor<fp16, [64]> inner_model_unet_d_blocks_3_resblocks_1_conv2_bias_to_fp16 = const()[name = tensor<string, []>("inner_model_unet_d_blocks_3_resblocks_1_conv2_bias_to_fp16"), val = tensor<fp16, [64]>(BLOBFILE(path = tensor<string, []>("@model_path/weights/weight.bin"), offset = tensor<uint64, []>(2742912)))];
            tensor<fp16, [1, 64, 8, 8]> x_81_cast_fp16 = conv(bias = inner_model_unet_d_blocks_3_resblocks_1_conv2_bias_to_fp16, dilations = var_620, groups = var_77, pad = x_81_pad_0, pad_type = x_81_pad_type_0, strides = var_618, weight = inner_model_unet_d_blocks_3_resblocks_1_conv2_weight_to_fp16, x = input_83_cast_fp16)[name = tensor<string, []>("x_81_cast_fp16")];
            tensor<fp16, [1, 64, 8, 8]> x_83_cast_fp16 = add(x = x_81_cast_fp16, y = x_73_cast_fp16)[name = tensor<string, []>("x_83_cast_fp16")];
            tensor<int32, [5]> reshape_32_shape_0 = const()[name = tensor<string, []>("reshape_32_shape_0"), val = tensor<int32, [5]>([1, 2, 32, 8, 8])];
            tensor<fp16, [1, 2, 32, 8, 8]> reshape_32_cast_fp16 = reshape(shape = reshape_32_shape_0, x = x_83_cast_fp16)[name = tensor<string, []>("reshape_32_cast_fp16")];
            tensor<int32, [3]> reduce_mean_48_axes_0 = const()[name = tensor<string, []>("reduce_mean_48_axes_0"), val = tensor<int32, [3]>([2, 3, 4])];
            tensor<bool, []> reduce_mean_48_keep_dims_0 = const()[name = tensor<string, []>("reduce_mean_48_keep_dims_0"), val = tensor<bool, []>(true)];
            tensor<fp16, [1, 2, 1, 1, 1]> reduce_mean_48_cast_fp16 = reduce_mean(axes = reduce_mean_48_axes_0, keep_dims = reduce_mean_48_keep_dims_0, x = reshape_32_cast_fp16)[name = tensor<string, []>("reduce_mean_48_cast_fp16")];
            tensor<fp16, [1, 2, 32, 8, 8]> sub_32_cast_fp16 = sub(x = reshape_32_cast_fp16, y = reduce_mean_48_cast_fp16)[name = tensor<string, []>("sub_32_cast_fp16")];
            tensor<fp16, [1, 2, 32, 8, 8]> square_16_cast_fp16 = square(x = sub_32_cast_fp16)[name = tensor<string, []>("square_16_cast_fp16")];
            tensor<int32, [3]> reduce_mean_50_axes_0 = const()[name = tensor<string, []>("reduce_mean_50_axes_0"), val = tensor<int32, [3]>([2, 3, 4])];
            tensor<bool, []> reduce_mean_50_keep_dims_0 = const()[name = tensor<string, []>("reduce_mean_50_keep_dims_0"), val = tensor<bool, []>(true)];
            tensor<fp16, [1, 2, 1, 1, 1]> reduce_mean_50_cast_fp16 = reduce_mean(axes = reduce_mean_50_axes_0, keep_dims = reduce_mean_50_keep_dims_0, x = square_16_cast_fp16)[name = tensor<string, []>("reduce_mean_50_cast_fp16")];
            tensor<fp16, []> add_16_y_0_to_fp16 = const()[name = tensor<string, []>("add_16_y_0_to_fp16"), val = tensor<fp16, []>(0x1.5p-17)];
            tensor<fp16, [1, 2, 1, 1, 1]> add_16_cast_fp16 = add(x = reduce_mean_50_cast_fp16, y = add_16_y_0_to_fp16)[name = tensor<string, []>("add_16_cast_fp16")];
            tensor<fp16, [1, 2, 1, 1, 1]> sqrt_16_cast_fp16 = sqrt(x = add_16_cast_fp16)[name = tensor<string, []>("sqrt_16_cast_fp16")];
            tensor<fp16, [1, 2, 32, 8, 8]> real_div_16_cast_fp16 = real_div(x = sub_32_cast_fp16, y = sqrt_16_cast_fp16)[name = tensor<string, []>("real_div_16_cast_fp16")];
            tensor<int32, [4]> reshape_33_shape_0 = const()[name = tensor<string, []>("reshape_33_shape_0"), val = tensor<int32, [4]>([1, 64, 8, 8])];
            tensor<fp16, [1, 64, 8, 8]> reshape_33_cast_fp16 = reshape(shape = reshape_33_shape_0, x = real_div_16_cast_fp16)[name = tensor<string, []>("reshape_33_cast_fp16")];
            tensor<fp16, [128, 256]> inner_model_unet_mid_blocks_resblocks_0_norm1_linear_weight_to_fp16 = const()[name = tensor<string, []>("inner_model_unet_mid_blocks_resblocks_0_norm1_linear_weight_to_fp16"), val = tensor<fp16, [128, 256]>(BLOBFILE(path = tensor<string, []>("@model_path/weights/weight.bin"), offset = tensor<uint64, []>(2743104)))];
            tensor<fp16, [128]> inner_model_unet_mid_blocks_resblocks_0_norm1_linear_bias_to_fp16 = const()[name = tensor<string, []>("inner_model_unet_mid_blocks_resblocks_0_norm1_linear_bias_to_fp16"), val = tensor<fp16, [128]>(BLOBFILE(path = tensor<string, []>("@model_path/weights/weight.bin"), offset = tensor<uint64, []>(2808704)))];
            tensor<fp16, [1, 128]> linear_18_cast_fp16 = linear(bias = inner_model_unet_mid_blocks_resblocks_0_norm1_linear_bias_to_fp16, weight = inner_model_unet_mid_blocks_resblocks_0_norm1_linear_weight_to_fp16, x = linear_1_cast_fp16)[name = tensor<string, []>("linear_18_cast_fp16")];
            tensor<int32, [1]> var_643_axes_0 = const()[name = tensor<string, []>("op_643_axes_0"), val = tensor<int32, [1]>([2])];
            tensor<fp16, [1, 128, 1]> var_643_cast_fp16 = expand_dims(axes = var_643_axes_0, x = linear_18_cast_fp16)[name = tensor<string, []>("op_643_cast_fp16")];
            tensor<int32, [1]> var_644_axes_0 = const()[name = tensor<string, []>("op_644_axes_0"), val = tensor<int32, [1]>([3])];
            tensor<fp16, [1, 128, 1, 1]> var_644_cast_fp16 = expand_dims(axes = var_644_axes_0, x = var_643_cast_fp16)[name = tensor<string, []>("op_644_cast_fp16")];
            tensor<int32, [2]> var_645_split_sizes_0 = const()[name = tensor<string, []>("op_645_split_sizes_0"), val = tensor<int32, [2]>([64, 64])];
            tensor<int32, []> var_645_axis_0 = const()[name = tensor<string, []>("op_645_axis_0"), val = tensor<int32, []>(1)];
            tensor<fp16, [1, 64, 1, 1]> var_645_cast_fp16_0, tensor<fp16, [1, 64, 1, 1]> var_645_cast_fp16_1 = split(axis = var_645_axis_0, split_sizes = var_645_split_sizes_0, x = var_644_cast_fp16)[name = tensor<string, []>("op_645_cast_fp16")];
            tensor<fp16, []> var_647_promoted_to_fp16 = const()[name = tensor<string, []>("op_647_promoted_to_fp16"), val = tensor<fp16, []>(0x1p+0)];
            tensor<fp16, [1, 64, 1, 1]> var_648_cast_fp16 = add(x = var_645_cast_fp16_0, y = var_647_promoted_to_fp16)[name = tensor<string, []>("op_648_cast_fp16")];
            tensor<fp16, [1, 64, 8, 8]> var_649_cast_fp16 = mul(x = reshape_33_cast_fp16, y = var_648_cast_fp16)[name = tensor<string, []>("op_649_cast_fp16")];
            tensor<fp16, [1, 64, 8, 8]> input_85_cast_fp16 = add(x = var_649_cast_fp16, y = var_645_cast_fp16_1)[name = tensor<string, []>("input_85_cast_fp16")];
            tensor<fp16, [1, 64, 8, 8]> input_87_cast_fp16 = silu(x = input_85_cast_fp16)[name = tensor<string, []>("input_87_cast_fp16")];
            tensor<int32, [2]> var_654 = const()[name = tensor<string, []>("op_654"), val = tensor<int32, [2]>([1, 1])];
            tensor<int32, [2]> var_656 = const()[name = tensor<string, []>("op_656"), val = tensor<int32, [2]>([1, 1])];
            tensor<string, []> x_87_pad_type_0 = const()[name = tensor<string, []>("x_87_pad_type_0"), val = tensor<string, []>("custom")];
            tensor<int32, [4]> x_87_pad_0 = const()[name = tensor<string, []>("x_87_pad_0"), val = tensor<int32, [4]>([1, 1, 1, 1])];
            tensor<fp16, [64, 64, 3, 3]> inner_model_unet_mid_blocks_resblocks_0_conv1_weight_to_fp16 = const()[name = tensor<string, []>("inner_model_unet_mid_blocks_resblocks_0_conv1_weight_to_fp16"), val = tensor<fp16, [64, 64, 3, 3]>(BLOBFILE(path = tensor<string, []>("@model_path/weights/weight.bin"), offset = tensor<uint64, []>(2809024)))];
            tensor<fp16, [64]> inner_model_unet_mid_blocks_resblocks_0_conv1_bias_to_fp16 = const()[name = tensor<string, []>("inner_model_unet_mid_blocks_resblocks_0_conv1_bias_to_fp16"), val = tensor<fp16, [64]>(BLOBFILE(path = tensor<string, []>("@model_path/weights/weight.bin"), offset = tensor<uint64, []>(2882816)))];
            tensor<fp16, [1, 64, 8, 8]> x_87_cast_fp16 = conv(bias = inner_model_unet_mid_blocks_resblocks_0_conv1_bias_to_fp16, dilations = var_656, groups = var_77, pad = x_87_pad_0, pad_type = x_87_pad_type_0, strides = var_654, weight = inner_model_unet_mid_blocks_resblocks_0_conv1_weight_to_fp16, x = input_87_cast_fp16)[name = tensor<string, []>("x_87_cast_fp16")];
            tensor<int32, [5]> reshape_34_shape_0 = const()[name = tensor<string, []>("reshape_34_shape_0"), val = tensor<int32, [5]>([1, 2, 32, 8, 8])];
            tensor<fp16, [1, 2, 32, 8, 8]> reshape_34_cast_fp16 = reshape(shape = reshape_34_shape_0, x = x_87_cast_fp16)[name = tensor<string, []>("reshape_34_cast_fp16")];
            tensor<int32, [3]> reduce_mean_51_axes_0 = const()[name = tensor<string, []>("reduce_mean_51_axes_0"), val = tensor<int32, [3]>([2, 3, 4])];
            tensor<bool, []> reduce_mean_51_keep_dims_0 = const()[name = tensor<string, []>("reduce_mean_51_keep_dims_0"), val = tensor<bool, []>(true)];
            tensor<fp16, [1, 2, 1, 1, 1]> reduce_mean_51_cast_fp16 = reduce_mean(axes = reduce_mean_51_axes_0, keep_dims = reduce_mean_51_keep_dims_0, x = reshape_34_cast_fp16)[name = tensor<string, []>("reduce_mean_51_cast_fp16")];
            tensor<fp16, [1, 2, 32, 8, 8]> sub_34_cast_fp16 = sub(x = reshape_34_cast_fp16, y = reduce_mean_51_cast_fp16)[name = tensor<string, []>("sub_34_cast_fp16")];
            tensor<fp16, [1, 2, 32, 8, 8]> square_17_cast_fp16 = square(x = sub_34_cast_fp16)[name = tensor<string, []>("square_17_cast_fp16")];
            tensor<int32, [3]> reduce_mean_53_axes_0 = const()[name = tensor<string, []>("reduce_mean_53_axes_0"), val = tensor<int32, [3]>([2, 3, 4])];
            tensor<bool, []> reduce_mean_53_keep_dims_0 = const()[name = tensor<string, []>("reduce_mean_53_keep_dims_0"), val = tensor<bool, []>(true)];
            tensor<fp16, [1, 2, 1, 1, 1]> reduce_mean_53_cast_fp16 = reduce_mean(axes = reduce_mean_53_axes_0, keep_dims = reduce_mean_53_keep_dims_0, x = square_17_cast_fp16)[name = tensor<string, []>("reduce_mean_53_cast_fp16")];
            tensor<fp16, []> add_17_y_0_to_fp16 = const()[name = tensor<string, []>("add_17_y_0_to_fp16"), val = tensor<fp16, []>(0x1.5p-17)];
            tensor<fp16, [1, 2, 1, 1, 1]> add_17_cast_fp16 = add(x = reduce_mean_53_cast_fp16, y = add_17_y_0_to_fp16)[name = tensor<string, []>("add_17_cast_fp16")];
            tensor<fp16, [1, 2, 1, 1, 1]> sqrt_17_cast_fp16 = sqrt(x = add_17_cast_fp16)[name = tensor<string, []>("sqrt_17_cast_fp16")];
            tensor<fp16, [1, 2, 32, 8, 8]> real_div_17_cast_fp16 = real_div(x = sub_34_cast_fp16, y = sqrt_17_cast_fp16)[name = tensor<string, []>("real_div_17_cast_fp16")];
            tensor<int32, [4]> reshape_35_shape_0 = const()[name = tensor<string, []>("reshape_35_shape_0"), val = tensor<int32, [4]>([1, 64, 8, 8])];
            tensor<fp16, [1, 64, 8, 8]> reshape_35_cast_fp16 = reshape(shape = reshape_35_shape_0, x = real_div_17_cast_fp16)[name = tensor<string, []>("reshape_35_cast_fp16")];
            tensor<fp16, [128, 256]> inner_model_unet_mid_blocks_resblocks_0_norm2_linear_weight_to_fp16 = const()[name = tensor<string, []>("inner_model_unet_mid_blocks_resblocks_0_norm2_linear_weight_to_fp16"), val = tensor<fp16, [128, 256]>(BLOBFILE(path = tensor<string, []>("@model_path/weights/weight.bin"), offset = tensor<uint64, []>(2883008)))];
            tensor<fp16, [128]> inner_model_unet_mid_blocks_resblocks_0_norm2_linear_bias_to_fp16 = const()[name = tensor<string, []>("inner_model_unet_mid_blocks_resblocks_0_norm2_linear_bias_to_fp16"), val = tensor<fp16, [128]>(BLOBFILE(path = tensor<string, []>("@model_path/weights/weight.bin"), offset = tensor<uint64, []>(2948608)))];
            tensor<fp16, [1, 128]> linear_19_cast_fp16 = linear(bias = inner_model_unet_mid_blocks_resblocks_0_norm2_linear_bias_to_fp16, weight = inner_model_unet_mid_blocks_resblocks_0_norm2_linear_weight_to_fp16, x = linear_1_cast_fp16)[name = tensor<string, []>("linear_19_cast_fp16")];
            tensor<int32, [1]> var_666_axes_0 = const()[name = tensor<string, []>("op_666_axes_0"), val = tensor<int32, [1]>([2])];
            tensor<fp16, [1, 128, 1]> var_666_cast_fp16 = expand_dims(axes = var_666_axes_0, x = linear_19_cast_fp16)[name = tensor<string, []>("op_666_cast_fp16")];
            tensor<int32, [1]> var_667_axes_0 = const()[name = tensor<string, []>("op_667_axes_0"), val = tensor<int32, [1]>([3])];
            tensor<fp16, [1, 128, 1, 1]> var_667_cast_fp16 = expand_dims(axes = var_667_axes_0, x = var_666_cast_fp16)[name = tensor<string, []>("op_667_cast_fp16")];
            tensor<int32, [2]> var_668_split_sizes_0 = const()[name = tensor<string, []>("op_668_split_sizes_0"), val = tensor<int32, [2]>([64, 64])];
            tensor<int32, []> var_668_axis_0 = const()[name = tensor<string, []>("op_668_axis_0"), val = tensor<int32, []>(1)];
            tensor<fp16, [1, 64, 1, 1]> var_668_cast_fp16_0, tensor<fp16, [1, 64, 1, 1]> var_668_cast_fp16_1 = split(axis = var_668_axis_0, split_sizes = var_668_split_sizes_0, x = var_667_cast_fp16)[name = tensor<string, []>("op_668_cast_fp16")];
            tensor<fp16, []> var_670_promoted_to_fp16 = const()[name = tensor<string, []>("op_670_promoted_to_fp16"), val = tensor<fp16, []>(0x1p+0)];
            tensor<fp16, [1, 64, 1, 1]> var_671_cast_fp16 = add(x = var_668_cast_fp16_0, y = var_670_promoted_to_fp16)[name = tensor<string, []>("op_671_cast_fp16")];
            tensor<fp16, [1, 64, 8, 8]> var_672_cast_fp16 = mul(x = reshape_35_cast_fp16, y = var_671_cast_fp16)[name = tensor<string, []>("op_672_cast_fp16")];
            tensor<fp16, [1, 64, 8, 8]> input_89_cast_fp16 = add(x = var_672_cast_fp16, y = var_668_cast_fp16_1)[name = tensor<string, []>("input_89_cast_fp16")];
            tensor<fp16, [1, 64, 8, 8]> input_91_cast_fp16 = silu(x = input_89_cast_fp16)[name = tensor<string, []>("input_91_cast_fp16")];
            tensor<int32, [2]> var_677 = const()[name = tensor<string, []>("op_677"), val = tensor<int32, [2]>([1, 1])];
            tensor<int32, [2]> var_679 = const()[name = tensor<string, []>("op_679"), val = tensor<int32, [2]>([1, 1])];
            tensor<string, []> x_91_pad_type_0 = const()[name = tensor<string, []>("x_91_pad_type_0"), val = tensor<string, []>("custom")];
            tensor<int32, [4]> x_91_pad_0 = const()[name = tensor<string, []>("x_91_pad_0"), val = tensor<int32, [4]>([1, 1, 1, 1])];
            tensor<fp16, [64, 64, 3, 3]> inner_model_unet_mid_blocks_resblocks_0_conv2_weight_to_fp16 = const()[name = tensor<string, []>("inner_model_unet_mid_blocks_resblocks_0_conv2_weight_to_fp16"), val = tensor<fp16, [64, 64, 3, 3]>(BLOBFILE(path = tensor<string, []>("@model_path/weights/weight.bin"), offset = tensor<uint64, []>(2948928)))];
            tensor<fp16, [64]> inner_model_unet_mid_blocks_resblocks_0_conv2_bias_to_fp16 = const()[name = tensor<string, []>("inner_model_unet_mid_blocks_resblocks_0_conv2_bias_to_fp16"), val = tensor<fp16, [64]>(BLOBFILE(path = tensor<string, []>("@model_path/weights/weight.bin"), offset = tensor<uint64, []>(3022720)))];
            tensor<fp16, [1, 64, 8, 8]> x_91_cast_fp16 = conv(bias = inner_model_unet_mid_blocks_resblocks_0_conv2_bias_to_fp16, dilations = var_679, groups = var_77, pad = x_91_pad_0, pad_type = x_91_pad_type_0, strides = var_677, weight = inner_model_unet_mid_blocks_resblocks_0_conv2_weight_to_fp16, x = input_91_cast_fp16)[name = tensor<string, []>("x_91_cast_fp16")];
            tensor<fp16, [1, 64, 8, 8]> x_93_cast_fp16 = add(x = x_91_cast_fp16, y = x_83_cast_fp16)[name = tensor<string, []>("x_93_cast_fp16")];
            tensor<int32, [5]> reshape_36_shape_0 = const()[name = tensor<string, []>("reshape_36_shape_0"), val = tensor<int32, [5]>([1, 2, 32, 8, 8])];
            tensor<fp16, [1, 2, 32, 8, 8]> reshape_36_cast_fp16 = reshape(shape = reshape_36_shape_0, x = x_93_cast_fp16)[name = tensor<string, []>("reshape_36_cast_fp16")];
            tensor<int32, [3]> reduce_mean_54_axes_0 = const()[name = tensor<string, []>("reduce_mean_54_axes_0"), val = tensor<int32, [3]>([2, 3, 4])];
            tensor<bool, []> reduce_mean_54_keep_dims_0 = const()[name = tensor<string, []>("reduce_mean_54_keep_dims_0"), val = tensor<bool, []>(true)];
            tensor<fp16, [1, 2, 1, 1, 1]> reduce_mean_54_cast_fp16 = reduce_mean(axes = reduce_mean_54_axes_0, keep_dims = reduce_mean_54_keep_dims_0, x = reshape_36_cast_fp16)[name = tensor<string, []>("reduce_mean_54_cast_fp16")];
            tensor<fp16, [1, 2, 32, 8, 8]> sub_36_cast_fp16 = sub(x = reshape_36_cast_fp16, y = reduce_mean_54_cast_fp16)[name = tensor<string, []>("sub_36_cast_fp16")];
            tensor<fp16, [1, 2, 32, 8, 8]> square_18_cast_fp16 = square(x = sub_36_cast_fp16)[name = tensor<string, []>("square_18_cast_fp16")];
            tensor<int32, [3]> reduce_mean_56_axes_0 = const()[name = tensor<string, []>("reduce_mean_56_axes_0"), val = tensor<int32, [3]>([2, 3, 4])];
            tensor<bool, []> reduce_mean_56_keep_dims_0 = const()[name = tensor<string, []>("reduce_mean_56_keep_dims_0"), val = tensor<bool, []>(true)];
            tensor<fp16, [1, 2, 1, 1, 1]> reduce_mean_56_cast_fp16 = reduce_mean(axes = reduce_mean_56_axes_0, keep_dims = reduce_mean_56_keep_dims_0, x = square_18_cast_fp16)[name = tensor<string, []>("reduce_mean_56_cast_fp16")];
            tensor<fp16, []> add_18_y_0_to_fp16 = const()[name = tensor<string, []>("add_18_y_0_to_fp16"), val = tensor<fp16, []>(0x1.5p-17)];
            tensor<fp16, [1, 2, 1, 1, 1]> add_18_cast_fp16 = add(x = reduce_mean_56_cast_fp16, y = add_18_y_0_to_fp16)[name = tensor<string, []>("add_18_cast_fp16")];
            tensor<fp16, [1, 2, 1, 1, 1]> sqrt_18_cast_fp16 = sqrt(x = add_18_cast_fp16)[name = tensor<string, []>("sqrt_18_cast_fp16")];
            tensor<fp16, [1, 2, 32, 8, 8]> real_div_18_cast_fp16 = real_div(x = sub_36_cast_fp16, y = sqrt_18_cast_fp16)[name = tensor<string, []>("real_div_18_cast_fp16")];
            tensor<int32, [4]> reshape_37_shape_0 = const()[name = tensor<string, []>("reshape_37_shape_0"), val = tensor<int32, [4]>([1, 64, 8, 8])];
            tensor<fp16, [1, 64, 8, 8]> reshape_37_cast_fp16 = reshape(shape = reshape_37_shape_0, x = real_div_18_cast_fp16)[name = tensor<string, []>("reshape_37_cast_fp16")];
            tensor<int32, [2]> var_699 = const()[name = tensor<string, []>("op_699"), val = tensor<int32, [2]>([1, 1])];
            tensor<int32, [2]> var_701 = const()[name = tensor<string, []>("op_701"), val = tensor<int32, [2]>([1, 1])];
            tensor<string, []> qkv_1_pad_type_0 = const()[name = tensor<string, []>("qkv_1_pad_type_0"), val = tensor<string, []>("custom")];
            tensor<int32, [4]> qkv_1_pad_0 = const()[name = tensor<string, []>("qkv_1_pad_0"), val = tensor<int32, [4]>([0, 0, 0, 0])];
            tensor<fp16, [192, 64, 1, 1]> inner_model_unet_mid_blocks_resblocks_0_attn_qkv_proj_weight_to_fp16 = const()[name = tensor<string, []>("inner_model_unet_mid_blocks_resblocks_0_attn_qkv_proj_weight_to_fp16"), val = tensor<fp16, [192, 64, 1, 1]>(BLOBFILE(path = tensor<string, []>("@model_path/weights/weight.bin"), offset = tensor<uint64, []>(3022912)))];
…
            tensor<fp16, [256, 256]> inner_model_unet_u_blocks_3_resblocks_0_norm1_linear_weight_to_fp16 = const()[name = tensor<string, []>("inner_model_unet_u_blocks_3_resblocks_0_norm1_linear_weight_to_fp16"), val = tensor<fp16, [256, 256]>(BLOBFILE(path = tensor<string, []>("@model_path/weights/weight.bin"), offset = tensor<uint64, []>(7532096)))];
            tensor<fp16, [256]> inner_model_unet_u_blocks_3_resblocks_0_norm1_linear_bias_to_fp16 = const()[name = tensor<string, []>("inner_model_unet_u_blocks_3_resblocks_0_norm1_linear_bias_to_fp16"), val = tensor<fp16, [256]>(BLOBFILE(path = tensor<string, []>("@model_path/weights/weight.bin"), offset = tensor<uint64, []>(7663232)))];
            tensor<fp16, [1, 256]> linear_40_cast_fp16 = linear(bias = inner_model_unet_u_blocks_3_resblocks_0_norm1_linear_bias_to_fp16, weight = inner_model_unet_u_blocks_3_resblocks_0_norm1_linear_weight_to_fp16, x = linear_1_cast_fp16)[name = tensor<string, []>("linear_40_cast_fp16")];
            tensor<int32, [1]> var_1457_axes_0 = const()[name = tensor<string, []>("op_1457_axes_0"), val = tensor<int32, [1]>([2])];
            tensor<fp16, [1, 256, 1]> var_1457_cast_fp16 = expand_dims(axes = var_1457_axes_0, x = linear_40_cast_fp16)[name = tensor<string, []>("op_1457_cast_fp16")];
            tensor<int32, [1]> var_1458_axes_0 = const()[name = tensor<string, []>("op_1458_axes_0"), val = tensor<int32, [1]>([3])];
            tensor<fp16, [1, 256, 1, 1]> var_1458_cast_fp16 = expand_dims(axes = var_1458_axes_0, x = var_1457_cast_fp16)[name = tensor<string, []>("op_1458_cast_fp16")];
            tensor<int32, [2]> var_1459_split_sizes_0 = const()[name = tensor<string, []>("op_1459_split_sizes_0"), val = tensor<int32, [2]>([128, 128])];
            tensor<int32, []> var_1459_axis_0 = const()[name = tensor<string, []>("op_1459_axis_0"), val = tensor<int32, []>(1)];
            tensor<fp16, [1, 128, 1, 1]> var_1459_cast_fp16_0, tensor<fp16, [1, 128, 1, 1]> var_1459_cast_fp16_1 = split(axis = var_1459_axis_0, split_sizes = var_1459_split_sizes_0, x = var_1458_cast_fp16)[name = tensor<string, []>("op_1459_cast_fp16")];
            tensor<fp16, []> var_1461_promoted_to_fp16 = const()[name = tensor<string, []>("op_1461_promoted_to_fp16"), val = tensor<fp16, []>(0x1p+0)];
            tensor<fp16, [1, 128, 1, 1]> var_1462_cast_fp16 = add(x = var_1459_cast_fp16_0, y = var_1461_promoted_to_fp16)[name = tensor<string, []>("op_1462_cast_fp16")];
            tensor<fp16, [1, 128, 64, 64]> var_1463_cast_fp16 = mul(x = reshape_85_cast_fp16, y = var_1462_cast_fp16)[name = tensor<string, []>("op_1463_cast_fp16")];
            tensor<fp16, [1, 128, 64, 64]> input_217_cast_fp16 = add(x = var_1463_cast_fp16, y = var_1459_cast_fp16_1)[name = tensor<string, []>("input_217_cast_fp16")];
            tensor<fp16, [1, 128, 64, 64]> input_219_cast_fp16 = silu(x = input_217_cast_fp16)[name = tensor<string, []>("input_219_cast_fp16")];
            tensor<int32, [2]> var_1468 = const()[name = tensor<string, []>("op_1468"), val = tensor<int32, [2]>([1, 1])];
            tensor<int32, [2]> var_1470 = const()[name = tensor<string, []>("op_1470"), val = tensor<int32, [2]>([1, 1])];
            tensor<string, []> x_201_pad_type_0 = const()[name = tensor<string, []>("x_201_pad_type_0"), val = tensor<string, []>("custom")];
            tensor<int32, [4]> x_201_pad_0 = const()[name = tensor<string, []>("x_201_pad_0"), val = tensor<int32, [4]>([1, 1, 1, 1])];
            tensor<fp16, [64, 128, 3, 3]> inner_model_unet_u_blocks_3_resblocks_0_conv1_weight_to_fp16 = const()[name = tensor<string, []>("inner_model_unet_u_blocks_3_resblocks_0_conv1_weight_to_fp16"), val = tensor<fp16, [64, 128, 3, 3]>(BLOBFILE(path = tensor<string, []>("@model_path/weights/weight.bin"), offset = tensor<uint64, []>(7663808)))];
            tensor<fp16, [64]> inner_model_unet_u_blocks_3_resblocks_0_conv1_bias_to_fp16 = const()[name = tensor<string, []>("inner_model_unet_u_blocks_3_resblocks_0_conv1_bias_to_fp16"), val = tensor<fp16, [64]>(BLOBFILE(path = tensor<string, []>("@model_path/weights/weight.bin"), offset = tensor<uint64, []>(7811328)))];
            tensor<fp16, [1, 64, 64, 64]> x_201_cast_fp16 = conv(bias = inner_model_unet_u_blocks_3_resblocks_0_conv1_bias_to_fp16, dilations = var_1470, groups = var_77, pad = x_201_pad_0, pad_type = x_201_pad_type_0, strides = var_1468, weight = inner_model_unet_u_blocks_3_resblocks_0_conv1_weight_to_fp16, x = input_219_cast_fp16)[name = tensor<string, []>("x_201_cast_fp16")];
            tensor<int32, [5]> reshape_86_shape_0 = const()[name = tensor<string, []>("reshape_86_shape_0"), val = tensor<int32, [5]>([1, 2, 32, 64, 64])];
            tensor<fp16, [1, 2, 32, 64, 64]> reshape_86_cast_fp16 = reshape(shape = reshape_86_shape_0, x = x_201_cast_fp16)[name = tensor<string, []>("reshape_86_cast_fp16")];
            tensor<int32, [3]> reduce_mean_123_axes_0 = const()[name = tensor<string, []>("reduce_mean_123_axes_0"), val = tensor<int32, [3]>([2, 3, 4])];
            tensor<bool, []> reduce_mean_123_keep_dims_0 = const()[name = tensor<string, []>("reduce_mean_123_keep_dims_0"), val = tensor<bool, []>(true)];
            tensor<fp16, [1, 2, 1, 1, 1]> reduce_mean_123_cast_fp16 = reduce_mean(axes = reduce_mean_123_axes_0, keep_dims = reduce_mean_123_keep_dims_0, x = reshape_86_cast_fp16)[name = tensor<string, []>("reduce_mean_123_cast_fp16")];
            tensor<fp16, [1, 2, 32, 64, 64]> sub_82_cast_fp16 = sub(x = reshape_86_cast_fp16, y = reduce_mean_123_cast_fp16)[name = tensor<string, []>("sub_82_cast_fp16")];
            tensor<fp16, [1, 2, 32, 64, 64]> square_41_cast_fp16 = square(x = sub_82_cast_fp16)[name = tensor<string, []>("square_41_cast_fp16")];
            tensor<int32, [3]> reduce_mean_125_axes_0 = const()[name = tensor<string, []>("reduce_mean_125_axes_0"), val = tensor<int32, [3]>([2, 3, 4])];
            tensor<bool, []> reduce_mean_125_keep_dims_0 = const()[name = tensor<string, []>("reduce_mean_125_keep_dims_0"), val = tensor<bool, []>(true)];
            tensor<fp16, [1, 2, 1, 1, 1]> reduce_mean_125_cast_fp16 = reduce_mean(axes = reduce_mean_125_axes_0, keep_dims = reduce_mean_125_keep_dims_0, x = square_41_cast_fp16)[name = tensor<string, []>("reduce_mean_125_cast_fp16")];
            tensor<fp16, []> add_43_y_0_to_fp16 = const()[name = tensor<string, []>("add_43_y_0_to_fp16"), val = tensor<fp16, []>(0x1.5p-17)];
            tensor<fp16, [1, 2, 1, 1, 1]> add_43_cast_fp16 = add(x = reduce_mean_125_cast_fp16, y = add_43_y_0_to_fp16)[name = tensor<string, []>("add_43_cast_fp16")];
            tensor<fp16, [1, 2, 1, 1, 1]> sqrt_41_cast_fp16 = sqrt(x = add_43_cast_fp16)[name = tensor<string, []>("sqrt_41_cast_fp16")];
            tensor<fp16, [1, 2, 32, 64, 64]> real_div_41_cast_fp16 = real_div(x = sub_82_cast_fp16, y = sqrt_41_cast_fp16)[name = tensor<string, []>("real_div_41_cast_fp16")];
            tensor<int32, [4]> reshape_87_shape_0 = const()[name = tensor<string, []>("reshape_87_shape_0"), val = tensor<int32, [4]>([1, 64, 64, 64])];
            tensor<fp16, [1, 64, 64, 64]> reshape_87_cast_fp16 = reshape(shape = reshape_87_shape_0, x = real_div_41_cast_fp16)[name = tensor<string, []>("reshape_87_cast_fp16")];
            tensor<fp16, [128, 256]> inner_model_unet_u_blocks_3_resblocks_0_norm2_linear_weight_to_fp16 = const()[name = tensor<string, []>("inner_model_unet_u_blocks_3_resblocks_0_norm2_linear_weight_to_fp16"), val = tensor<fp16, [128, 256]>(BLOBFILE(path = tensor<string, []>("@model_path/weights/weight.bin"), offset = tensor<uint64, []>(7811520)))];
            tensor<fp16, [128]> inner_model_unet_u_blocks_3_resblocks_0_norm2_linear_bias_to_fp16 = const()[name = tensor<string, []>("inner_model_unet_u_blocks_3_resblocks_0_norm2_linear_bias_to_fp16"), val = tensor<fp16, [128]>(BLOBFILE(path = tensor<string, []>("@model_path/weights/weight.bin"), offset = tensor<uint64, []>(7877120)))];
            tensor<fp16, [1, 128]> linear_41_cast_fp16 = linear(bias = inner_model_unet_u_blocks_3_resblocks_0_norm2_linear_bias_to_fp16, weight = inner_model_unet_u_blocks_3_resblocks_0_norm2_linear_weight_to_fp16, x = linear_1_cast_fp16)[name = tensor<string, []>("linear_41_cast_fp16")];
            tensor<int32, [1]> var_1480_axes_0 = const()[name = tensor<string, []>("op_1480_axes_0"), val = tensor<int32, [1]>([2])];
            tensor<fp16, [1, 128, 1]> var_1480_cast_fp16 = expand_dims(axes = var_1480_axes_0, x = linear_41_cast_fp16)[name = tensor<string, []>("op_1480_cast_fp16")];
            tensor<int32, [1]> var_1481_axes_0 = const()[name = tensor<string, []>("op_1481_axes_0"), val = tensor<int32, [1]>([3])];
            tensor<fp16, [1, 128, 1, 1]> var_1481_cast_fp16 = expand_dims(axes = var_1481_axes_0, x = var_1480_cast_fp16)[name = tensor<string, []>("op_1481_cast_fp16")];
            tensor<int32, [2]> var_1482_split_sizes_0 = const()[name = tensor<string, []>("op_1482_split_sizes_0"), val = tensor<int32, [2]>([64, 64])];
            tensor<int32, []> var_1482_axis_0 = const()[name = tensor<string, []>("op_1482_axis_0"), val = tensor<int32, []>(1)];
            tensor<fp16, [1, 64, 1, 1]> var_1482_cast_fp16_0, tensor<fp16, [1, 64, 1, 1]> var_1482_cast_fp16_1 = split(axis = var_1482_axis_0, split_sizes = var_1482_split_sizes_0, x = var_1481_cast_fp16)[name = tensor<string, []>("op_1482_cast_fp16")];
            tensor<fp16, []> var_1484_promoted_to_fp16 = const()[name = tensor<string, []>("op_1484_promoted_to_fp16"), val = tensor<fp16, []>(0x1p+0)];
            tensor<fp16, [1, 64, 1, 1]> var_1485_cast_fp16 = add(x = var_1482_cast_fp16_0, y = var_1484_promoted_to_fp16)[name = tensor<string, []>("op_1485_cast_fp16")];
            tensor<fp16, [1, 64, 64, 64]> var_1486_cast_fp16 = mul(x = reshape_87_cast_fp16, y = var_1485_cast_fp16)[name = tensor<string, []>("op_1486_cast_fp16")];
            tensor<fp16, [1, 64, 64, 64]> input_221_cast_fp16 = add(x = var_1486_cast_fp16, y = var_1482_cast_fp16_1)[name = tensor<string, []>("input_221_cast_fp16")];
            tensor<fp16, [1, 64, 64, 64]> input_223_cast_fp16 = silu(x = input_221_cast_fp16)[name = tensor<string, []>("input_223_cast_fp16")];
            tensor<int32, [2]> var_1491 = const()[name = tensor<string, []>("op_1491"), val = tensor<int32, [2]>([1, 1])];
            tensor<int32, [2]> var_1493 = const()[name = tensor<string, []>("op_1493"), val = tensor<int32, [2]>([1, 1])];
            tensor<string, []> x_205_pad_type_0 = const()[name = tensor<string, []>("x_205_pad_type_0"), val = tensor<string, []>("custom")];
            tensor<int32, [4]> x_205_pad_0 = const()[name = tensor<string, []>("x_205_pad_0"), val = tensor<int32, [4]>([1, 1, 1, 1])];
            tensor<fp16, [64, 64, 3, 3]> inner_model_unet_u_blocks_3_resblocks_0_conv2_weight_to_fp16 = const()[name = tensor<string, []>("inner_model_unet_u_blocks_3_resblocks_0_conv2_weight_to_fp16"), val = tensor<fp16, [64, 64, 3, 3]>(BLOBFILE(path = tensor<string, []>("@model_path/weights/weight.bin"), offset = tensor<uint64, []>(7877440)))];
            tensor<fp16, [64]> inner_model_unet_u_blocks_3_resblocks_0_conv2_bias_to_fp16 = const()[name = tensor<string, []>("inner_model_unet_u_blocks_3_resblocks_0_conv2_bias_to_fp16"), val = tensor<fp16, [64]>(BLOBFILE(path = tensor<string, []>("@model_path/weights/weight.bin"), offset = tensor<uint64, []>(7951232)))];
            tensor<fp16, [1, 64, 64, 64]> x_205_cast_fp16 = conv(bias = inner_model_unet_u_blocks_3_resblocks_0_conv2_bias_to_fp16, dilations = var_1493, groups = var_77, pad = x_205_pad_0, pad_type = x_205_pad_type_0, strides = var_1491, weight = inner_model_unet_u_blocks_3_resblocks_0_conv2_weight_to_fp16, x = input_223_cast_fp16)[name = tensor<string, []>("x_205_cast_fp16")];
            tensor<fp16, [1, 64, 64, 64]> x_207_cast_fp16 = add(x = x_205_cast_fp16, y = r_19_cast_fp16)[name = tensor<string, []>("x_207_cast_fp16")];
            tensor<bool, []> input_225_interleave_0 = const()[name = tensor<string, []>("input_225_interleave_0"), val = tensor<bool, []>(false)];
            tensor<fp16, [1, 128, 64, 64]> input_225_cast_fp16 = concat(axis = var_77, interleave = input_225_interleave_0, values = (x_207_cast_fp16, x_13_cast_fp16))[name = tensor<string, []>("input_225_cast_fp16")];
            tensor<int32, [2]> var_1506 = const()[name = tensor<string, []>("op_1506"), val = tensor<int32, [2]>([1, 1])];
            tensor<int32, [2]> var_1508 = const()[name = tensor<string, []>("op_1508"), val = tensor<int32, [2]>([1, 1])];
            tensor<string, []> r_21_pad_type_0 = const()[name = tensor<string, []>("r_21_pad_type_0"), val = tensor<string, []>("custom")];
            tensor<int32, [4]> r_21_pad_0 = const()[name = tensor<string, []>("r_21_pad_0"), val = tensor<int32, [4]>([0, 0, 0, 0])];
            tensor<fp16, [64, 128, 1, 1]> inner_model_unet_u_blocks_3_resblocks_1_proj_weight_to_fp16 = const()[name = tensor<string, []>("inner_model_unet_u_blocks_3_resblocks_1_proj_weight_to_fp16"), val = tensor<fp16, [64, 128, 1, 1]>(BLOBFILE(path = tensor<string, []>("@model_path/weights/weight.bin"), offset = tensor<uint64, []>(7951424)))];
            tensor<fp16, [64]> inner_model_unet_u_blocks_3_resblocks_1_proj_bias_to_fp16 = const()[name = tensor<string, []>("inner_model_unet_u_blocks_3_resblocks_1_proj_bias_to_fp16"), val = tensor<fp16, [64]>(BLOBFILE(path = tensor<string, []>("@model_path/weights/weight.bin"), offset = tensor<uint64, []>(7967872)))];
            tensor<fp16, [1, 64, 64, 64]> r_21_cast_fp16 = conv(bias = inner_model_unet_u_blocks_3_resblocks_1_proj_bias_to_fp16, dilations = var_1508, groups = var_77, pad = r_21_pad_0, pad_type = r_21_pad_type_0, strides = var_1506, weight = inner_model_unet_u_blocks_3_resblocks_1_proj_weight_to_fp16, x = input_225_cast_fp16)[name = tensor<string, []>("r_21_cast_fp16")];
            tensor<int32, [5]> reshape_88_shape_0 = const()[name = tensor<string, []>("reshape_88_shape_0"), val = tensor<int32, [5]>([1, 4, 32, 64, 64])];
            tensor<fp16, [1, 4, 32, 64, 64]> reshape_88_cast_fp16 = reshape(shape = reshape_88_shape_0, x = input_225_cast_fp16)[name = tensor<string, []>("reshape_88_cast_fp16")];
            tensor<int32, [3]> reduce_mean_126_axes_0 = const()[name = tensor<string, []>("reduce_mean_126_axes_0"), val = tensor<int32, [3]>([2, 3, 4])];
            tensor<bool, []> reduce_mean_126_keep_dims_0 = const()[name = tensor<string, []>("reduce_mean_126_keep_dims_0"), val = tensor<bool, []>(true)];
            tensor<fp16, [1, 4, 1, 1, 1]> reduce_mean_126_cast_fp16 = reduce_mean(axes = reduce_mean_126_axes_0, keep_dims = reduce_mean_126_keep_dims_0, x = reshape_88_cast_fp16)[name = tensor<string, []>("reduce_mean_126_cast_fp16")];
            tensor<fp16, [1, 4, 32, 64, 64]> sub_84_cast_fp16 = sub(x = reshape_88_cast_fp16, y = reduce_mean_126_cast_fp16)[name = tensor<string, []>("sub_84_cast_fp16")];
            tensor<fp16, [1, 4, 32, 64, 64]> square_42_cast_fp16 = square(x = sub_84_cast_fp16)[name = tensor<string, []>("square_42_cast_fp16")];
            tensor<int32, [3]> reduce_mean_128_axes_0 = const()[name = tensor<string, []>("reduce_mean_128_axes_0"), val = tensor<int32, [3]>([2, 3, 4])];
            tensor<bool, []> reduce_mean_128_keep_dims_0 = const()[name = tensor<string, []>("reduce_mean_128_keep_dims_0"), val = tensor<bool, []>(true)];
            tensor<fp16, [1, 4, 1, 1, 1]> reduce_mean_128_cast_fp16 = reduce_mean(axes = reduce_mean_128_axes_0, keep_dims = reduce_mean_128_keep_dims_0, x = square_42_cast_fp16)[name = tensor<string, []>("reduce_mean_128_cast_fp16")];
            tensor<fp16, []> add_44_y_0_to_fp16 = const()[name = tensor<string, []>("add_44_y_0_to_fp16"), val = tensor<fp16, []>(0x1.5p-17)];
            tensor<fp16, [1, 4, 1, 1, 1]> add_44_cast_fp16 = add(x = reduce_mean_128_cast_fp16, y = add_44_y_0_to_fp16)[name = tensor<string, []>("add_44_cast_fp16")];
            tensor<fp16, [1, 4, 1, 1, 1]> sqrt_42_cast_fp16 = sqrt(x = add_44_cast_fp16)[name = tensor<string, []>("sqrt_42_cast_fp16")];
            tensor<fp16, [1, 4, 32, 64, 64]> real_div_42_cast_fp16 = real_div(x = sub_84_cast_fp16, y = sqrt_42_cast_fp16)[name = tensor<string, []>("real_div_42_cast_fp16")];
            tensor<int32, [4]> reshape_89_shape_0 = const()[name = tensor<string, []>("reshape_89_shape_0"), val = tensor<int32, [4]>([1, 128, 64, 64])];
            tensor<fp16, [1, 128, 64, 64]> reshape_89_cast_fp16 = reshape(shape = reshape_89_shape_0, x = real_div_42_cast_fp16)[name = tensor<string, []>("reshape_89_cast_fp16")];
            tensor<fp16, [256, 256]> inner_model_unet_u_blocks_3_resblocks_1_norm1_linear_weight_to_fp16 = const()[name = tensor<string, []>("inner_model_unet_u_blocks_3_resblocks_1_norm1_linear_weight_to_fp16"), val = tensor<fp16, [256, 256]>(BLOBFILE(path = tensor<string, []>("@model_path/weights/weight.bin"), offset = tensor<uint64, []>(7968064)))];
            tensor<fp16, [256]> inner_model_unet_u_blocks_3_resblocks_1_norm1_linear_bias_to_fp16 = const()[name = tensor<string, []>("inner_model_unet_u_blocks_3_resblocks_1_norm1_linear_bias_to_fp16"), val = tensor<fp16, [256]>(BLOBFILE(path = tensor<string, []>("@model_path/weights/weight.bin"), offset = tensor<uint64, []>(8099200)))];
            tensor<fp16, [1, 256]> linear_42_cast_fp16 = linear(bias = inner_model_unet_u_blocks_3_resblocks_1_norm1_linear_bias_to_fp16, weight = inner_model_unet_u_blocks_3_resblocks_1_norm1_linear_weight_to_fp16, x = linear_1_cast_fp16)[name = tensor<string, []>("linear_42_cast_fp16")];
            tensor<int32, [1]> var_1518_axes_0 = const()[name = tensor<string, []>("op_1518_axes_0"), val = tensor<int32, [1]>([2])];
            tensor<fp16, [1, 256, 1]> var_1518_cast_fp16 = expand_dims(axes = var_1518_axes_0, x = linear_42_cast_fp16)[name = tensor<string, []>("op_1518_cast_fp16")];
            tensor<int32, [1]> var_1519_axes_0 = const()[name = tensor<string, []>("op_1519_axes_0"), val = tensor<int32, [1]>([3])];
            tensor<fp16, [1, 256, 1, 1]> var_1519_cast_fp16 = expand_dims(axes = var_1519_axes_0, x = var_1518_cast_fp16)[name = tensor<string, []>("op_1519_cast_fp16")];
            tensor<int32, [2]> var_1520_split_sizes_0 = const()[name = tensor<string, []>("op_1520_split_sizes_0"), val = tensor<int32, [2]>([128, 128])];
            tensor<int32, []> var_1520_axis_0 = const()[name = tensor<string, []>("op_1520_axis_0"), val = tensor<int32, []>(1)];
            tensor<fp16, [1, 128, 1, 1]> var_1520_cast_fp16_0, tensor<fp16, [1, 128, 1, 1]> var_1520_cast_fp16_1 = split(axis = var_1520_axis_0, split_sizes = var_1520_split_sizes_0, x = var_1519_cast_fp16)[name = tensor<string, []>("op_1520_cast_fp16")];
            tensor<fp16, []> var_1522_promoted_to_fp16 = const()[name = tensor<string, []>("op_1522_promoted_to_fp16"), val = tensor<fp16, []>(0x1p+0)];
            tensor<fp16, [1, 128, 1, 1]> var_1523_cast_fp16 = add(x = var_1520_cast_fp16_0, y = var_1522_promoted_to_fp16)[name = tensor<string, []>("op_1523_cast_fp16")];
            tensor<fp16, [1, 128, 64, 64]> var_1524_cast_fp16 = mul(x = reshape_89_cast_fp16, y = var_1523_cast_fp16)[name = tensor<string, []>("op_1524_cast_fp16")];
            tensor<fp16, [1, 128, 64, 64]> input_227_cast_fp16 = add(x = var_1524_cast_fp16, y = var_1520_cast_fp16_1)[name = tensor<string, []>("input_227_cast_fp16")];
            tensor<fp16, [1, 128, 64, 64]> input_229_cast_fp16 = silu(x = input_227_cast_fp16)[name = tensor<string, []>("input_229_cast_fp16")];
            tensor<int32, [2]> var_1529 = const()[name = tensor<string, []>("op_1529"), val = tensor<int32, [2]>([1, 1])];
            tensor<int32, [2]> var_1531 = const()[name = tensor<string, []>("op_1531"), val = tensor<int32, [2]>([1, 1])];
            tensor<string, []> x_211_pad_type_0 = const()[name = tensor<string, []>("x_211_pad_type_0"), val = tensor<string, []>("custom")];
            tensor<int32, [4]> x_211_pad_0 = const()[name = tensor<string, []>("x_211_pad_0"), val = tensor<int32, [4]>([1, 1, 1, 1])];
            tensor<fp16, [64, 128, 3, 3]> inner_model_unet_u_blocks_3_resblocks_1_conv1_weight_to_fp16 = const()[name = tensor<string, []>("inner_model_unet_u_blocks_3_resblocks_1_conv1_weight_to_fp16"), val = tensor<fp16, [64, 128, 3, 3]>(BLOBFILE(path = tensor<string, []>("@model_path/weights/weight.bin"), offset = tensor<uint64, []>(8099776)))];
            tensor<fp16, [64]> inner_model_unet_u_blocks_3_resblocks_1_conv1_bias_to_fp16 = const()[name = tensor<string, []>("inner_model_unet_u_blocks_3_resblocks_1_conv1_bias_to_fp16"), val = tensor<fp16, [64]>(BLOBFILE(path = tensor<string, []>("@model_path/weights/weight.bin"), offset = tensor<uint64, []>(8247296)))];
            tensor<fp16, [1, 64, 64, 64]> x_211_cast_fp16 = conv(bias = inner_model_unet_u_blocks_3_resblocks_1_conv1_bias_to_fp16, dilations = var_1531, groups = var_77, pad = x_211_pad_0, pad_type = x_211_pad_type_0, strides = var_1529, weight = inner_model_unet_u_blocks_3_resblocks_1_conv1_weight_to_fp16, x = input_229_cast_fp16)[name = tensor<string, []>("x_211_cast_fp16")];
            tensor<int32, [5]> reshape_90_shape_0 = const()[name = tensor<string, []>("reshape_90_shape_0"), val = tensor<int32, [5]>([1, 2, 32, 64, 64])];
            tensor<fp16, [1, 2, 32, 64, 64]> reshape_90_cast_fp16 = reshape(shape = reshape_90_shape_0, x = x_211_cast_fp16)[name = tensor<string, []>("reshape_90_cast_fp16")];
            tensor<int32, [3]> reduce_mean_129_axes_0 = const()[name = tensor<string, []>("reduce_mean_129_axes_0"), val = tensor<int32, [3]>([2, 3, 4])];
            tensor<bool, []> reduce_mean_129_keep_dims_0 = const()[name = tensor<string, []>("reduce_mean_129_keep_dims_0"), val = tensor<bool, []>(true)];
            tensor<fp16, [1, 2, 1, 1, 1]> reduce_mean_129_cast_fp16 = reduce_mean(axes = reduce_mean_129_axes_0, keep_dims = reduce_mean_129_keep_dims_0, x = reshape_90_cast_fp16)[name = tensor<string, []>("reduce_mean_129_cast_fp16")];
            tensor<fp16, [1, 2, 32, 64, 64]> sub_86_cast_fp16 = sub(x = reshape_90_cast_fp16, y = reduce_mean_129_cast_fp16)[name = tensor<string, []>("sub_86_cast_fp16")];
            tensor<fp16, [1, 2, 32, 64, 64]> square_43_cast_fp16 = square(x = sub_86_cast_fp16)[name = tensor<string, []>("square_43_cast_fp16")];
            tensor<int32, [3]> reduce_mean_131_axes_0 = const()[name = tensor<string, []>("reduce_mean_131_axes_0"), val = tensor<int32, [3]>([2, 3, 4])];
            tensor<bool, []> reduce_mean_131_keep_dims_0 = const()[name = tensor<string, []>("reduce_mean_131_keep_dims_0"), val = tensor<bool, []>(true)];
            tensor<fp16, [1, 2, 1, 1, 1]> reduce_mean_131_cast_fp16 = reduce_mean(axes = reduce_mean_131_axes_0, keep_dims = reduce_mean_131_keep_dims_0, x = square_43_cast_fp16)[name = tensor<string, []>("reduce_mean_131_cast_fp16")];
            tensor<fp16, []> add_45_y_0_to_fp16 = const()[name = tensor<string, []>("add_45_y_0_to_fp16"), val = tensor<fp16, []>(0x1.5p-17)];
            tensor<fp16, [1, 2, 1, 1, 1]> add_45_cast_fp16 = add(x = reduce_mean_131_cast_fp16, y = add_45_y_0_to_fp16)[name = tensor<string, []>("add_45_cast_fp16")];
            tensor<fp16, [1, 2, 1, 1, 1]> sqrt_43_cast_fp16 = sqrt(x = add_45_cast_fp16)[name = tensor<string, []>("sqrt_43_cast_fp16")];
            tensor<fp16, [1, 2, 32, 64, 64]> real_div_43_cast_fp16 = real_div(x = sub_86_cast_fp16, y = sqrt_43_cast_fp16)[name = tensor<string, []>("real_div_43_cast_fp16")];
            tensor<int32, [4]> reshape_91_shape_0 = const()[name = tensor<string, []>("reshape_91_shape_0"), val = tensor<int32, [4]>([1, 64, 64, 64])];
            tensor<fp16, [1, 64, 64, 64]> reshape_91_cast_fp16 = reshape(shape = reshape_91_shape_0, x = real_div_43_cast_fp16)[name = tensor<string, []>("reshape_91_cast_fp16")];
            tensor<fp16, [128, 256]> inner_model_unet_u_blocks_3_resblocks_1_norm2_linear_weight_to_fp16 = const()[name = tensor<string, []>("inner_model_unet_u_blocks_3_resblocks_1_norm2_linear_weight_to_fp16"), val = tensor<fp16, [128, 256]>(BLOBFILE(path = tensor<string, []>("@model_path/weights/weight.bin"), offset = tensor<uint64, []>(8247488)))];
            tensor<fp16, [128]> inner_model_unet_u_blocks_3_resblocks_1_norm2_linear_bias_to_fp16 = const()[name = tensor<string, []>("inner_model_unet_u_blocks_3_resblocks_1_norm2_linear_bias_to_fp16"), val = tensor<fp16, [128]>(BLOBFILE(path = tensor<string, []>("@model_path/weights/weight.bin"), offset = tensor<uint64, []>(8313088)))];
            tensor<fp16, [1, 128]> linear_43_cast_fp16 = linear(bias = inner_model_unet_u_blocks_3_resblocks_1_norm2_linear_bias_to_fp16, weight = inner_model_unet_u_blocks_3_resblocks_1_norm2_linear_weight_to_fp16, x = linear_1_cast_fp16)[name = tensor<string, []>("linear_43_cast_fp16")];
            tensor<int32, [1]> var_1541_axes_0 = const()[name = tensor<string, []>("op_1541_axes_0"), val = tensor<int32, [1]>([2])];
            tensor<fp16, [1, 128, 1]> var_1541_cast_fp16 = expand_dims(axes = var_1541_axes_0, x = linear_43_cast_fp16)[name = tensor<string, []>("op_1541_cast_fp16")];
            tensor<int32, [1]> var_1542_axes_0 = const()[name = tensor<string, []>("op_1542_axes_0"), val = tensor<int32, [1]>([3])];
            tensor<fp16, [1, 128, 1, 1]> var_1542_cast_fp16 = expand_dims(axes = var_1542_axes_0, x = var_1541_cast_fp16)[name = tensor<string, []>("op_1542_cast_fp16")];
            tensor<int32, [2]> var_1543_split_sizes_0 = const()[name = tensor<string, []>("op_1543_split_sizes_0"), val = tensor<int32, [2]>([64, 64])];
            tensor<int32, []> var_1543_axis_0 = const()[name = tensor<string, []>("op_1543_axis_0"), val = tensor<int32, []>(1)];
            tensor<fp16, [1, 64, 1, 1]> var_1543_cast_fp16_0, tensor<fp16, [1, 64, 1, 1]> var_1543_cast_fp16_1 = split(axis = var_1543_axis_0, split_sizes = var_1543_split_sizes_0, x = var_1542_cast_fp16)[name = tensor<string, []>("op_1543_cast_fp16")];
            tensor<fp16, []> var_1545_promoted_to_fp16 = const()[name = tensor<string, []>("op_1545_promoted_to_fp16"), val = tensor<fp16, []>(0x1p+0)];
            tensor<fp16, [1, 64, 1, 1]> var_1546_cast_fp16 = add(x = var_1543_cast_fp16_0, y = var_1545_promoted_to_fp16)[name = tensor<string, []>("op_1546_cast_fp16")];
            tensor<fp16, [1, 64, 64, 64]> var_1547_cast_fp16 = mul(x = reshape_91_cast_fp16, y = var_1546_cast_fp16)[name = tensor<string, []>("op_1547_cast_fp16")];
            tensor<fp16, [1, 64, 64, 64]> input_231_cast_fp16 = add(x = var_1547_cast_fp16, y = var_1543_cast_fp16_1)[name = tensor<string, []>("input_231_cast_fp16")];
            tensor<fp16, [1, 64, 64, 64]> input_233_cast_fp16 = silu(x = input_231_cast_fp16)[name = tensor<string, []>("input_233_cast_fp16")];
            tensor<int32, [2]> var_1552 = const()[name = tensor<string, []>("op_1552"), val = tensor<int32, [2]>([1, 1])];
            tensor<int32, [2]> var_1554 = const()[name = tensor<string, []>("op_1554"), val = tensor<int32, [2]>([1, 1])];
            tensor<string, []> x_215_pad_type_0 = const()[name = tensor<string, []>("x_215_pad_type_0"), val = tensor<string, []>("custom")];
            tensor<int32, [4]> x_215_pad_0 = const()[name = tensor<string, []>("x_215_pad_0"), val = tensor<int32, [4]>([1, 1, 1, 1])];
            tensor<fp16, [64, 64, 3, 3]> inner_model_unet_u_blocks_3_resblocks_1_conv2_weight_to_fp16 = const()[name = tensor<string, []>("inner_model_unet_u_blocks_3_resblocks_1_conv2_weight_to_fp16"), val = tensor<fp16, [64, 64, 3, 3]>(BLOBFILE(path = tensor<string, []>("@model_path/weights/weight.bin"), offset = tensor<uint64, []>(8313408)))];
            tensor<fp16, [64]> inner_model_unet_u_blocks_3_resblocks_1_conv2_bias_to_fp16 = const()[name = tensor<string, []>("inner_model_unet_u_blocks_3_resblocks_1_conv2_bias_to_fp16"), val = tensor<fp16, [64]>(BLOBFILE(path = tensor<string, []>("@model_path/weights/weight.bin"), offset = tensor<uint64, []>(8387200)))];
            tensor<fp16, [1, 64, 64, 64]> x_215_cast_fp16 = conv(bias = inner_model_unet_u_blocks_3_resblocks_1_conv2_bias_to_fp16, dilations = var_1554, groups = var_77, pad = x_215_pad_0, pad_type = x_215_pad_type_0, strides = var_1552, weight = inner_model_unet_u_blocks_3_resblocks_1_conv2_weight_to_fp16, x = input_233_cast_fp16)[name = tensor<string, []>("x_215_cast_fp16")];
            tensor<fp16, [1, 64, 64, 64]> x_217_cast_fp16 = add(x = x_215_cast_fp16, y = r_21_cast_fp16)[name = tensor<string, []>("x_217_cast_fp16")];
            tensor<bool, []> input_235_interleave_0 = const()[name = tensor<string, []>("input_235_interleave_0"), val = tensor<bool, []>(false)];
            tensor<fp16, [1, 128, 64, 64]> input_235_cast_fp16 = concat(axis = var_77, interleave = input_235_interleave_0, values = (x_217_cast_fp16, x_1_cast_fp16))[name = tensor<string, []>("input_235_cast_fp16")];
            tensor<int32, [2]> var_1567 = const()[name = tensor<string, []>("op_1567"), val = tensor<int32, [2]>([1, 1])];
            tensor<int32, [2]> var_1569 = const()[name = tensor<string, []>("op_1569"), val = tensor<int32, [2]>([1, 1])];
            tensor<string, []> r_pad_type_0 = const()[name = tensor<string, []>("r_pad_type_0"), val = tensor<string, []>("custom")];
            tensor<int32, [4]> r_pad_0 = const()[name = tensor<string, []>("r_pad_0"), val = tensor<int32, [4]>([0, 0, 0, 0])];
            tensor<fp16, [64, 128, 1, 1]> inner_model_unet_u_blocks_3_resblocks_2_proj_weight_to_fp16 = const()[name = tensor<string, []>("inner_model_unet_u_blocks_3_resblocks_2_proj_weight_to_fp16"), val = tensor<fp16, [64, 128, 1, 1]>(BLOBFILE(path = tensor<string, []>("@model_path/weights/weight.bin"), offset = tensor<uint64, []>(8387392)))];
            tensor<fp16, [64]> inner_model_unet_u_blocks_3_resblocks_2_proj_bias_to_fp16 = const()[name = tensor<string, []>("inner_model_unet_u_blocks_3_resblocks_2_proj_bias_to_fp16"), val = tensor<fp16, [64]>(BLOBFILE(path = tensor<string, []>("@model_path/weights/weight.bin"), offset = tensor<uint64, []>(8403840)))];
            tensor<fp16, [1, 64, 64, 64]> r_cast_fp16 = conv(bias = inner_model_unet_u_blocks_3_resblocks_2_proj_bias_to_fp16, dilations = var_1569, groups = var_77, pad = r_pad_0, pad_type = r_pad_type_0, strides = var_1567, weight = inner_model_unet_u_blocks_3_resblocks_2_proj_weight_to_fp16, x = input_235_cast_fp16)[name = tensor<string, []>("r_cast_fp16")];
            tensor<int32, [5]> reshape_92_shape_0 = const()[name = tensor<string, []>("reshape_92_shape_0"), val = tensor<int32, [5]>([1, 4, 32, 64, 64])];
            tensor<fp16, [1, 4, 32, 64, 64]> reshape_92_cast_fp16 = reshape(shape = reshape_92_shape_0, x = input_235_cast_fp16)[name = tensor<string, []>("reshape_92_cast_fp16")];
            tensor<int32, [3]> reduce_mean_132_axes_0 = const()[name = tensor<string, []>("reduce_mean_132_axes_0"), val = tensor<int32, [3]>([2, 3, 4])];
            tensor<bool, []> reduce_mean_132_keep_dims_0 = const()[name = tensor<string, []>("reduce_mean_132_keep_dims_0"), val = tensor<bool, []>(true)];
            tensor<fp16, [1, 4, 1, 1, 1]> reduce_mean_132_cast_fp16 = reduce_mean(axes = reduce_mean_132_axes_0, keep_dims = reduce_mean_132_keep_dims_0, x = reshape_92_cast_fp16)[name = tensor<string, []>("reduce_mean_132_cast_fp16")];
            tensor<fp16, [1, 4, 32, 64, 64]> sub_88_cast_fp16 = sub(x = reshape_92_cast_fp16, y = reduce_mean_132_cast_fp16)[name = tensor<string, []>("sub_88_cast_fp16")];
            tensor<fp16, [1, 4, 32, 64, 64]> square_44_cast_fp16 = square(x = sub_88_cast_fp16)[name = tensor<string, []>("square_44_cast_fp16")];
            tensor<int32, [3]> reduce_mean_134_axes_0 = const()[name = tensor<string, []>("reduce_mean_134_axes_0"), val = tensor<int32, [3]>([2, 3, 4])];
            tensor<bool, []> reduce_mean_134_keep_dims_0 = const()[name = tensor<string, []>("reduce_mean_134_keep_dims_0"), val = tensor<bool, []>(true)];
            tensor<fp16, [1, 4, 1, 1, 1]> reduce_mean_134_cast_fp16 = reduce_mean(axes = reduce_mean_134_axes_0, keep_dims = reduce_mean_134_keep_dims_0, x = square_44_cast_fp16)[name = tensor<string, []>("reduce_mean_134_cast_fp16")];
            tensor<fp16, []> add_46_y_0_to_fp16 = const()[name = tensor<string, []>("add_46_y_0_to_fp16"), val = tensor<fp16, []>(0x1.5p-17)];
            tensor<fp16, [1, 4, 1, 1, 1]> add_46_cast_fp16 = add(x = reduce_mean_134_cast_fp16, y = add_46_y_0_to_fp16)[name = tensor<string, []>("add_46_cast_fp16")];
            tensor<fp16, [1, 4, 1, 1, 1]> sqrt_44_cast_fp16 = sqrt(x = add_46_cast_fp16)[name = tensor<string, []>("sqrt_44_cast_fp16")];
            tensor<fp16, [1, 4, 32, 64, 64]> real_div_44_cast_fp16 = real_div(x = sub_88_cast_fp16, y = sqrt_44_cast_fp16)[name = tensor<string, []>("real_div_44_cast_fp16")];
            tensor<int32, [4]> reshape_93_shape_0 = const()[name = tensor<string, []>("reshape_93_shape_0"), val = tensor<int32, [4]>([1, 128, 64, 64])];
            tensor<fp16, [1, 128, 64, 64]> reshape_93_cast_fp16 = reshape(shape = reshape_93_shape_0, x = real_div_44_cast_fp16)[name = tensor<string, []>("reshape_93_cast_fp16")];
            tensor<fp16, [256, 256]> inner_model_unet_u_blocks_3_resblocks_2_norm1_linear_weight_to_fp16 = const()[name = tensor<string, []>("inner_model_unet_u_blocks_3_resblocks_2_norm1_linear_weight_to_fp16"), val = tensor<fp16, [256, 256]>(BLOBFILE(path = tensor<string, []>("@model_path/weights/weight.bin"), offset = tensor<uint64, []>(8404032)))];
            tensor<fp16, [256]> inner_model_unet_u_blocks_3_resblocks_2_norm1_linear_bias_to_fp16 = const()[name = tensor<string, []>("inner_model_unet_u_blocks_3_resblocks_2_norm1_linear_bias_to_fp16"), val = tensor<fp16, [256]>(BLOBFILE(path = tensor<string, []>("@model_path/weights/weight.bin"), offset = tensor<uint64, []>(8535168)))];
            tensor<fp16, [1, 256]> linear_44_cast_fp16 = linear(bias = inner_model_unet_u_blocks_3_resblocks_2_norm1_linear_bias_to_fp16, weight = inner_model_unet_u_blocks_3_resblocks_2_norm1_linear_weight_to_fp16, x = linear_1_cast_fp16)[name = tensor<string, []>("linear_44_cast_fp16")];
            tensor<int32, [1]> var_1579_axes_0 = const()[name = tensor<string, []>("op_1579_axes_0"), val = tensor<int32, [1]>([2])];
            tensor<fp16, [1, 256, 1]> var_1579_cast_fp16 = expand_dims(axes = var_1579_axes_0, x = linear_44_cast_fp16)[name = tensor<string, []>("op_1579_cast_fp16")];
            tensor<int32, [1]> var_1580_axes_0 = const()[name = tensor<string, []>("op_1580_axes_0"), val = tensor<int32, [1]>([3])];
            tensor<fp16, [1, 256, 1, 1]> var_1580_cast_fp16 = expand_dims(axes = var_1580_axes_0, x = var_1579_cast_fp16)[name = tensor<string, []>("op_1580_cast_fp16")];
            tensor<int32, [2]> var_1581_split_sizes_0 = const()[name = tensor<string, []>("op_1581_split_sizes_0"), val = tensor<int32, [2]>([128, 128])];
            tensor<int32, []> var_1581_axis_0 = const()[name = tensor<string, []>("op_1581_axis_0"), val = tensor<int32, []>(1)];
            tensor<fp16, [1, 128, 1, 1]> var_1581_cast_fp16_0, tensor<fp16, [1, 128, 1, 1]> var_1581_cast_fp16_1 = split(axis = var_1581_axis_0, split_sizes = var_1581_split_sizes_0, x = var_1580_cast_fp16)[name = tensor<string, []>("op_1581_cast_fp16")];
            tensor<fp16, []> var_1583_promoted_to_fp16 = const()[name = tensor<string, []>("op_1583_promoted_to_fp16"), val = tensor<fp16, []>(0x1p+0)];
            tensor<fp16, [1, 128, 1, 1]> var_1584_cast_fp16 = add(x = var_1581_cast_fp16_0, y = var_1583_promoted_to_fp16)[name = tensor<string, []>("op_1584_cast_fp16")];
            tensor<fp16, [1, 128, 64, 64]> var_1585_cast_fp16 = mul(x = reshape_93_cast_fp16, y = var_1584_cast_fp16)[name = tensor<string, []>("op_1585_cast_fp16")];
            tensor<fp16, [1, 128, 64, 64]> input_237_cast_fp16 = add(x = var_1585_cast_fp16, y = var_1581_cast_fp16_1)[name = tensor<string, []>("input_237_cast_fp16")];
            tensor<fp16, [1, 128, 64, 64]> input_239_cast_fp16 = silu(x = input_237_cast_fp16)[name = tensor<string, []>("input_239_cast_fp16")];
            tensor<int32, [2]> var_1590 = const()[name = tensor<string, []>("op_1590"), val = tensor<int32, [2]>([1, 1])];
            tensor<int32, [2]> var_1592 = const()[name = tensor<string, []>("op_1592"), val = tensor<int32, [2]>([1, 1])];
            tensor<string, []> x_221_pad_type_0 = const()[name = tensor<string, []>("x_221_pad_type_0"), val = tensor<string, []>("custom")];
            tensor<int32, [4]> x_221_pad_0 = const()[name = tensor<string, []>("x_221_pad_0"), val = tensor<int32, [4]>([1, 1, 1, 1])];
            tensor<fp16, [64, 128, 3, 3]> inner_model_unet_u_blocks_3_resblocks_2_conv1_weight_to_fp16 = const()[name = tensor<string, []>("inner_model_unet_u_blocks_3_resblocks_2_conv1_weight_to_fp16"), val = tensor<fp16, [64, 128, 3, 3]>(BLOBFILE(path = tensor<string, []>("@model_path/weights/weight.bin"), offset = tensor<uint64, []>(8535744)))];
            tensor<fp16, [64]> inner_model_unet_u_blocks_3_resblocks_2_conv1_bias_to_fp16 = const()[name = tensor<string, []>("inner_model_unet_u_blocks_3_resblocks_2_conv1_bias_to_fp16"), val = tensor<fp16, [64]>(BLOBFILE(path = tensor<string, []>("@model_path/weights/weight.bin"), offset = tensor<uint64, []>(8683264)))];
            tensor<fp16, [1, 64, 64, 64]> x_221_cast_fp16 = conv(bias = inner_model_unet_u_blocks_3_resblocks_2_conv1_bias_to_fp16, dilations = var_1592, groups = var_77, pad = x_221_pad_0, pad_type = x_221_pad_type_0, strides = var_1590, weight = inner_model_unet_u_blocks_3_resblocks_2_conv1_weight_to_fp16, x = input_239_cast_fp16)[name = tensor<string, []>("x_221_cast_fp16")];
            tensor<int32, [5]> reshape_94_shape_0 = const()[name = tensor<string, []>("reshape_94_shape_0"), val = tensor<int32, [5]>([1, 2, 32, 64, 64])];
            tensor<fp16, [1, 2, 32, 64, 64]> reshape_94_cast_fp16 = reshape(shape = reshape_94_shape_0, x = x_221_cast_fp16)[name = tensor<string, []>("reshape_94_cast_fp16")];
            tensor<int32, [3]> reduce_mean_135_axes_0 = const()[name = tensor<string, []>("reduce_mean_135_axes_0"), val = tensor<int32, [3]>([2, 3, 4])];
            tensor<bool, []> reduce_mean_135_keep_dims_0 = const()[name = tensor<string, []>("reduce_mean_135_keep_dims_0"), val = tensor<bool, []>(true)];
            tensor<fp16, [1, 2, 1, 1, 1]> reduce_mean_135_cast_fp16 = reduce_mean(axes = reduce_mean_135_axes_0, keep_dims = reduce_mean_135_keep_dims_0, x = reshape_94_cast_fp16)[name = tensor<string, []>("reduce_mean_135_cast_fp16")];
            tensor<fp16, [1, 2, 32, 64, 64]> sub_90_cast_fp16 = sub(x = reshape_94_cast_fp16, y = reduce_mean_135_cast_fp16)[name = tensor<string, []>("sub_90_cast_fp16")];
            tensor<fp16, [1, 2, 32, 64, 64]> square_45_cast_fp16 = square(x = sub_90_cast_fp16)[name = tensor<string, []>("square_45_cast_fp16")];
            tensor<int32, [3]> reduce_mean_137_axes_0 = const()[name = tensor<string, []>("reduce_mean_137_axes_0"), val = tensor<int32, [3]>([2, 3, 4])];
            tensor<bool, []> reduce_mean_137_keep_dims_0 = const()[name = tensor<string, []>("reduce_mean_137_keep_dims_0"), val = tensor<bool, []>(true)];
            tensor<fp16, [1, 2, 1, 1, 1]> reduce_mean_137_cast_fp16 = reduce_mean(axes = reduce_mean_137_axes_0, keep_dims = reduce_mean_137_keep_dims_0, x = square_45_cast_fp16)[name = tensor<string, []>("reduce_mean_137_cast_fp16")];
            tensor<fp16, []> add_47_y_0_to_fp16 = const()[name = tensor<string, []>("add_47_y_0_to_fp16"), val = tensor<fp16, []>(0x1.5p-17)];
            tensor<fp16, [1, 2, 1, 1, 1]> add_47_cast_fp16 = add(x = reduce_mean_137_cast_fp16, y = add_47_y_0_to_fp16)[name = tensor<string, []>("add_47_cast_fp16")];
            tensor<fp16, [1, 2, 1, 1, 1]> sqrt_45_cast_fp16 = sqrt(x = add_47_cast_fp16)[name = tensor<string, []>("sqrt_45_cast_fp16")];
            tensor<fp16, [1, 2, 32, 64, 64]> real_div_45_cast_fp16 = real_div(x = sub_90_cast_fp16, y = sqrt_45_cast_fp16)[name = tensor<string, []>("real_div_45_cast_fp16")];
            tensor<int32, [4]> reshape_95_shape_0 = const()[name = tensor<string, []>("reshape_95_shape_0"), val = tensor<int32, [4]>([1, 64, 64, 64])];
            tensor<fp16, [1, 64, 64, 64]> reshape_95_cast_fp16 = reshape(shape = reshape_95_shape_0, x = real_div_45_cast_fp16)[name = tensor<string, []>("reshape_95_cast_fp16")];
            tensor<fp16, [128, 256]> inner_model_unet_u_blocks_3_resblocks_2_norm2_linear_weight_to_fp16 = const()[name = tensor<string, []>("inner_model_unet_u_blocks_3_resblocks_2_norm2_linear_weight_to_fp16"), val = tensor<fp16, [128, 256]>(BLOBFILE(path = tensor<string, []>("@model_path/weights/weight.bin"), offset = tensor<uint64, []>(8683456)))];
            tensor<fp16, [128]> inner_model_unet_u_blocks_3_resblocks_2_norm2_linear_bias_to_fp16 = const()[name = tensor<string, []>("inner_model_unet_u_blocks_3_resblocks_2_norm2_linear_bias_to_fp16"), val = tensor<fp16, [128]>(BLOBFILE(path = tensor<string, []>("@model_path/weights/weight.bin"), offset = tensor<uint64, []>(8749056)))];
            tensor<fp16, [1, 128]> linear_45_cast_fp16 = linear(bias = inner_model_unet_u_blocks_3_resblocks_2_norm2_linear_bias_to_fp16, weight = inner_model_unet_u_blocks_3_resblocks_2_norm2_linear_weight_to_fp16, x = linear_1_cast_fp16)[name = tensor<string, []>("linear_45_cast_fp16")];
            tensor<int32, [1]> var_1602_axes_0 = const()[name = tensor<string, []>("op_1602_axes_0"), val = tensor<int32, [1]>([2])];
            tensor<fp16, [1, 128, 1]> var_1602_cast_fp16 = expand_dims(axes = var_1602_axes_0, x = linear_45_cast_fp16)[name = tensor<string, []>("op_1602_cast_fp16")];
            tensor<int32, [1]> var_1603_axes_0 = const()[name = tensor<string, []>("op_1603_axes_0"), val = tensor<int32, [1]>([3])];
            tensor<fp16, [1, 128, 1, 1]> var_1603_cast_fp16 = expand_dims(axes = var_1603_axes_0, x = var_1602_cast_fp16)[name = tensor<string, []>("op_1603_cast_fp16")];
            tensor<int32, [2]> var_1604_split_sizes_0 = const()[name = tensor<string, []>("op_1604_split_sizes_0"), val = tensor<int32, [2]>([64, 64])];
            tensor<int32, []> var_1604_axis_0 = const()[name = tensor<string, []>("op_1604_axis_0"), val = tensor<int32, []>(1)];
            tensor<fp16, [1, 64, 1, 1]> var_1604_cast_fp16_0, tensor<fp16, [1, 64, 1, 1]> var_1604_cast_fp16_1 = split(axis = var_1604_axis_0, split_sizes = var_1604_split_sizes_0, x = var_1603_cast_fp16)[name = tensor<string, []>("op_1604_cast_fp16")];
            tensor<fp16, []> var_1606_promoted_to_fp16 = const()[name = tensor<string, []>("op_1606_promoted_to_fp16"), val = tensor<fp16, []>(0x1p+0)];
            tensor<fp16, [1, 64, 1, 1]> var_1607_cast_fp16 = add(x = var_1604_cast_fp16_0, y = var_1606_promoted_to_fp16)[name = tensor<string, []>("op_1607_cast_fp16")];
            tensor<fp16, [1, 64, 64, 64]> var_1608_cast_fp16 = mul(x = reshape_95_cast_fp16, y = var_1607_cast_fp16)[name = tensor<string, []>("op_1608_cast_fp16")];
            tensor<fp16, [1, 64, 64, 64]> input_241_cast_fp16 = add(x = var_1608_cast_fp16, y = var_1604_cast_fp16_1)[name = tensor<string, []>("input_241_cast_fp16")];
            tensor<fp16, [1, 64, 64, 64]> input_243_cast_fp16 = silu(x = input_241_cast_fp16)[name = tensor<string, []>("input_243_cast_fp16")];
            tensor<int32, [2]> var_1613 = const()[name = tensor<string, []>("op_1613"), val = tensor<int32, [2]>([1, 1])];
            tensor<int32, [2]> var_1615 = const()[name = tensor<string, []>("op_1615"), val = tensor<int32, [2]>([1, 1])];
            tensor<string, []> x_225_pad_type_0 = const()[name = tensor<string, []>("x_225_pad_type_0"), val = tensor<string, []>("custom")];
            tensor<int32, [4]> x_225_pad_0 = const()[name = tensor<string, []>("x_225_pad_0"), val = tensor<int32, [4]>([1, 1, 1, 1])];
            tensor<fp16, [64, 64, 3, 3]> inner_model_unet_u_blocks_3_resblocks_2_conv2_weight_to_fp16 = const()[name = tensor<string, []>("inner_model_unet_u_blocks_3_resblocks_2_conv2_weight_to_fp16"), val = tensor<fp16, [64, 64, 3, 3]>(BLOBFILE(path = tensor<string, []>("@model_path/weights/weight.bin"), offset = tensor<uint64, []>(8749376)))];
            tensor<fp16, [64]> inner_model_unet_u_blocks_3_resblocks_2_conv2_bias_to_fp16 = const()[name = tensor<string, []>("inner_model_unet_u_blocks_3_resblocks_2_conv2_bias_to_fp16"), val = tensor<fp16, [64]>(BLOBFILE(path = tensor<string, []>("@model_path/weights/weight.bin"), offset = tensor<uint64, []>(8823168)))];
            tensor<fp16, [1, 64, 64, 64]> x_225_cast_fp16 = conv(bias = inner_model_unet_u_blocks_3_resblocks_2_conv2_bias_to_fp16, dilations = var_1615, groups = var_77, pad = x_225_pad_0, pad_type = x_225_pad_type_0, strides = var_1613, weight = inner_model_unet_u_blocks_3_resblocks_2_conv2_weight_to_fp16, x = input_243_cast_fp16)[name = tensor<string, []>("x_225_cast_fp16")];
            tensor<fp16, [1, 64, 64, 64]> x_cast_fp16 = add(x = x_225_cast_fp16, y = r_cast_fp16)[name = tensor<string, []>("x_cast_fp16")];
            tensor<int32, [5]> reshape_96_shape_0 = const()[name = tensor<string, []>("reshape_96_shape_0"), val = tensor<int32, [5]>([1, 2, 32, 64, 64])];
            tensor<fp16, [1, 2, 32, 64, 64]> reshape_96_cast_fp16 = reshape(shape = reshape_96_shape_0, x = x_cast_fp16)[name = tensor<string, []>("reshape_96_cast_fp16")];
            tensor<int32, [3]> reduce_mean_138_axes_0 = const()[name = tensor<string, []>("reduce_mean_138_axes_0"), val = tensor<int32, [3]>([2, 3, 4])];
            tensor<bool, []> reduce_mean_138_keep_dims_0 = const()[name = tensor<string, []>("reduce_mean_138_keep_dims_0"), val = tensor<bool, []>(true)];
            tensor<fp16, [1, 2, 1, 1, 1]> reduce_mean_138_cast_fp16 = reduce_mean(axes = reduce_mean_138_axes_0, keep_dims = reduce_mean_138_keep_dims_0, x = reshape_96_cast_fp16)[name = tensor<string, []>("reduce_mean_138_cast_fp16")];
            tensor<fp16, [1, 2, 32, 64, 64]> sub_92_cast_fp16 = sub(x = reshape_96_cast_fp16, y = reduce_mean_138_cast_fp16)[name = tensor<string, []>("sub_92_cast_fp16")];
            tensor<fp16, [1, 2, 32, 64, 64]> square_46_cast_fp16 = square(x = sub_92_cast_fp16)[name = tensor<string, []>("square_46_cast_fp16")];
            tensor<int32, [3]> reduce_mean_140_axes_0 = const()[name = tensor<string, []>("reduce_mean_140_axes_0"), val = tensor<int32, [3]>([2, 3, 4])];
            tensor<bool, []> reduce_mean_140_keep_dims_0 = const()[name = tensor<string, []>("reduce_mean_140_keep_dims_0"), val = tensor<bool, []>(true)];
            tensor<fp16, [1, 2, 1, 1, 1]> reduce_mean_140_cast_fp16 = reduce_mean(axes = reduce_mean_140_axes_0, keep_dims = reduce_mean_140_keep_dims_0, x = square_46_cast_fp16)[name = tensor<string, []>("reduce_mean_140_cast_fp16")];
            tensor<fp16, []> add_48_y_0_to_fp16 = const()[name = tensor<string, []>("add_48_y_0_to_fp16"), val = tensor<fp16, []>(0x1.5p-17)];
            tensor<fp16, [1, 2, 1, 1, 1]> add_48_cast_fp16 = add(x = reduce_mean_140_cast_fp16, y = add_48_y_0_to_fp16)[name = tensor<string, []>("add_48_cast_fp16")];
            tensor<fp16, [1, 2, 1, 1, 1]> sqrt_46_cast_fp16 = sqrt(x = add_48_cast_fp16)[name = tensor<string, []>("sqrt_46_cast_fp16")];
            tensor<fp16, [1, 2, 32, 64, 64]> real_div_46_cast_fp16 = real_div(x = sub_92_cast_fp16, y = sqrt_46_cast_fp16)[name = tensor<string, []>("real_div_46_cast_fp16")];
            tensor<int32, [4]> reshape_97_shape_0 = const()[name = tensor<string, []>("reshape_97_shape_0"), val = tensor<int32, [4]>([1, 64, 64, 64])];
            tensor<fp16, [1, 64, 64, 64]> reshape_97_cast_fp16 = reshape(shape = reshape_97_shape_0, x = real_div_46_cast_fp16)[name = tensor<string, []>("reshape_97_cast_fp16")];
            tensor<fp16, [1, 64, 64, 64]> input_cast_fp16 = silu(x = reshape_97_cast_fp16)[name = tensor<string, []>("input_cast_fp16")];
            tensor<int32, [2]> var_1628 = const()[name = tensor<string, []>("op_1628"), val = tensor<int32, [2]>([1, 1])];
            tensor<int32, [2]> var_1630 = const()[name = tensor<string, []>("op_1630"), val = tensor<int32, [2]>([1, 1])];
            tensor<string, []> model_output_pad_type_0 = const()[name = tensor<string, []>("model_output_pad_type_0"), val = tensor<string, []>("custom")];
            tensor<int32, [4]> model_output_pad_0 = const()[name = tensor<string, []>("model_output_pad_0"), val = tensor<int32, [4]>([1, 1, 1, 1])];
            tensor<fp16, [3, 64, 3, 3]> inner_model_conv_out_weight_to_fp16 = const()[name = tensor<string, []>("inner_model_conv_out_weight_to_fp16"), val = tensor<fp16, [3, 64, 3, 3]>(BLOBFILE(path = tensor<string, []>("@model_path/weights/weight.bin"), offset = tensor<uint64, []>(8823360)))];
            tensor<fp16, [3]> inner_model_conv_out_bias_to_fp16 = const()[name = tensor<string, []>("inner_model_conv_out_bias_to_fp16"), val = tensor<fp16, [3]>([0x1.028p-6, -0x1.b74p-7, 0x1.318p-10])];
            tensor<fp16, [1, 3, 64, 64]> model_output_cast_fp16 = conv(bias = inner_model_conv_out_bias_to_fp16, dilations = var_1630, groups = var_77, pad = model_output_pad_0, pad_type = model_output_pad_type_0, strides = var_1628, weight = inner_model_conv_out_weight_to_fp16, x = input_cast_fp16)[name = tensor<string, []>("model_output_cast_fp16")];
            tensor<fp16, [1, 3, 64, 64]> var_1633_cast_fp16 = mul(x = c_skip_cast_fp16, y = noisy_next_obs)[name = tensor<string, []>("op_1633_cast_fp16")];
            tensor<fp16, [1, 3, 64, 64]> var_1634_cast_fp16 = mul(x = c_out_cast_fp16, y = model_output_cast_fp16)[name = tensor<string, []>("op_1634_cast_fp16")];
            tensor<fp16, [1, 3, 64, 64]> d_cast_fp16 = add(x = var_1633_cast_fp16, y = var_1634_cast_fp16)[name = tensor<string, []>("d_cast_fp16")];
            tensor<fp16, []> var_1637_promoted_to_fp16 = const()[name = tensor<string, []>("op_1637_promoted_to_fp16"), val = tensor<fp16, []>(-0x1p+0)];
            tensor<fp16, []> var_1638_promoted_to_fp16 = const()[name = tensor<string, []>("op_1638_promoted_to_fp16"), val = tensor<fp16, []>(0x1p+0)];
            tensor<fp16, [1, 3, 64, 64]> denoised = clip(alpha = var_1637_promoted_to_fp16, beta = var_1638_promoted_to_fp16, x = d_cast_fp16)[name = tensor<string, []>("op_1639_cast_fp16")];
        } -> (denoised);
}